models/dnn.pth (torch, 57253 bytes, 6 tensors)

net.0.weight f4 [128, 36]
000000 4a b7 99 3d 14 91 95 bd c7 b5 7f 3f e2 48 47 3e
       0.07505663 -0.07303062 0.99886745 0.19461396
000010 df 44 87 3d fd f2 14 be b5 14 99 3e a3 d0 78 3d
       0.06604933 -0.14545818 0.2989861 0.060745846
000020 a1 44 8b be a9 48 01 3c 5b 70 4b bf 98 fe be bd
       -0.27200797 0.007890859 -0.79468316 -0.09325904
000030 08 45 d6 3c ca 3b 36 be d1 21 14 3e ef 67 d3 bd
       0.026155964 -0.17796245 0.14466025 -0.10322558
000040 bc 04 e5 bc 31 6a 4b 3d 7b 20 73 bd 9d eb 67 3d
       -0.02795636 0.04966182 -0.059357148 0.056621183
000050 40 8c 0a 3d 02 ae 1b 3d 06 ae 09 3d 9a 69 57 be
       0.03382516 0.038007744 0.033613227 -0.21036378
000060 ba 7a 16 3e 54 5a 87 bd 94 e8 16 3b 3a aa da bd
       0.14695254 -0.066090256 0.002302681 -0.106769994
000070 95 85 36 3e e0 2f 9b be 22 f7 3e 3e d2 e2 89 3d
       0.17824395 -0.30309963 0.18648961 0.06732716
000080 69 7c 29 3d 99 be 5a bc ff a3 f5 be 44 8b 63 3e
       0.041378412 -0.013351106 -0.47976682 0.22221094
000090 3a 4a 3e 3d 63 91 19 3d 7a e3 cc 3e ea d8 77 3e
       0.046457507 0.037492167 0.400173 0.2420384
0000a0 a9 0b 5b bc d1 ed 36 3e 17 b4 f5 be 08 ab 37 be
       -0.013369479 0.17864157 -0.4798896 -0.17936337
0000b0 04 32 c1 3d 80 62 9c 3e b1 50 a0 be af b3 4b bf
       0.09433368 0.305439 -0.31311563 -0.7957105
0000c0 c0 7b 79 bf c3 96 3c 3f 5b 24 3d 3e e1 bc 98 3e
       -0.9745445 0.73667544 0.184709 0.29831603
0000d0 43 21 09 3f 40 21 a1 3c 92 21 9a 3c c3 1c 71 bc
       0.5356638 0.019669175 0.018814836 -0.01471633
0000e0 91 3f 49 3e 4b d3 5e be 58 8b b9 3e 81 9d 19 3e
       0.19653155 -0.2176029 0.36239123 0.15001489
0000f0 7c bf 9d be c5 fb 6a bd 78 12 06 be 74 10 00 bf
       -0.30810153 -0.057369012 -0.13092983 -0.50025105
000100 67 c4 5d 3d d3 da 62 3d 3b 26 4f bf 79 e4 a4 3d
       0.054142382 0.05538447 -0.8091771 0.0805139
000110 de 50 ae bd 4b fa 1e 3d 23 b6 94 be 31 62 85 be
       -0.08511518 0.038812917 -0.2904521 -0.26051477
000120 7a 8e 00 3c b3 a6 1b 3e 63 b4 10 3f 01 01 9b bb
       0.007846469 0.1520031 0.5652525 -0.0047303443
000130 36 fe 28 be 27 c9 e1 bd 08 55 1d bf 13 dd 6f 3e
       -0.16503224 -0.11024695 -0.6145787 0.23424177
000140 d2 f1 3f bf 31 cd 3a bd 36 c0 38 bd a9 85 c2 bd
       -0.74978364 -0.045605842 -0.04510518 -0.0949815
000150 c7 35 1c 3d 81 0b 9f 3e 81 b1 2d bd fc fc a8 be
       0.038137224 0.31063464 -0.04240561 -0.33005512
000160 6c 45 ba 3e 5b 58 46 be ea c4 b3 3c 40 86 13 be
       0.3638109 -0.19369642 0.021944482 -0.14406681
000170 d9 5e df 3d b4 b5 1d bc c4 05 07 3c bb 26 97 3e
       0.10906763 -0.009625841 0.008241121 0.29521737
000180 c2 f5 bc 3e 2c dd 4e be 4d 92 28 be 08 eb 52 3c
       0.36906248 -0.20201558 -0.1646206 0.012873419
000190 fa 98 ab bc eb 92 0a bd 53 bd 86 bf 1b ee 69 3f
       -0.020946968 -0.03383152 -1.0526527 0.91378945
0001a0 ec b0 37 3e 24 0b 49 be 65 af 03 3c 0e c6 57 be
       0.17938584 -0.19633156 0.008037423 -0.21071646
0001b0 d5 ab 30 bd 02 94 e2 3d cd fe 91 3c aa f2 d0 3e
       -0.04313262 0.110633865 0.017821694 0.40810138
0001c0 4e 24 a7 3e 69 03 e4 3d 3a e1 fb bc b4 88 eb bb
       0.32644886 0.11133463 -0.030747045 -0.007187927
0001d0 c2 f7 1c be aa b5 96 3d d5 e7 3e bd 71 c0 7e be
       -0.15328887 0.073588684 -0.04660781 -0.24878098
0001e0 b6 52 86 3b 3c d8 8a bd f2 d0 77 be 18 20 40 be
       0.0040992154 -0.06779525 -0.242008 -0.18762243
0001f0 26 ce 46 be cf 73 08 be b2 65 a5 be 23 5a 02 3e
       -0.19414577 -0.13325427 -0.3230415 0.12729697
000200 59 56 3a be 1f ca 03 3f 73 b3 a9 be c7 ac cb be
       -0.18197002 0.5148029 -0.3314472 -0.39780256
000210 9b d2 16 3e 80 ab 8e be 29 93 50 3d 85 59 b6 3c
       0.14728777 -0.2786522 0.050921593 0.022259483
000220 e1 06 06 3e df 95 a9 bd 07 c5 5a 3e ee aa 52 3e
       0.13088562 -0.08280539 0.21364222 0.20573017
000230 b1 57 1a bb 6f 4f e9 bc 42 62 ea bb 97 fe 82 3e
       -0.0023550803 -0.02848026 -0.0071528265 0.25584862
000240 3e 81 ae 3b dc c2 5b be f9 d7 92 3f c3 e3 bf 3e
       0.0053254655 -0.21461052 1.147216 0.37478456
000250 60 ca 51 be ae b0 91 be 8a 8f 76 3e 0f 78 23 3d
       -0.20487356 -0.28455108 0.24078193 0.03990942
000260 bc 20 61 bd 17 e4 07 bc ee 4c 2e bf 75 61 cc be
       -0.05496286 -0.008294127 -0.68086135 -0.39918104
000270 db 98 52 bc f2 0c 73 be 69 1c 92 3e 6f 97 81 3c
       -0.012853826 -0.23735407 0.285373 0.01581928
000280 5d d9 c6 bd 48 8d dc 3d fc 90 87 be ac 4d 9a 3d
       -0.097094275 0.10769135 -0.26477802 0.07534346
000290 e8 6f 32 3b 28 53 dd 3c cd e2 b8 3c ec 8f 68 be
       0.0027227346 0.027017191 0.022569085 -0.22711152
0002a0 be a2 02 3d 27 39 b3 3d b6 a7 05 3d 18 c3 42 bd
       0.031893484 0.08751135 0.032630645 -0.047549337
0002b0 4e 52 8e 3d 36 d9 6d be 0e e0 a3 bc 04 6f c5 ba
       0.06949292 -0.2322739 -0.020004299 -0.0015062992
0002c0 ba e2 1d 3d f1 04 90 bd 14 36 ab 3c 5f 7b 86 3d
       0.0385463 -0.070321925 0.02089981 0.065665
0002d0 9e 03 e9 bc 20 ff 40 be e0 85 87 3d 2a a3 ea 3d
       -0.028444108 -0.18847322 0.066173315 0.11456902
0002e0 cc 58 e1 be 4a 5e d1 be 63 7a f7 be ce 44 0a 3e
       -0.4401306 -0.4089225 -0.4833556 0.1350281
0002f0 cd c2 bc 3d 28 3d ec 3d 49 e9 da be f2 c3 4a bf
       0.09216843 0.11535102 -0.42756107 -0.7920524
000300 1e 82 c2 3c 16 9a 06 3f cc 75 9c 3e f8 29 04 3e
       0.023743685 0.52578866 0.30558622 0.12906635
000310 90 41 42 3f 3f fe 6e 3d 29 23 32 bc 6d ba 8d 3d
       0.7588129 0.058347937 -0.010872641 0.069203235
000320 e1 a6 f0 3e 5f 46 96 b9 78 76 4c 3e 04 2b 9c 3c
       0.47002319 -0.0002866266 0.19967067 0.01906348
000330 fa 6a 87 be df e7 c9 bd fe 3a a3 3e 3a b1 82 bc
       -0.26448804 -0.09858679 0.31880945 -0.015953649
000340 ab ad 12 3d 9a 83 24 bc d4 89 8a bf 17 59 ce 3e
       0.035810154 -0.010041142 -1.0823312 0.40302345
000350 24 b9 c5 39 58 95 b3 bc 72 a8 35 be 08 ae a2 be
       0.0003771271 -0.021921799 -0.17740038 -0.317734
000360 13 5a 1b bd d3 53 3a bf 30 bd 43 3d af 0c 9d 3c
       -0.0379277 -0.72784156 0.047787845 0.019171087
000370 2a a7 1d be f7 47 8b be 70 3f 8a 3d 0e 0a 6b 3d
       -0.153958 -0.27203342 0.06750381 0.057382636
000380 d8 64 89 3e 81 19 a6 3b 7d e9 6a bd 27 92 e6 bc
       0.2683475 0.0050689583 -0.057351578 -0.028145863
000390 ba d6 40 3d 10 67 f4 3e 16 ab 66 3e a7 86 32 be
       0.04707978 0.4773488 0.22526202 -0.17434178
0003a0 8c 0e ca be fe dc 1d 3e a6 48 28 be 11 69 a8 bd
       -0.39464223 0.15416333 -0.16433963 -0.08223165
0003b0 d1 dc ef 3c 24 0e 05 3c 12 f5 a8 bc dc 8a 6f 3e
       0.029280098 0.008121047 -0.020624671 0.23392814
0003c0 e9 52 ab be 30 42 76 3e 03 6a 28 3e b5 c0 d7 3c
       -0.33461693 0.24048686 0.1644669 0.026337007
0003d0 52 2f 96 bd ec 7f 9d bd 9d 72 00 bf f7 ec 6f 3f
       -0.073332444 -0.07690415 -0.50174886 0.93720955
0003e0 29 a5 68 3e 8d 43 38 be 03 a3 9f 3b 12 a1 3c be
       0.22719254 -0.17994519 0.0048717274 -0.18420818
0003f0 e2 da 1e bc a4 c3 b7 bd 84 62 b9 3c 28 06 fe be
       -0.00969574 -0.08972862 0.022629984 -0.49614072

net.0.bias f4 [128]
000000 ec 1a 46 bc 64 ed 4e bd dd 95 12 3e b7 d6 20 be
       -0.01209138 -0.050519362 0.14314981 -0.15706907
000010 13 fb 39 bd 7a de 51 be ac ed 96 3e 2d 87 0c bf
       -0.04540546 -0.20495024 0.29478204 -0.5489376
000020 7f 0d 1e be 49 73 37 3d 05 76 46 be 80 37 71 3d
       -0.15434836 0.04478768 -0.19380958 0.05889082
000030 3f 67 b4 be f9 d7 1a be 0a 62 a8 be ce 47 79 be
       -0.3523502 -0.1512145 -0.32887298 -0.24343798
000040 97 f9 9d be 86 62 c2 3d ff 96 1b be 0d c4 ef bd
       -0.30854484 0.09491448 -0.15194319 -0.117073156
000050 d6 be 4e bc 21 2f 9a be 0e b5 8c 3c c5 a4 d8 be
       -0.012618741 -0.30114082 0.017176177 -0.4231321
000060 d6 fe 79 be 9e b4 f4 be f6 d6 a4 bd de 76 0a 3c
       -0.24413618 -0.4779405 -0.08048813 0.008451192
000070 76 0f c4 be 3d a9 89 be fa 6c b2 be 25 ad fc be
       -0.38293046 -0.2688693 -0.34848768 -0.4935085
000080 10 fd 5b be 6d ea 44 3c fe 88 af 3d 28 58 b1 be
       -0.21483254 0.012018782 0.08571051 -0.3463757
000090 c4 59 49 be 4a 6b 04 bf 24 48 39 be 5a b1 0e be
       -0.19663149 -0.5172621 -0.18093926 -0.13934842
0000a0 3d cd 7d bc ee ce 41 be 22 0e 3c be 86 eb a0 bd
       -0.015490827 -0.18926594 -0.18364766 -0.078574225
0000b0 b6 f6 8e be bb 54 75 be ca 76 20 bf f2 9d 1a bd
       -0.279226 -0.23958103 -0.6268126 -0.037748285
0000c0 d8 0f 05 be 0f c0 ec be 94 95 31 bd 0a a5 fd be
       -0.12994325 -0.4624028 -0.04335554 -0.49539977
0000d0 54 81 88 be 75 b0 fa 3d 05 96 aa bd 73 24 8a be
       -0.2666117 0.12240688 -0.08329395 -0.26980934
0000e0 55 a5 d3 bd 2f 47 7e 3d 2d 9d ac be 3c 51 9b 3e
       -0.10334269 0.062079605 -0.33713666 0.30335414
0000f0 49 21 d1 bd e1 7d 84 be a4 4a 3a be f5 41 2c be
       -0.10211427 -0.25877288 -0.18192536 -0.16822036
000100 fc 7d a0 3c 6e 38 d6 bd f8 ce 36 be d2 4c b8 be
       0.019591324 -0.10459982 -0.1785239 -0.3599611
000110 b3 b5 92 bd 47 57 74 be 90 16 d0 3d dc 4a b7 be
       -0.071635626 -0.23861419 0.101605535 -0.357993
000120 f8 f2 1f 3d 1e fc 1b bc 29 a6 0a be 8f 94 16 be
       0.039050072 -0.009520559 -0.13539948 -0.14705108
000130 da ed d7 3d 2e 2d 51 be 03 5f a6 bd fa f2 56 be
       0.105434135 -0.20427391 -0.08123591 -0.20991126
000140 e9 15 99 bd 07 dc ce bd 0d e3 31 3e b6 a9 d4 be
       -0.07474882 -0.10100561 0.17371769 -0.4153573
000150 63 09 7f 3d 73 20 e0 3d 28 07 ab 3b 90 4d 23 be
       0.06226481 0.10943689 0.005219359 -0.15947556
000160 53 28 c5 3d 53 c2 b0 be 88 e2 31 bf 77 2c 0b bf
       0.09626832 -0.34523258 -0.69486284 -0.5436472
000170 2d ba bc be 86 88 c3 be 36 8f 33 3d 7e 42 2b bf
       -0.3686079 -0.38190097 0.04383775 -0.66898334
000180 6e e3 95 3d 03 a0 ca bd ef 2b 17 3e 71 49 98 be
       0.073187694 -0.09893801 0.14762853 -0.2974353
000190 80 e1 ce bd 67 e6 e8 bd 05 d3 90 be 91 8c 8d be
       -0.101016045 -0.11372071 -0.28285995 -0.27646306
0001a0 ac fa 6f bf 3f db 09 3b 6e be ce 3d dc 84 79 bd
       -0.9374187 0.0021035222 0.10094915 -0.06091772
0001b0 2d fe f0 bd 83 0f 87 be 32 23 06 be ff 26 a2 bd
       -0.1176723 -0.26379022 -0.13099363 -0.07917594
0001c0 1f fb 05 be 8c 59 06 3c 9a 15 26 bf 9e e1 3f bf
       -0.13084076 0.008200061 -0.6487671 -0.7495364
0001d0 1a cd 11 be a8 a1 11 be 2a ed b8 bd 9f 0d cc bc
       -0.14238396 -0.14221823 -0.090296105 -0.024908839
0001e0 fb 43 92 3d 21 83 3b bf 43 70 d0 bd c3 e9 b2 be
       0.071418725 -0.7324696 -0.10177662 -0.3494397
0001f0 ac c0 3d be 93 de d0 3d cc 84 a6 be 7b aa b3 bd
       -0.1853053 0.10198703 -0.3252319 -0.08772751

net.3.weight f4 [64, 128]
000000 93 c9 6d bf 1a 90 a1 3d 70 c6 50 3e 29 09 49 bd
       -0.928857 0.07888813 0.20388198 -0.049081
000010 e2 ed 24 bf 51 35 fa 3d 0a 69 6e 3e 19 6f f5 bd
       -0.6442548 0.122172005 0.23282257 -0.11984081
000020 fd f0 94 bc a3 aa a7 3e fb 72 09 be 52 f4 20 3e
       -0.018181318 0.32747373 -0.13422768 0.15718201
000030 07 7f 2a 3d 92 3b 91 bd 05 d0 42 be a1 e0 27 3c
       0.04162505 -0.0709144 -0.19024666 0.010246427
000040 97 9c 09 3f 66 13 0b be 42 d1 b5 be 95 f1 ec be
       0.5375456 -0.13581619 -0.35511214 -0.46278062
000050 06 c3 e1 3d f5 ab c7 3c 94 79 6c be 9b fd a5 be
       0.11023526 0.024373988 -0.23093253 -0.32420048
000060 1b 7e e2 bd 20 62 39 3d d3 28 7f 3e 63 6f 95 be
       -0.11059209 0.045259595 0.24917917 -0.29186544
000070 14 9a fe be 22 29 b7 be 5d 6b b2 be f9 63 7f 3e
       -0.49726927 -0.3577357 -0.34847537 0.2494048
000080 b7 1d 0c bf fa 3b 91 bf c9 b8 a7 3e 72 d1 69 be
       -0.5473284 -1.1346428 0.32758167 -0.22833803
000090 8d 23 08 3e 79 c1 bb 3d 56 7e 98 bf af 40 e9 be
       0.13294812 0.09167761 -1.1913555 -0.45557162
0000a0 e6 c0 bd 3c ab 42 f7 3c 35 9f 56 3e 42 02 18 bf
       0.02316327 0.030183157 0.2095917 -0.59378445
0000b0 48 03 0f 3d ea 37 f3 bc f2 30 82 be ef 67 02 bf
       0.03491524 -0.029689748 -0.25427967 -0.5093984
0000c0 e1 4d d7 be 71 56 e9 be f3 18 29 be 5c 67 a2 be
       -0.42051604 -0.45573762 -0.16513424 -0.31719482
0000d0 fc e1 36 be c3 62 cc 3e a4 5f e2 be ca d7 2c 3e
       -0.17859644 0.399191 -0.44213593 0.16879192
0000e0 41 9e 59 3e 09 68 61 3e 97 f6 0c 3e ba 0f be 3e
       0.21251775 0.22012343 0.13765942 0.37121373
0000f0 41 50 88 3d 92 0f 0d bc 9f 49 1a 3f 5a ae 36 3d
       0.06655932 -0.008609669 0.60268587 0.04459987
000100 15 f4 d6 bc ee c9 a6 3d b9 ac 42 be bd 03 2c be
       -0.026239434 0.08143984 -0.19011201 -0.16798301
000110 94 ee 88 be 19 40 c8 be 87 77 b1 bf 7f 78 00 3e
       -0.2674452 -0.39111403 -1.3864602 0.12545966
000120 90 40 2e 3e 0a 34 e6 3d 88 1f 3a be 43 e8 8b 3e
       0.17016816 0.112403944 -0.1817609 0.2732564
000130 32 51 49 3e 2f a6 f3 3d 50 b2 2a be 86 82 44 3e
       0.1965988 0.118969314 -0.16669583 0.19190416
000140 16 dd 4c 3e 92 9e 57 3d 6d a9 a9 bd c5 35 46 3d
       0.20006213 0.05264146 -0.082842685 0.048391122
000150 af bd 90 3e 61 3a 1d be 6f 9e 33 3e ad 0a a0 be
       0.28269717 -0.15354301 0.17540906 -0.31258145
000160 11 cc d1 3d 13 17 2f bf e3 c2 bc bd 40 b1 7d 3e
       0.10244001 -0.68394583 -0.09216859 0.24774647
000170 30 15 39 3e 43 2c f9 be e9 77 0d bc c5 ec 67 be
       0.18074489 -0.48666582 -0.008634546 -0.22648914
000180 83 80 56 3e df 21 64 be c2 25 bc 3d b5 4d 0c be
       0.20947461 -0.22278546 0.09186889 -0.13701518
000190 23 38 71 3d 32 40 cf bd 2b 79 ad be ae 84 91 be
       0.058891427 -0.10119666 -0.33881506 -0.2842154
0001a0 17 9a 87 be d9 bf d6 3d 7e 0c 10 be ee b1 12 3e
       -0.2648475 0.10485811 -0.14067265 0.14325687
0001b0 88 e6 71 3b 19 77 e2 bd ae a1 3f 3e d8 b1 19 3e
       0.003691109 -0.11057872 0.1871402 0.15009248
0001c0 4a 94 2b bf d1 32 d4 be e7 14 0a bf 8f e6 18 be
       -0.67023146 -0.4144502 -0.53938144 -0.14931701
0001d0 1b fc ad 3e 03 95 84 bf 64 d2 18 3f b6 63 45 bf
       0.33981404 -1.0357975 0.5969603 -0.7710527
0001e0 99 0a 1d 3e 31 c2 d9 be 1c 6c 65 be ce 15 77 bd
       0.15336074 -0.4253097 -0.22404522 -0.06032353
0001f0 19 e7 22 3f 9f 65 1e 3e bb 86 79 bd ac 45 ac 3e
       0.6363388 0.15468453 -0.060919505 0.33646905
000200 c8 f3 b2 be c2 86 07 3e 28 5d d6 bd 8a 58 2c be
       -0.34951615 0.13235 -0.10466987 -0.1683065
000210 ee f7 1e bf e7 1e 64 3e 65 96 18 3e 8a 95 81 3e
       -0.6209706 0.22277413 0.14901121 0.25309402
000220 47 dc 7d be 63 85 aa 3e 95 4d 7c 3c 30 9c 98 be
       -0.2479106 0.3330489 0.015399356 -0.29806662
000230 2a 11 27 be 5f 7b d6 3d e9 24 dd bd e5 a5 56 be
       -0.16315141 0.1047275 -0.10798056 -0.20961721
000240 80 72 93 bf 54 b7 07 3e d5 f8 29 be 1c 55 0a 3d
       -1.1519318 0.13253528 -0.16598828 0.033772573
000250 8d ed da bd 35 3d fe bd 9a 1d 05 3e ff 32 2b 3d
       -0.106898405 -0.12414018 0.12999573 0.04179668
000260 f0 4d b8 3d 2a c0 21 3f 5d 5b 93 3e 39 69 50 bf
       0.089992404 0.63183844 0.28780642 -0.8141056
000270 e3 1e f3 bd 83 3e 78 3e ef ce 8d bd 20 32 bb bf
       -0.118711255 0.24242596 -0.06924235 -1.4624672
000280 9b b2 35 3c 58 e4 dd 3e f0 ef 2b 3d 00 cc 75 3e
       0.011089946 0.43338275 0.04197687 0.24003601
000290 37 33 ef 3d d8 ba a0 3e 41 03 58 3e 92 c9 93 3e
       0.1167969 0.3139255 0.21094991 0.28864723
0002a0 92 d0 92 bd 06 ef 31 be f2 94 6b 3d 0c 95 32 bd
       -0.07168688 -0.17376336 0.057515092 -0.043599173
0002b0 75 ab a2 3d 46 c1 aa be 49 88 24 be ce 72 cb be
       0.07942859 -0.3335058 -0.16067614 -0.39736027
0002c0 4d 4b a7 bd 96 d1 cf 3d 89 8b 87 3d ad 17 6c bd
       -0.08168659 0.10147397 0.06618411 -0.057639766
0002d0 06 24 be bd d8 4e 80 3e 9e 4a 15 3d ab b8 03 bf
       -0.09284215 0.25060153 0.036448114 -0.51453656
0002e0 b7 07 4f 3e f9 28 e1 3d 39 96 0e be 3a db 9e 3e
       0.20217787 0.10994143 -0.13924493 0.31026632
0002f0 01 61 8e be 93 30 15 3f d3 ea a2 3e de 4f 6e be
       -0.27808383 0.58277243 0.31819782 -0.23272654
000300 2e ec 07 bd 88 be 0c be b1 0e 85 3d 3c 1d 17 be
       -0.033184223 -0.13744557 0.06496943 -0.14757246
000310 49 b0 45 3d 7e 24 5d 3c 21 b0 67 3e 09 34 eb 3d
       0.04826382 0.01349747 0.22625782 0.11484534
000320 72 6c 91 be 35 b1 c8 be 0a 01 71 3e c1 ef 3c bf
       -0.2840305 -0.39197698 0.23535553 -0.73803335
000330 4a db b5 3d b9 af d0 be 65 d3 96 3d 10 e4 ab bd
       0.08879717 -0.40759066 0.07364539 -0.08393109
000340 98 0a f4 3e b8 bf 3f 3d 18 cf bc 3e 5c e3 a8 3e
       0.47664332 0.046813697 0.3687675 0.3298596
000350 24 67 99 3e 09 01 05 bd 81 7f 95 be 2e a8 e3 bc
       0.29961503 -0.03247169 -0.2919884 -0.027790155
000360 41 a4 42 3e 1f eb 67 bf fd ba 95 3e 95 19 7a bf
       0.1900797 -0.9059314 0.29244223 -0.97695285
000370 fe 74 c7 be 80 1e 87 3c 63 38 4b bf bf 9a 86 3e
       -0.38956445 0.016494036 -0.79382914 0.26289937
000380 1c f4 1c 3e 3a c8 8d 3d 23 e7 88 3d 43 0a b8 3d
       0.15327495 0.06922956 0.06684711 0.08986332
000390 c0 20 bb bc cf 8b f9 3b cd ec 7e be 65 7b 53 bd
       -0.022842765 0.0076155434 -0.2489502 -0.05163135
0003a0 d9 8a d3 bd d8 a2 ed 3d 56 4d 2e 3e f7 4f 3d be
       -0.103292175 0.116033256 0.17021689 -0.18487535
0003b0 d5 a6 85 3d 78 1c b6 bd 5d 20 56 bd 17 74 92 bd
       0.06525961 -0.08892149 -0.052276958 -0.07151049
0003c0 76 3c 96 bd f9 aa e4 be 05 d8 33 bf 5a 5b 17 3f
       -0.07335751 -0.44661692 -0.70251495 0.59123766
0003d0 2f a4 67 3e 8a bb 84 3e 3f c3 c7 3e 25 5a 41 bf
       0.22621225 0.2592433 0.39016148 -0.75528175
0003e0 c1 44 5b bf fe f5 30 bf 8c 26 84 3e 75 81 26 bf
       -0.85651785 -0.69125354 0.2581066 -0.65041286
0003f0 fd fc 4b bf e3 03 d2 3c 99 58 17 be e9 ba b7 3d
       -0.79682904 0.025636619 -0.14779891 0.08971197

net.3.bias f4 [64]
000000 f4 9c 17 3f a2 70 ee 3e b8 32 0e bf 90 23 40 3f
       0.59223866 0.46570307 -0.5554614 0.75054264
000010 fc a9 58 3f 19 e5 2c 3f 80 fc 49 3d df 6e 20 3f
       0.84634376 0.67537075 0.04931307 0.62669176
000020 6e ac 50 3f 55 1a e7 3e 2a 3f ac be 99 48 39 3d
       0.81513107 0.45137277 -0.3364194 0.04523525
000030 31 64 67 3f f1 0a 5a 3f aa 33 25 3e 35 4b 80 3f
       0.90387255 0.85172945 0.1613299 1.0022951
000040 e8 e1 61 3f e6 3c 72 be 81 f3 ab 3e a6 72 21 3f
       0.8823533 -0.23656043 0.33584216 0.63065565
000050 53 cd 40 3f 21 40 88 3e 40 57 02 3f 29 2f 61 3f
       0.753133 0.26611426 0.5091438 0.87962586
000060 17 dd bd 3d 5b 87 9c 3e 3c b2 27 3f 2c 94 8a 3d
       0.09270685 0.30572018 0.6550634 0.06766543
000070 3d a3 48 3f cf d9 cc 3e bf 01 7f 3e ea 3e 42 3f
       0.7837408 0.40009925 0.2490301 0.7587725
000080 79 fe b5 3e 6e ce 01 3f dd 63 73 3e ae 10 27 3f
       0.3554571 0.5070561 0.23768564 0.65259826
000090 c3 5e d0 3e 5a b6 35 3f 37 df 15 3f 3a f3 2b 3f
       0.40697297 0.7098137 0.58543724 0.6716801
0000a0 de f0 19 3e a8 9c 8e 3f d5 98 b2 3d a2 90 27 3f
       0.1503329 1.1141558 0.08720557 0.6545507
0000b0 f7 73 4d 3f ec 39 a8 3e 68 8d 0b 3f 81 6b 28 3f
       0.80255073 0.3285669 0.54512644 0.6578904
0000c0 df 34 e5 3e 73 a6 99 3e 4a 3f 32 3f 3a 41 03 3f
       0.447669 0.30009803 0.6962782 0.512714
0000d0 0b 2a 6e 3f 4b 9f b0 bc b3 ba 8f 3e 16 2b 82 3e
       0.930329 -0.021560332 0.28072128 0.25423497
0000e0 04 d8 1b 3e 45 5a 29 3f 0d 9b 94 3e 4f 61 06 3f
       0.15219122 0.66153365 0.29024544 0.5249223
0000f0 3c 48 73 3f 6e 3d af 3e 3a d5 b7 3e 8b 2a 0b 3f
       0.95032096 0.34226555 0.35904866 0.5436179

net.5.weight f4 [10, 64]
000000 c5 4d 5a 3f 2d f7 52 bf c2 39 b4 be cf 2b a9 be
       0.85274917 -0.8240841 -0.35200316 -0.33041236
000010 8d 60 fc 3e 4c 6d 58 3f 78 0f ea be ce 35 bf 3e
       0.49292412 0.84541774 -0.45714927 0.37345737
000020 43 a9 3e bf 27 47 ba be 67 bc a4 3b 30 ee 85 be
       -0.7447702 -0.3638241 0.005027342 -0.26158285
000030 8c e4 d9 bc 03 aa ab bd 89 c2 79 3d 6f 21 3b bf
       -0.026598237 -0.083820365 0.06097654 -0.7309789
000040 fc 3e 01 bf d3 3f 66 be 04 59 cc be 55 62 5c bf
       -0.5048673 -0.22485285 -0.39911664 -0.8608754
000050 e3 9f 8c 3f 6e a4 1c bf 53 eb 16 3f 4c af a7 3e
       1.0986294 -0.611884 0.58952826 0.32750928
000060 25 14 d5 be 76 e8 92 3e f8 57 9d bf 22 4f 4f be
       -0.41616932 0.2869298 -1.2292471 -0.2024503
000070 bc 14 41 3d 49 9b a9 bf 8b 25 c4 3e 9d 4a 94 bf
       0.047138914 -1.3250514 0.38309893 -1.158527
000080 33 c4 55 3e ff cc 99 3d c2 83 cf be 2b 51 0c 3f
       0.20875625 0.07509803 -0.4053021 0.5481135
000090 06 09 ab be 9a af f7 3d 01 e1 2b bf 9c fb 17 be
       -0.33405322 0.1209404 -0.67140204 -0.14842075
0000a0 2d fe 0f be b1 41 84 bf 5a 4d de bd 0a 68 c1 be
       -0.14061804 -1.0332547 -0.108545974 -0.37774688
0000b0 69 9e 27 bf d2 f0 82 3e e4 58 27 be 91 16 fd be
       -0.6547609 0.25574356 -0.16342503 -0.4943128
0000c0 45 77 c1 be 50 9e dc 3e 96 3c 8e bd c0 ad 4b 3e
       -0.37786308 0.43089533 -0.069451496 0.19890499
0000d0 f8 3b f2 be 55 9b 3a bd e5 a3 da 3d 9e 4c 98 3c
       -0.47311378 -0.045558292 0.10675792 0.018591221
0000e0 2d d4 2d be 0e 6a f1 3e 5d bd eb 3d c6 c1 c1 3d
       -0.1697547 0.47151226 0.115107276 0.094607875
0000f0 9f 70 99 3e 8a 91 25 bf 05 ab aa 3e 51 37 41 bf
       0.29968736 -0.646752 0.33333603 -0.7547503
000100 e6 82 60 3e 98 e2 19 bf be c5 71 be df d5 8c 3f
       0.21924934 -0.6011138 -0.23610589 1.1002768
000110 4a 47 f5 be 25 59 d9 3e b7 11 1e bf d6 03 89 3e
       -0.47905952 0.42450824 -0.6174578 0.2676074
000120 83 82 44 bc 22 05 4d be f7 1d 48 be 72 cc 89 bd
       -0.011994007 -0.2002149 -0.1954268 -0.06728448
000130 04 24 f3 be f8 72 82 be ac 56 03 bc 87 38 c7 3f
       -0.47488415 -0.2547834 -0.00801627 1.5564126
000140 a7 50 3a 3f 0b ed e3 3e ec 98 67 3e f2 3b 13 bf
       0.72779316 0.44516787 0.22616929 -0.57513344
000150 14 9d 5b bf bf f4 9c bf ce 62 73 bf 42 df b7 3e
       -0.8578656 -1.226219 -0.9507264 0.3591252
000160 aa ff d3 3e 20 60 af bd db 51 6b bf b5 61 80 3e
       0.41405994 -0.08563256 -0.91921777 0.25074545
000170 ed 50 81 be 67 3a 8b bf 36 5b ad 3e fd 98 d6 be
       -0.25257054 -1.0877198 0.3385865 -0.41913596
000180 49 92 92 be d4 22 28 3e 13 29 15 3d 24 c5 11 bf
       -0.28627232 0.16419536 0.036416125 -0.5694144
000190 38 56 ed be 6a 87 94 3e 78 aa 55 be 00 6e 9d 3e
       -0.46354842 0.29009563 -0.2086581 0.30747986
0001a0 ea 7e 3e 3e 01 97 91 3f 20 c4 fc 3e 8b f1 5a 3b
       0.18603101 1.1374208 0.49368382 0.003340813
0001b0 49 08 9a bf 9d 1d 07 be 14 a6 00 3c 2b eb d0 be
       -1.2033778 -0.1319489 0.007852096 -0.4080442
0001c0 04 59 cd be 87 c4 05 3e b5 5e 42 3f 58 f2 29 be
       -0.40106976 0.1306325 0.7592576 -0.16596353
0001d0 49 50 db be bd 12 5e be 32 7e 44 3d 7d 55 ad be
       -0.4283469 -0.21686836 0.04797191 -0.33854285
0001e0 b4 d8 3c be b8 f5 16 bf 5a 9b 41 bd 31 97 cd be
       -0.1844204 -0.5896869 -0.047267295 -0.40154412
0001f0 b1 71 05 be 27 95 e8 3e 60 a5 b1 be 64 d3 e1 3d
       -0.13031651 0.45426294 -0.34696484 0.11026648
000200 bc fe ec be f2 3e 76 be b5 05 3a be e3 32 06 bf
       -0.46288097 -0.24047449 -0.1816624 -0.52421397
000210 2d 69 d7 be 68 b7 a8 3e 90 99 21 3e 5f 6e 9a bc
       -0.4207243 0.32952428 0.15781236 -0.018851457
000220 68 08 26 bd c6 67 10 be ad 51 1d 3e 48 ed 0a 3e
       -0.04053536 -0.14102086 0.15363188 0.13567078
000230 c1 b3 c6 bd 3a 0f 1b 3d 5f 97 93 3d a8 37 83 bf
       -0.09702254 0.037856318 0.07206606 -1.025136
000240 d7 fb 17 3e ca a7 0c 3e b9 83 38 3e b5 48 ba 3e
       0.14842163 0.13735881 0.18018998 0.36383596
000250 7e ec c0 3e 90 b0 a1 3c 25 fb a3 3d 99 dc e4 3e
       0.3768043 0.019737512 0.080068864 0.44699553
000260 32 90 55 3e 39 7b 25 3e 3d 8b d8 3b c4 dc 1d 3e
       0.20855787 0.16160287 0.0066083954 0.15416247
000270 70 4c 01 bd bf fb 7c bf c4 d2 13 be 19 56 f0 be
       -0.031567037 -0.98821634 -0.1443587 -0.46940687
000280 69 96 03 3c cf a7 21 3e 04 10 fa 3c 60 35 66 bf
       0.008031466 0.1578667 0.030525215 -0.89925194
000290 dd f8 6a bd 41 85 8a be 11 8b 08 3e 17 b8 af bc
       -0.05736624 -0.2705479 0.133343 -0.021450086
0002a0 9c 0c 5b 3e 93 f0 44 bf 1d 11 9c be ee 3d ae bd
       0.21391529 -0.7692959 -0.30481806 -0.08507906
0002b0 43 21 95 be 5e 0c c3 bc 41 ff a4 3f 23 93 80 3e
       -0.2912694 -0.023809608 1.2890397 0.25112256
0002c0 d3 8f 01 3e 9d cd 6a 3d a5 31 a6 be cf 70 e3 3d
       0.12652521 0.057324994 -0.3245975 0.11105501
0002d0 a7 fe 05 bf ef 2a 0d 3e 18 2c 55 be 5b 16 ed bd
       -0.52341694 0.13785909 -0.20817602 -0.115765296
0002e0 93 05 e3 3b 76 f7 35 be c9 02 00 be 13 91 8d 3e
       0.0069281547 -0.1777018 -0.12501062 0.27649745
0002f0 40 14 07 3f c2 64 28 3e 75 dd 3f bd 61 47 fc be
       0.52765274 0.16444686 -0.046842057 -0.49273208
000300 92 d5 62 be 90 0c fa bd eb 31 6d be 66 7d 24 bf
       -0.22151783 -0.12209427 -0.23163573 -0.6425384
000310 8e c2 9c be b4 fc 94 bf fc 21 0d 3e 92 ab 2f 3d
       -0.30617183 -1.1639619 0.13782495 0.04288823
000320 79 10 76 3e 6e 1d 5e be 69 03 74 3d 28 c0 54 3e
       0.24029721 -0.21690914 0.059573565 0.20776427
000330 5c 8a 4b 3e fc 6d a1 3e d6 c3 fd 3d 45 b0 46 bf
       0.19876999 0.31529224 0.12390868 -0.77612716
000340 65 a9 b6 3e 08 5e ec 3d 34 90 3d bb 4b c6 85 3d
       0.35676113 0.115413725 -0.0028925063 0.06531962
000350 c2 fd d4 3d 83 02 04 bd cf 68 b2 be 20 1c fe 3e
       0.10399963 -0.032228958 -0.34845588 0.49630833
000360 24 e7 9a 3d 21 7f 00 3e 69 63 ad bc fd 7f 0a 3e
       0.07563618 0.12548496 -0.021165567 0.13525386
000370 24 4c e9 3d 8b 64 d8 3f 7b 3e 5e 3d 57 e7 68 bf
       0.11391476 1.6905683 0.054258805 -0.90977997
000380 0e bd 01 3e 9c 03 34 3e 51 6b a3 3d fc 84 d6 be
       0.12669775 0.17579502 0.07979453 -0.41898334
000390 c2 08 e4 3b a3 81 6c be 13 4d 4c 3e 17 23 86 be
       0.006959052 -0.23096327 0.19951276 -0.26198646
0003a0 dc 13 5f 3d ca 0a 55 bf d5 ee 0f be 26 27 0a 3d
       0.0544623 -0.8321959 -0.14055951 0.03372874
0003b0 8d e4 fe be 81 23 22 3d fe cc f1 be f3 ba 83 3d
       -0.49783745 0.03958464 -0.4722671 0.06432142
0003c0 68 b8 36 bc c9 91 3a 3e df 6d 52 3f c6 a7 be 3d
       -0.011152364 0.18219675 0.821989 0.09309344
0003d0 ea e2 09 bf e1 e4 3f 3d ac 07 ae bd 02 e7 08 be
       -0.5386187 0.046849135 -0.08497557 -0.13369372
0003e0 87 79 a0 3d 4f 92 1c 3e ac a1 ae bd b1 81 85 3e
       0.078356795 0.15290187 -0.0852693 0.2607551
0003f0 fe f7 94 be c4 ee b7 3e 2c aa cc bd 7a 94 97 bc
       -0.29095453 0.3592435 -0.09993395 -0.018503416

net.5.bias f4 [10]
000000 61 1a 96 be 66 d2 d6 be b5 f8 d5 be 92 2c ec 3e
       -0.29317 -0.41957396 -0.4179131 0.46127754
000010 20 1b 73 3e cf 21 fd be 2a b2 b3 3c c9 b9 10 3e
       0.23740816 -0.49439856 0.021935541 0.14133371
000020 b8 f4 5d be 98 f3 b5 3e
       -0.21675384 0.3553741
