models/gan_NSL_KDD.pth (torch, 40581 bytes, 4 tensors)

net.0.weight f4 [128, 32]
00000000: b889 84bb c2ab 63bc df4e d0bb c056 e13b
00000010: 08ca 033d 5a33 373c 8767 80bc 0df1 aebc
00000020: cbb5 5d3c 1878 5a3d 767e 343d e675 bc3c
00000030: eb9a 263c 6817 c6bc de03 a1bb 8a4e 943c
00000040: d4a7 bfbb 254c 4dbb ad3c 8f3c a05c c0bc
00000050: d332 a2bb d957 953c 15e8 483c 1579 c0bb
00000060: cab9 923b 24d5 21bc 5173 713c 4de2 babb
00000070: de3a c7bc 7ae6 96bc 14cc b6bb 0724 ee3b
00000080: 7ce0 203c c5e0 ccbd 9827 26be aba9 e43c
00000090: b701 a73d 7d10 6abd 8c9a b83c 90cd 5abd
000000a0: 2468 1b3e a550 d63d 678f d23d bffc c5bc
000000b0: f873 97bd e1c0 30be b2d1 a23c 3813 e33d
000000c0: de9b 68bc db85 2fbe 55b0 5e3c ca4a a8bd
000000d0: cabf 773c 35e4 8d3d 16d7 22bc bddd 6cbc
000000e0: 1463 18bd d3a2 133e 6929 353e b10e a43d
000000f0: eaa7 a13d ccc3 25bd fab1 db3d e73d ec3c
00000100: 345d 30bd 1810 94bd d459 13bd d084 09bc
00000110: 8fcd 0c3b 83b7 523d de18 e6bd 386d c53b
00000120: ca86 4c3a 96db c2bd 626d d0bb c551 32bd
00000130: 86c2 d43c 2d10 7c3d 36ab 133e c863 f13c
00000140: 82b2 f9bc 4fe4 8d3d fd06 7e3d bb3e c63b
00000150: b18c 0fbe cabe 26bd 9626 78bd 35e1 e6bd
00000160: 4bac aebd bc98 0dbe f3bb 123d 2fc0 953d
00000170: 8a89 ae3c f9c2 cd3b a4ce 54bd 55b8 ba3d
00000180: cb9f ec3c 89c2 8dbd 87aa babd bdce eb3c
00000190: ef99 c33c ba79 17bd 7ee8 55bc 0f59 9fbc
000001a0: 73df 833d 88a9 143c 7166 3b3d d40a cbbc
000001b0: 6a8d 39bb e6b0 17bd 86d7 d33c f527 583d
000001c0: bb61 8fbc ffe6 24bd 1639 91bc b264 50bd
000001d0: df4f 2ebd 1bfd 333b 519f 78bc 5dde 92bc
000001e0: 1d50 79bb 3f09 f93c 34ee 333d 89da a23b
000001f0: f773 ecbb a34a 45bd 4630 ffba c1ed 35bc
00000200: 80ef 893c f920 5bbd 39eb 49bd fbd8 acbc
00000210: 738e 843d 49fb c83c 0845 5abd 9345 9dbd
00000220: 1ed4 543c 899a e93d 48f6 c13d fa09 f73c
00000230: 17bd 34bd 92f3 cfbd eb20 22bc 6b0d 8c3d
00000240: 35ab dcbb 19d4 e7bc ca78 833d fd9a 88bd
00000250: 9f16 e9bc f3b4 1b3d 7006 053d 6476 2abd
00000260: 85a7 48bd 0fbd 11bb 5757 7b3d 81cf 963c
00000270: ee87 58bd abd9 0ebd 2ea7 2c3c 1af9 773d
00000280: 9dbc 313d 0c48 90bd 8744 aebd d24f 9f3c
00000290: d22c 813d f602 0dbd 2cca 7fbc bc5e 47bd
000002a0: 1af3 8d3d 9fee c73d 8465 a43d 27e9 f6bb
000002b0: 6dd8 24bd 2053 e3bd 1e9d e8bb 87f6 a93d
000002c0: f918 e7bb a2a7 87bd fed4 203c b5d3 a5bd
000002d0: bab1 d2bb 108d cc3c a067 763c e3ca 57bc
000002e0: 6d5b 80bc dd54 1d3d d62a 7e3d 4b12 183a
000002f0: d895 81bc c702 74bd 0ba1 813c 7f03 953c
00000300: be8e fe3c 5fdf 72bd a387 8ebd 22c8 2d3c
00000310: 9eeb 6d3d c8f1 55bd 9c1a 61bc b1ee 35bd
00000320: da51 a93d f020 833d 6212 6a3d f3ec 79bb
00000330: 42cd 93bc 13fb aabd 3928 c5bc e19d 803d
00000340: 5278 98bb 39c6 81bd a9e5 cc3a dec2 7abd
00000350: b51a 8139 c8ef 0f3d 4ef9 583c 020e 0ebc
00000360: 6f08 f23b acc7 4b3d 2d23 323d 4c40 a1bc
00000370: 4e58 09ba 809e 86bd 6778 da3c 4c36 673c
00000380: 8e2c 62bc 3088 893c 60a8 493c 2a46 67bc
00000390: 851a 5ebc 8ff0 ab3c bfff a1bc 5b01 bdbb
000003a0: 84bb 43bd 6838 10bc 5ba6 8dbc 113c a33c
000003b0: 61a3 0dbc fb6e aa3b 49fa db3b ca3b 1e3b
000003c0: 13e9 8eb8 2add a73c 1ed9 943c 69cf c73b
000003d0: 3695 4abb f83d 19ba 4d82 f4bb 70d9 febb
000003e0: 10f4 14bd 96fb 09bd 6ec3 0ebc ce2b 223c
000003f0: b352 89bb cab0 9f3c 485e c2bb 92eb c23c
-0.0040447377 -0.013895931 -0.0063570584 0.0068767965 0.032175094 0.011181677 -0.015674366 -0.021355176
0.013532112 0.053337187 0.044065915 0.023005437 0.010168771 -0.024181083 -0.004913791 0.018103857
-0.005848864 -0.0031325903 0.017484987 -0.023481667 -0.0049499064 0.018230366 0.012262364 -0.005873809
0.004477714 -0.009877477 0.014736966 -0.0057032467 -0.024320062 -0.018420447 -0.005578527 0.0072674784
0.009819146 -0.10003809 -0.16226041 0.027912935 0.08154624 -0.05714463 0.022534631 -0.053418696
0.15176445 0.104646005 0.10281258 -0.02416837 -0.07395166 -0.17261077 0.019875381 0.1108765
-0.014197318 -0.17140906 0.0135918455 -0.0821739 0.01512141 0.06928293 -0.009938976 -0.014457163
-0.037203863 0.14417581 0.17691578 0.08010615 0.07893355 -0.04046993 0.10727306 0.028838111
-0.043057635 -0.07229632 -0.03597434 -0.008393481 0.0021484827 0.05144454 -0.11235212 0.006024983
0.00078020676 -0.09514539 -0.0063606957 -0.043535013 0.025971662 0.061538864 0.1442078 0.029466525
-0.030480627 0.06928312 0.062018383 0.0060499585 -0.14018513 -0.040709294 -0.060583673 -0.112734236
-0.08528956 -0.13827795 0.035823774 0.07312047 0.021305818 0.006279346 -0.05195488 0.0911719
0.028884789 -0.0692187 -0.09114557 0.028785104 0.023877112 -0.036981322 -0.013055919 -0.019451646
0.06439104 0.0090736225 0.045751993 -0.024785437 -0.002831305 -0.037033938 0.025859606 0.05277248
-0.017502656 -0.040259358 -0.017727416 -0.05087728 -0.04255664 0.0027464095 -0.015174703 -0.017928297
-0.0038042136 0.030399917 0.04392834 0.004969899 -0.0072159725 -0.048166882 -0.0019469343 -0.011104048
0.016837835 -0.053498242 -0.04929659 -0.021099558 0.064724825 0.024533885 -0.05328849 -0.07679286
0.012990026 0.11406428 0.094708025 0.030156124 -0.044125643 -0.10153879 -0.009895544 0.06838497
-0.0067342767 -0.028299378 0.06419523 -0.06670187 -0.02845317 0.038014363 0.032476842 -0.041616812
-0.048987884 -0.0022237932 0.06136259 0.018409492 -0.052864008 -0.034875553 0.010537906 0.060540296
0.043392766 -0.07044992 -0.08509164 0.019447241 0.06307377 -0.034426652 -0.015612166 -0.04867433
0.069311336 0.0976231 0.08027175 -0.007535118 -0.040245462 -0.11099839 -0.007098808 0.082989745
-0.0070525375 -0.0662377 0.009816406 -0.080970205 -0.006429878 0.024969608 0.015039355 -0.013170931
-0.015668595 0.03841101 0.06205257 0.00058010657 -0.015818521 -0.05957296 0.015823862 0.018190144
0.031073924 -0.059295055 -0.069594644 0.010606797 0.05808603 -0.052232534 -0.013739254 -0.044417087
0.08267565 0.06402767 0.057146437 -0.0038135618 -0.01804221 -0.0834867 -0.024067031 0.06280113
-0.004653015 -0.06336636 0.0015632409 -0.061220996 0.00024624696 0.035140783 0.013243033 -0.008670332
0.0073862593 0.04975097 0.043490577 -0.01968398 -0.00052392937 -0.065732 0.02666874 0.0141120665
-0.013804568 0.016788572 0.01230821 -0.0141158495 -0.013556127 0.02098873 -0.01977527 -0.005767984
-0.04778625 -0.008802511 -0.017291239 0.019926103 -0.00864491 0.005201218 0.006713186 0.0024144524
-6.814501e-05 0.020491201 0.018169936 0.0060977233 -0.003091169 -0.0005845721 -0.007461822 -0.0077773854
-0.03636557 -0.033687197 -0.008713586 0.009898139 -0.0041907667 0.01949348 -0.0059316494 0.02379397

net.0.bias f4 [128]
00000000: 9781 cbbe 94b7 6abf b959 babe 463b 13bf
00000010: 5c5a 38bf 8ce7 f1be fe0b 6cbe 922c 093f
00000020: 4953 3cbf 9295 d63e 1af0 463c c8a0 a3be
00000030: 7a09 3fbf 344f b3be 2760 70be ce30 0cbf
00000040: 7dd2 f1bb 8e0c 4e3d a6d3 39bf 4f5c a2be
00000050: 44fd 14bf a540 ecbd 0fb0 0ebf a6a3 a6be
00000060: 03fa 40bf b739 59bf e6e9 a23e a8a7 fbbe
00000070: ef25 41bf 6dfc 21bf bc1f 05bf f2cf a4bc
00000080: 0c76 41bf 7a45 2abf f701 fc39 864b f0be
00000090: 31ad 46bf 30d6 0fbf 57f7 d3be 0ce3 f6be
000000a0: 85aa f63e dc44 6abe 3721 f7be 6aae 3cbf
000000b0: 2f2f 41bf 1f21 dc3d ab17 47bf 7741 4bbf
000000c0: 1eb2 89be ed09 40be 8466 12bf f697 2abf
000000d0: 9db9 1cbf d7ac a7be 120b 2abf c192 3ebf
000000e0: ac69 033f c80e 60bc 0896 8fbd 6d94 2ebf
000000f0: 34ed 57bf 7fc4 28bf 84c3 1bbf eade 07bf
00000100: 0e21 f7be 6429 31bf a78a 043c f74b 3dbf
00000110: 9d44 d1be 3a83 34be e4cd eebe db65 1dbf
00000120: c43f 87bf 1f8c 0bbf 563d 2ebf 7844 44bf
00000130: 0016 d1be ce20 24bf 8194 1ebe 7fd5 08bf
00000140: b66c 04bf 59fb 63bf cd41 ccbe 1e1e 21bf
00000150: 6189 d83d 4055 16bf 50ae 39bf c75e 09bf
00000160: acaa 1dbf f22f e1be 0f6a c4be 55e9 003d
00000170: 3bdd 0dbf 4676 c23e 36ae 893e 9dc3 3cbf
00000180: b42e 4fbe 2911 3ebe 83bc 0bbf ad2b abbe
00000190: 998d e93e 938b f1be ff4e 4cbf e46a efbe
000001a0: cdf8 4dbf f43d 0bbf 87cd f3be a1ea 1bbf
000001b0: f27f 32be 9e58 91bf e843 3bbf 48dd debe
000001c0: c8a6 04bf c016 d33e eac6 cfbe 1e4e e6be
000001d0: c30d db3e f039 caba b43d ab3e 660e 0ebf
000001e0: 3c7f e2be d455 69bf 072d afbe 85b6 4bbf
000001f0: bf26 a2be 6f06 4cbf 424e 1cbf fb41 2bbf
-0.39747307 -0.9168637 -0.36396578 -0.5751232 -0.7201288 -0.4724697 -0.2305145 0.53583634
-0.73564583 0.41910988 0.012142206 -0.31958604 -0.74623835 -0.35021365 -0.23474179 -0.5476197
-0.0073798285 0.05030494 -0.72588575 -0.3171105 -0.5819895 -0.115357675 -0.55737394 -0.3254673
-0.7538149 -0.8485369 0.31819075 -0.4915135 -0.7544851 -0.63275796 -0.5200155 -0.020118687
-0.7557075 -0.6651226 0.0004806665 -0.4693262 -0.7760802 -0.561862 -0.41399643 -0.48220098
0.4817697 -0.2287783 -0.48267528 -0.73703635 -0.7546262 0.10748505 -0.7777049 -0.79396766
-0.26893705 -0.18753786 -0.57187676 -0.66638124 -0.61220723 -0.32749054 -0.6642314 -0.7444268
0.5133312 -0.013675399 -0.07011038 -0.6819523 -0.8434632 -0.6592483 -0.6084521 -0.53074515
-0.48267406 -0.6920378 0.008089698 -0.7394404 -0.4087266 -0.17628184 -0.46641457 -0.61483544
-1.0566335 -0.5451068 -0.6806234 -0.76666975 -0.40837097 -0.64112556 -0.15486337 -0.5345077
-0.5172838 -0.890554 -0.39893952 -0.6293658 0.10573078 -0.5872383 -0.72531605 -0.53660244
-0.6158855 -0.43981892 -0.38362166 0.031472523 -0.55415696 0.3798086 0.26890725 -0.7373598
-0.2023266 -0.18561234 -0.5458452 -0.3343176 0.45615843 -0.471768 -0.7980804 -0.4676124
-0.80457765 -0.5439141 -0.47617742 -0.6090489 -0.1743162 -1.1355169 -0.7315049 -0.435282
-0.5181699 0.41228294 -0.40581447 -0.44981474 0.42783937 -0.0015428644 0.33445513 -0.5549072
-0.44237697 -0.9114659 -0.3421404 -0.7957538 -0.31670186 -0.79697317 -0.6105691 -0.66897553

net.2.weight f4 [41, 128]
00000000: be1e bdbd f9f7 123e be9e c8ba 3bcb e6bd
00000010: 6991 693d 058b bf3c 081c be3b ada3 23bd
00000020: efb0 bb3c 4fe2 eabd e5e9 003d 1fdf 5dbd
00000030: f114 e63b 7e53 9b3d 8faf a1bd 4554 973d
00000040: 9903 0e3c c3cd 86bd 4552 0b3e adfc fe3c
00000050: 2b9b 45bd a7d3 f8bc cbbc 5cbd 6ee6 6e3b
00000060: ee29 a6bd a559 a8bc f099 43bd fef2 a8bd
00000070: 9ad2 ca3c 135a 07be 153d 083d 92e4 db3b
00000080: e589 4abd 3f8a 96bd d228 b7bb b991 5c3b
00000090: dac7 f43d 03a6 093e 3f01 4d3d 0df5 84bd
000000a0: 98be 96bd 7365 07bd e62d 42bd 0c7d 14bd
000000b0: 0e86 94bd 1ab7 983d e128 3bbd bd1e 44bd
000000c0: 00ab edbc ed11 253d a6b7 133c 7fba aabb
000000d0: 925c 82ba d796 2f3d 808e fbbd 1d9a 92bc
000000e0: 6fd5 0239 6fac 1c3c 5f7b 783d cc28 a0bb
000000f0: 9bb5 e03c 0aa3 303e ff7c 243e 352c 78bc
00000100: 644f e23c 66e1 57bd cc1f 45bd 5602 c23c
00000110: e5ef 5fbc 8149 113d 417a aabc 1fcc e43b
00000120: 7263 483e 28ac 723d b852 e13b ab9c 083d
00000130: 082f 91bb a87a bc3d 0094 a1bc b166 0e3d
00000140: 9c82 c43d 1963 353e d568 283d cb08 ccbd
00000150: 2e4e a03c 23eb d53d ad7c f23d 92b4 003a
00000160: afec 303d 6a8b e23c a4f1 f53d 3119 a03b
00000170: fde9 55bd b712 c8bd 98a8 033d 439e f43d
00000180: 21d7 393c 3e75 e0bb 57d6 f93d 3f5a db3d
00000190: bd90 933d 317c e4bd 31ec af3d 7a86 5fbd
000001a0: 2580 89bd f082 b4bd 2d66 d33c 9bf5 873d
000001b0: eea0 28bc 6c41 c03d 9bd1 a2bc 07e4 a03b
000001c0: 6d3c 043e fc13 dcbc d38b 953d ee51 bcbc
000001d0: d0cc 2b3c 8905 423b b782 6b3d 4f1d af3c
000001e0: a393 cf3c d526 493b 30a6 a03c 5af5 203e
000001f0: bac8 41bc 6960 78bd fc9b 163d 4d99 5b3c
00000200: a090 b93d fb70 743d ddc4 c2bc 4b97 503d
00000210: 3a86 0dbb b774 ffbc a36b 67bc f8e7 9d3c
00000220: b5a4 b3bc 13b8 d6bc ce00 97bc 0cdd 73bc
00000230: 16a4 8c3d e9e6 e2bd acbc 903d b2c0 8abd
00000240: 9083 3dbd 15cd f7bc 0796 b73b 1208 82bd
00000250: 81f8 5b3d 7f37 8dbc a9ae 963d 70c9 013c
00000260: a061 1d3d b8ea e1bd bdac 223d 314f 6c3d
00000270: dab6 cc3c 1f7a 5dbd 1678 03be 2945 3bbd
00000280: a226 acbc f345 f3bd 9907 063d f8aa cebb
00000290: 23bb b8bd c7c6 b53d 13a7 de3c f68e f93d
000002a0: 3c3c 903c 6260 c23b 1e5d 90bd 3461 843d
000002b0: f806 edbd e428 de3b d982 e63c 05d8 3d3c
000002c0: 491e bb3c 50b2 f7bc 819f a5bd d4cf a43d
000002d0: 2bc2 683d 7e01 c7bc 71f1 36be aaa3 36bb
000002e0: 5f5f 6bbd 916a 5b3b 5e8a 4c3d 5c10 c23d
000002f0: c00d a0bc d2aa 24bd cd46 7a3d 89e7 283b
00000300: c227 38bd d6b4 ae3d 892d ae3c 26c1 17bd
00000310: 6130 13bc 0011 493c 4ab4 62bd 1f73 fe3c
00000320: dace 81bc 18d2 c2bd 932e 99bb 07a5 e7bc
00000330: 1115 c4bd 902f a7bb da0c 10bd a734 2dbd
00000340: d2f9 0fbd 395f 36be 781a 8c3d 70a6 70bc
00000350: 509b dfbc 0c76 23bd 9962 223d 1be4 dbbd
00000360: a901 e53c 4c81 b1bd 602e 353b 813b 6fbd
00000370: d74c 4e3d c5ba b4bc a0ac 713c 1e77 ccbd
00000380: 1989 61bd 51a5 e33d 9cae 80bd b636 d93d
00000390: 9979 82bc 3b2a f23d e509 95bc a640 10bb
000003a0: e42e f8bd 4582 e03c 4557 003d cfba 2fbd
000003b0: e9e5 09bd 8fdb b03d b6b5 85bd 8701 00bd
000003c0: 8c44 f9bb 078b 00be 824e a33c e2a2 9c3d
000003d0: f90f 1b3c 8720 acbc 41b7 65bd 2076 8abd
000003e0: 631f 3d3d e2f7 30bd c955 073d e304 94bd
000003f0: 6e80 d03b 4c13 2f3c a76a c6bd 2584 34be
-0.09234379 0.14352407 -0.0015306098 -0.11269232 0.05702344 0.02338172 0.0058016814 -0.039951015
0.022911517 -0.11468946 0.03147306 -0.054167863 0.0070215394 0.07584284 -0.07894813 0.0738912
0.00866785 -0.06582215 0.13605602 0.031126345 -0.048243683 -0.030374361 -0.053890985 0.0036453265
-0.08113466 -0.020550558 -0.047754228 -0.08249472 0.024758626 -0.13217954 0.033261377 0.0067105973
-0.049447913 -0.07350587 -0.005589583 0.0033656193 0.11952181 0.13442235 0.050050016 -0.06492052
-0.073605716 -0.033055734 -0.047407053 -0.036252066 -0.072521314 0.07456799 -0.045693282 -0.047880877
-0.029012203 0.0403003 0.009015953 -0.0052102203 -0.0009945801 0.04286846 -0.12283039 -0.017895753
0.00012477276 0.009562596 0.06066453 -0.004887676 0.027430346 0.17249694 0.16063307 -0.0151472585
0.027625747 -0.05270519 -0.048126027 0.023682754 -0.013668035 0.03547049 -0.020810248 0.006982341
0.19569185 0.059246212 0.006876316 0.033352535 -0.0044306554 0.09203082 -0.019723892 0.034765903
0.09595224 0.17713584 0.0411156 -0.099626146 0.019568529 0.104452394 0.11840186 0.00049097196
0.04319447 0.027654368 0.1200898 0.0048858155 -0.0522251 -0.097691946 0.032143205 0.119442485
0.011342795 -0.006849914 0.12199085 0.107105725 0.07205341 -0.111565 0.08589972 -0.054571606
-0.06713895 -0.08814037 0.025805557 0.066386424 -0.010292275 0.09387478 -0.019875338 0.0049099955
0.12913676 -0.026864998 0.0730206 -0.022988286 0.010485843 0.002960535 0.057497706 0.02137628
0.025338953 0.0030693312 0.019610494 0.15718594 -0.011827642 -0.06063882 0.036769852 0.013403249
0.09060788 0.05967806 -0.023775512 0.050925534 -0.0021594898 -0.031183584 -0.014124784 0.01927565
-0.021929124 -0.02621082 -0.018433 -0.014884245 0.068672344 -0.11079199 0.07067236 -0.06775035
-0.046268046 -0.030249158 0.0056026014 -0.063491955 0.05370379 -0.017238377 0.073575325 0.007921562
0.03842318 -0.11031097 0.039715517 0.05769271 0.024989534 -0.054071542 -0.12838778 -0.045720253
-0.021014515 -0.11878576 0.03272209 -0.006307002 -0.090200685 0.088758044 0.027179277 0.12185471
0.017606847 0.0059319 -0.07049011 0.064638525 -0.11573595 0.006779777 0.028138565 0.011587148
0.02284159 -0.030236393 -0.080870636 0.080474526 0.056825798 -0.024292704 -0.1786554 -0.0027868547
-0.057464 0.0033480267 0.049936645 0.094757766 -0.019537807 -0.04020197 0.061102677 0.0025772771
-0.04495979 0.085305855 0.021261947 -0.037049435 -0.008983702 0.0122721195 -0.05534772 0.031060753
-0.015845705 -0.095127285 -0.0046747415 -0.028276933 -0.095743306 -0.0051021054 -0.035168506 -0.04228654
-0.035150357 -0.17809762 0.06840986 -0.014688119 -0.027295738 -0.0399075 0.03964481 -0.10736867
0.027954893 -0.086672395 0.002764605 -0.058406357 0.05036625 -0.022061715 0.01475063 -0.09983657
-0.055062387 0.11115516 -0.06283304 0.106061384 -0.015927123 0.11824461 -0.018193195 -0.002201119
-0.12118319 0.027405867 0.031333227 -0.042902764 -0.033666525 0.086356275 -0.06528799 -0.031251457
-0.0076070484 -0.12553035 0.019934896 0.07648255 0.009464257 -0.021011604 -0.056082968 -0.06760812
0.04617251 -0.04320515 0.033040795 -0.072274946 0.0063629663 0.010685753 -0.09688311 -0.17628534

net.2.bias f4 [41]
00000000: d959 963b 1c98 e4bc d9a2 0fbb e00f 5dbd
00000010: 7517 bb3c e816 1abd ee23 1dbd 3d75 86bd
00000020: 8172 48bc 1251 0cbd 1a7a f8ba 6955 1bbe
00000030: 858b 193c 1707 a1bd 59ab 3fbd ba33 31bd
00000040: 4ca5 8abd 5b3e 19bd c99e d4bb d195 6fbc
00000050: 0b88 20bd b144 6abd ee6b 40bd 83d6 bcbc
00000060: da06 823e c7e6 873e e38e 07be 4cbf ecbd
00000070: a193 eabd 8dfb 95bd 41c3 cdbd 2694 f03d
00000080: 1eed 0dbc eb8a c8bd 7ed4 95bd becb bbbd
00000090: efa1 abbd 9fde 723e 6e5a 6b3e af91 0cbe
000000a0: 130b 7ebd
0.0045883474 -0.027904563 -0.0021917133 -0.053970218 0.022838334 -0.0376195 -0.038364343 -0.0656533
-0.012234331 -0.034257002 -0.0018957288 -0.151693 0.009371643 -0.078626804 -0.04679427 -0.04326222
-0.06769809 -0.037412982 -0.006488655 -0.014623121 -0.03919224 -0.057194415 -0.04697793 -0.023051506
0.25395852 0.26543257 -0.132381 -0.115599245 -0.11453939 -0.0732337 -0.10047007 0.11747007
-0.00866249 -0.097921215 -0.0731592 -0.0916972 -0.08380496 0.23717736 0.22983715 -0.13727449
-0.06202228
