models/gan_class_7.pth (torch, 16261 bytes, 4 tensors)

net.0.weight f4 [64, 16]
0	0x3d6b9443	0.05751444
1	0xbcdc8546	-0.026919018
2	0x3d7a2bc0	0.06107688
3	0x3c886709	0.016650693
4	0x3e738cc3	0.23784165
5	0x3d7906eb	0.060797613
6	0xbca551e9	-0.02018066
7	0xbe1ba9f1	-0.15201546
8	0x3e5788a6	0.21048221
9	0xbd055ef0	-0.032561243
10	0x3b868ada	0.004105908
11	0xbe69f991	-0.22849108
12	0x3d0ab252	0.033861466
13	0x3ce9c192	0.028534684
14	0x3bdc20ef	0.006717793
15	0x3e14f6c4	0.14547259
16	0x3dc5f107	0.09665113
17	0x3e3975e9	0.18111385
18	0xbe1f64d2	-0.15565804
19	0x3e2b2942	0.16714957
20	0x3df4127d	0.11917589
21	0xbe261de5	-0.16222341
22	0xbe63dd23	-0.22252326
23	0x3c702e42	0.014659466
24	0x3d771628	0.060323864
25	0xbe13f267	-0.14447938
26	0xbe483c65	-0.19554289
27	0xbdb4a93e	-0.08821343
28	0xbe347ffc	-0.17626947
29	0x3e105ad4	0.14097148
30	0x3db0b5ab	0.086284004
31	0xbe711097	-0.23541485
32	0x3dfc9b0f	0.123342626
33	0x3e57441c	0.21022075
34	0xbe5bf0ec	-0.21478623
35	0xbd11f96a	-0.03563825
36	0x3e6f5057	0.23370491
37	0xbe643416	-0.22285494
38	0x3e3ccd3b	0.18437664
39	0xbd8e1aa5	-0.06938676
40	0x3e78526c	0.24250191
41	0xbe7bee49	-0.24602617
42	0xbd9a2213	-0.075260304
43	0x3dc9007f	0.09814548
44	0xbdf8d9ac	-0.121508926
45	0x3e490309	0.19630064
46	0x3e5b33fb	0.21406548
47	0x3e25ac9f	0.16179131
48	0xbe583ba1	-0.21116497
49	0xbe0a7e33	-0.13524704
50	0xbe5eb1d9	-0.21747531
51	0x3d9fda07	0.07805257
52	0x3db31fa5	0.0874627
53	0xbe26ff97	-0.16308437
54	0x3e1e40e3	0.1545444
55	0x3e6862c0	0.2269392
56	0xbe24738e	-0.16059706
57	0xbd89309d	-0.066987254
58	0xbe5b731c	-0.2143063
59	0xbd3bb0ac	-0.045822784
60	0x3df2a71c	0.1184828
61	0xbe605a7e	-0.2190952
62	0xbe6b3d9f	-0.22972725
63	0xbd86a736	-0.06574862
64	0xbd2ec629	-0.04266945
65	0xbdb19e3f	-0.08672761
66	0x3d26c215	0.040712435
67	0xbe5016f2	-0.20321253
68	0x3e1190f4	0.14215451
69	0xbd514a43	-0.051096212
70	0x3cffffcc	0.031249903
71	0x3dac6255	0.08417193
72	0x3dae1dc3	0.0850177
73	0x3de99065	0.11404494
74	0xbda1d896	-0.079026386
75	0x3c9ede87	0.019393219
76	0xbe20d3b7	-0.15705763
77	0x3db7298d	0.08943472
78	0x3e75acc0	0.2399168
79	0x3e1cbfde	0.15307567
80	0x3b183a3e	0.0023228074
81	0xbd2b1bb9	-0.041774485
82	0xbd2ffd61	-0.04296625
83	0xbe294dab	-0.16533534
84	0x3e3bf8f3	0.18356685
85	0xbe11ef7a	-0.1425151
86	0x3e010634	0.12600023
87	0xbd4dd59c	-0.050252542
88	0x3d5712b1	0.05250806
89	0x3e37a81a	0.1793522
90	0x3e0f3b1b	0.1398739
91	0xbe2d2507	-0.16908656
92	0xbccbe249	-0.024888175
93	0x3be8fbe8	0.0071101077
94	0xbe0db009	-0.13836683
95	0x3e5f77f0	0.21823096
96	0xbe720ed3	-0.23638467
97	0xbd1bbb4b	-0.038020413
98	0x3e08bcb3	0.13353233
99	0xbdb330d4	-0.087495476
100	0xbe7c0219	-0.24610175
101	0x3b4dd8ed	0.0031409815
102	0xbd9bf79e	-0.076155886
103	0xbe08730e	-0.1332514
104	0x3e515b72	0.2044504
105	0xbe242bb6	-0.160323
106	0x3d500c94	0.050793245
107	0xbdba1c5f	-0.090874426
108	0xbe3edba1	-0.1863847
109	0xbdeaa316	-0.114568874
110	0x3e3da18a	0.18518654
111	0x3e5c3feb	0.21508758
112	0xbdce713e	-0.10080193
113	0x3d53ade4	0.051679507
114	0xbe3c95a9	-0.18416466
115	0x3e75d0b7	0.240054
116	0x3d60dc52	0.054897614
117	0x3e712f63	0.23553233
118	0xbe46606c	-0.1937272
119	0xbde1ed0e	-0.11031543
120	0x3e6c9dc2	0.23107055
121	0x3d083d14	0.033261374
122	0x3e10cc1d	0.14140363
123	0xbc762e36	-0.015025666
124	0x3e6675ca	0.2250587
125	0x3c7ac9e3	0.015306923
126	0x3e2bbabd	0.16770454
127	0x3d86a86b	0.06575092
128	0xbd576de3	-0.05259503
129	0xbdace24d	-0.08441601
130	0xbe6c4d95	-0.2307647
131	0x3e27f2db	0.16401236
132	0xbe5b4872	-0.21414354
133	0xbe16488e	-0.14676115
134	0x3dd22de9	0.10262663
135	0x3dfc9d1f	0.12334656
136	0x3db28abd	0.087178685
137	0xbd103bf9	-0.035213444
138	0x3e37337d	0.17890735
139	0xbd5776d4	-0.052603558
140	0xbe6327f6	-0.22183213
141	0x3e3c92db	0.18415396
142	0x3e25249a	0.16127244
143	0xbe3864cd	-0.18007202
144	0x3e26a85b	0.1627516
145	0xbc75e84f	-0.015009
146	0x3d481574	0.048848584
147	0x3dee17fc	0.116256684
148	0x3db1c655	0.08680407
149	0x3e67abff	0.22624205
150	0x3a6f6ca6	0.00091333163
151	0xbe6248e3	-0.22098117
152	0xbd83efec	-0.06442246
153	0x3e7b6226	0.2454916
154	0xbe4a480e	-0.19754049
155	0x3e315540	0.17317677
156	0x3e1ca2c7	0.1529647
157	0xbe17b692	-0.14815739
158	0x3e3f5a8e	0.18686888
159	0x3cd8de1a	0.026473094
160	0x3dd92d87	0.10604387
161	0xbe23608e	-0.15954801
162	0xbe6b4f8b	-0.22979562
163	0x3e5c6e7e	0.21526524
164	0xbdb26269	-0.087101765
165	0x3e65b2f0	0.2243154
166	0x3b3d290d	0.002886358
167	0xbda59b41	-0.08086253
168	0xbdfd45e1	-0.12366844
169	0x3dc014d1	0.093789704
170	0xbe59c919	-0.21268119
171	0xbca46343	-0.020066863
172	0x3bb0dd69	0.005397488
173	0xbe6fbe03	-0.23412327
174	0x3e121bdb	0.14268439
175	0x3e555d06	0.20836267
176	0xbe0c0615	-0.13674195
177	0xbe436b87	-0.19083987
178	0x3e1fd550	0.15608716
179	0x3e509db8	0.20372665
180	0xbc9dce6d	-0.01926347
181	0xbd667270	-0.05626148
182	0x3e67c3e2	0.22633317
183	0x3c0a555e	0.008443205
184	0x3e419b1c	0.18906826
185	0xbdaac5a5	-0.08338479
186	0x3d2ee661	0.042700175
187	0x3de6be13	0.112667225
188	0x3dd5b2d5	0.104345
189	0xbd37fad8	-0.044916958
190	0x3e66cd63	0.22539286
191	0xbe0906b8	-0.13381469
192	0xbde66b04	-0.1125088
193	0x3e4cb8b8	0.1999234
194	0xbcc9f43e	-0.024652597
195	0xbd04a1c6	-0.03238084
196	0x3db95230	0.09048879
197	0x3db8c957	0.090227775
198	0xbe59ba32	-0.21262434
199	0xbe73721f	-0.23774002
200	0x3c8fe1d2	0.017563734
201	0x3e7bd22e	0.24591896
202	0x3de45ff6	0.111511156
203	0x3d838693	0.06422152
204	0xbd8742a8	-0.066045105
205	0xbdea8c4a	-0.11452539
206	0xbe00cfae	-0.12579224
207	0xbe08b747	-0.13351165
208	0x3dc7d0a0	0.09756589
209	0x3de27db5	0.11059133
210	0x3e12575f	0.14291142
211	0xbd13b031	-0.0360567
212	0xbe2458bc	-0.16049474
213	0xbe223c4a	-0.15843311
214	0x3e4c460f	0.199486
215	0xbe31962d	-0.17342444
216	0xbbee65cd	-0.007275319
217	0xbe1d9ab0	-0.1539104
218	0xbe2fcf18	-0.17168844
219	0x3e40a8fe	0.18814465
220	0x3df48744	0.11939862
221	0xbc9e626c	-0.01933404
222	0xbd855cab	-0.06511816
223	0xbdc411a3	-0.095736764
224	0x3e525cc0	0.20543194
225	0xbe739a9a	-0.23789445
226	0xbe0f62a7	-0.14002477
227	0xbda4aca4	-0.08040741
228	0xbd356351	-0.04428417
229	0x3d39c946	0.045357965
230	0x3e39b75e	0.18136355
231	0x3e27ef45	0.16399868
232	0x3e174d9e	0.14775702
233	0xbc9ade7f	-0.018904923
234	0x3d3236ec	0.04350941
235	0x3ca0fb11	0.019650968
236	0xbc380efb	-0.01123404
237	0xbd95c4db	-0.07312938
238	0xbe71f988	-0.23630345
239	0x3e4ecf56	0.2019628
240	0xbdaf4113	-0.08557334
241	0x3e35c3e4	0.17750508
242	0xbe1c3c37	-0.15257345
243	0xbe5e5175	-0.21710761
244	0xbdee9bf3	-0.11650839
245	0x3e1a8f89	0.15093817
246	0xbda474e7	-0.0803011
247	0x3e7417af	0.2383716
248	0x3e580553	0.21095781
249	0x3cd75630	0.026286215
250	0x3d29ae2b	0.041425865
251	0x3e452631	0.1925285
252	0x3c9bb0d3	0.019005215
253	0x3e540b67	0.20707475
254	0xbe747b0c	-0.23875064
255	0xbdd9d8f5	-0.106370844

net.0.bias f4 [64]
0	0xbde643db	-0.11243411
1	0x3dc83223	0.09775188
2	0xbe1b37e8	-0.15158045
3	0xbe0b3a8e	-0.13596556
4	0x3e15b83d	0.14621063
5	0x3e190a5c	0.14945358
6	0xbb9f0b20	-0.004853621
7	0xbe0437db	-0.12911932
8	0xbdba2956	-0.090899155
9	0xbcab3c70	-0.020902842
10	0x3e6637a3	0.22482161
11	0xbd315b00	-0.043299675
12	0xbe7d09f9	-0.24710836
13	0x3a047771	0.00050531985
14	0x3e6809d5	0.2266
15	0xbb4c2313	-0.0031148836
16	0x3c9990db	0.01874583
17	0x3d15987f	0.036522385
18	0xbd190b0c	-0.03736405
19	0x3e215ef1	0.15758874
20	0xbe301001	-0.17193605
21	0x3de5c7cb	0.11219748
22	0xbd272fc4	-0.040817037
23	0xbe09b1e8	-0.13446772
24	0x3e19f641	0.15035345
25	0x3d774029	0.060363922
26	0xba071ad2	-0.0005153838
27	0x3def5cdd	0.11687634
28	0x3e0972f7	0.13422762
29	0x3e4e9a49	0.20176043
30	0x3dc8e264	0.098088056
31	0xbd7a0d04	-0.06104757
32	0xbe347478	-0.17622554
33	0x3e5f6754	0.2181676
34	0x3e4d5483	0.2005177
35	0xbe66ab26	-0.22526225
36	0xbe52efe5	-0.20599325
37	0x3dcdc70c	0.10047731
38	0xbe0ad638	-0.1355828
39	0x3e55d7b5	0.20883067
40	0x3e721b5b	0.23643248
41	0x3c89e2d8	0.0168318
42	0x3dab440d	0.08362589
43	0x3d949e47	0.072567515
44	0x3d77045b	0.060306888
45	0x3e65b63e	0.22432801
46	0x3e2a2136	0.16614231
47	0xbdd8b197	-0.105807476
48	0x3dcb1e7a	0.09917922
49	0x3e7e2d1c	0.24821895
50	0xbe606fc7	-0.2191764
51	0xbdebe39e	-0.11518024
52	0x3d953c22	0.0728686
53	0xbe646336	-0.22303471
54	0xbe6695c8	-0.22518075
55	0x3e0450c2	0.12921432
56	0xbe3e17cc	-0.18563765
57	0x3cbde0a1	0.0231784
58	0x3e0dc414	0.13844329
59	0xbce20b77	-0.027593357
60	0x3e2b9f7b	0.16760056
61	0xbd162dd5	-0.036664803
62	0xbda142bc	-0.07874057
63	0xbd09a607	-0.0336056

net.2.weight f4 [36, 64]
0	0xb9f6be50	-0.0004706257
1	0x3d32535d	0.043536533
2	0xbdacba54	-0.08433977
3	0x3c0edfdd	0.008720365
4	0xbd23c347	-0.039981153
5	0x3d7657b4	0.060142234
6	0x3dc47996	0.09593503
7	0x3bff2ff8	0.0077877007
8	0x3d85e767	0.06538277
9	0x3d03a3bc	0.03213857
10	0xbc85f855	-0.016353766
11	0x3d2f1c54	0.042751625
12	0x3b7ae49d	0.0038283237
13	0xbdf7b0b1	-0.12094248
14	0x3d29ea13	0.041482996
15	0x3d5286aa	0.051397957
16	0xbdaf9ad0	-0.0857445
17	0x3d099ac5	0.033594865
18	0xbd89a2a8	-0.06720477
19	0x3db10760	0.08643985
20	0x3dab94fc	0.08378026
21	0xbd91711c	-0.07101652
22	0x3d3aa959	0.04557166
23	0xbdb18919	-0.086687274
24	0xbd197853	-0.037468266
25	0x3c08d8d7	0.00835248
26	0xbdbb19dc	-0.09135792
27	0x3cb34d1a	0.02188735
28	0xbd6b791b	-0.057488542
29	0x3d6750e7	0.05647364
30	0x3d7c49fc	0.061593994
31	0x3c218848	0.009859152
32	0x3d370faf	0.04469269
33	0xbd17174b	-0.03688745
34	0x3da5256a	0.08063777
35	0xbdf465c8	-0.11933476
36	0x3d1c4e47	0.03816059
37	0x3bd73ab5	0.0065682777
38	0xbdb89108	-0.090120375
39	0xbdc15a45	-0.09441046
40	0x3d3a4e7d	0.04548501
41	0xbb2dcdb5	-0.0026520316
42	0xbdac2238	-0.08404964
43	0x3dd7ee73	0.105435275
44	0xbd8992ba	-0.06717439
45	0xbdd7821f	-0.105228655
46	0xbd9bbca1	-0.076043375
47	0x3b114bc8	0.0022170413
48	0x3da0b07f	0.07846164
49	0x3df1c1cf	0.11804544
50	0xbc9a354b	-0.01882424
51	0xbc6f4bf7	-0.014605514
52	0x3deef47a	0.11667724
53	0x3d3ac381	0.045596603
54	0xbd9b3095	-0.07577626
55	0xbddc72a5	-0.10764054
56	0xbc0de1bc	-0.008659776
57	0x3dbbf2bf	0.091771595
58	0x3d549b80	0.05190611
59	0x3dd02ed5	0.101651825
60	0x3d8602ed	0.06543527
61	0x3dab8851	0.0837561
62	0x3decc45e	0.115608916
63	0x3de5c27f	0.11218738
64	0x3da3bda0	0.079951525
65	0x3c11b24d	0.008892608
66	0xbddbb794	-0.10728374
67	0x3ccd474f	0.025058417
68	0xbd48c245	-0.049013395
69	0xbda6ce8e	-0.08144866
70	0xbacda06f	-0.0015688072
71	0x3dd5b113	0.10434165
72	0xbd87f568	-0.066386044
73	0x3d4ddbe4	0.050258532
74	0xbdc42d04	-0.095788985
75	0xbcc2a00b	-0.023757955
76	0x3dcce795	0.10005108
77	0xbd8a9495	-0.06766621
78	0x3d4fcced	0.05073254
79	0xbdde4522	-0.1085303
80	0x3c906fc6	0.017631423
81	0xbda6f594	-0.08152309
82	0x3d00c0bb	0.031433802
83	0x3d9bc8be	0.07606648
84	0x3de85be8	0.11345655
85	0xbc68c621	-0.014207394
86	0x3dfabfb7	0.12243598
87	0xbbac5220	-0.0052588135
88	0xbd10e2d7	-0.03537258
89	0x3dc6c560	0.09705615
90	0xbdb9845b	-0.09058448
91	0xbd070d1a	-0.03297148
92	0xbde5762a	-0.11204179
93	0xbda55631	-0.0807308
94	0xbdb73975	-0.08946506
95	0xbceadfb3	-0.028671121
96	0xbc9c7dc4	-0.019102938
97	0x3d877c98	0.06615561
98	0x3d2329ae	0.03983467
99	0xbdf2e39d	-0.1185982
100	0xbd95be21	-0.07311655
101	0xbaa8a392	-0.001286613
102	0x3e01a127	0.12659131
103	0x3d810b4e	0.06300984
104	0x3d7d3944	0.06182219
105	0xbd0efb99	-0.03490791
106	0x3d1f3790	0.038871348
107	0x3da89eed	0.08233438
108	0xbd3ce219	-0.04611406
109	0x3e006a03	0.1254044
110	0xbdb86e39	-0.09005398
111	0xbd916946	-0.071001574
112	0xbada93fb	-0.0016676182
113	0xbd43a4a1	-0.047764424
114	0xbd76e8cb	-0.060280602
115	0xbde78894	-0.11305347
116	0xbda3df42	-0.080015674
117	0xbdef70f6	-0.116914675
118	0xbdcc3cac	-0.0997251
119	0x3c01c88e	0.007921351
120	0x3cfa4459	0.030550169
121	0x3d2f60be	0.04281687
122	0x3c97524a	0.018471856
123	0xbd3786c1	-0.044806246
124	0xbdbb2255	-0.09137408
125	0xbd84097c	-0.064471215
126	0xbcdb5c55	-0.026777426
127	0x3b9d4db3	0.0048005222
128	0xbca6b578	-0.020350203
129	0x3db14a2e	0.08656727
130	0x3c0457d5	0.008077581
131	0xbd4cc202	-0.049989708
132	0xbd33aaeb	-0.043864172
133	0xbdc32940	-0.09529352
134	0x3d469078	0.04847762
135	0x3dcba45f	0.09943461
136	0xbdf708c8	-0.12062222
137	0xbd3d00b2	-0.04614324
138	0xbd46cfb9	-0.048537944
139	0xbd05ed69	-0.032697115
140	0xbcbf9dbb	-0.023390641
141	0xbdbb48b9	-0.0914473
142	0xbda25d2e	-0.07927929
143	0x3decf9bf	0.11571073
144	0xbc8f19ec	-0.017468415
145	0xbd5371e1	-0.051622275
146	0x3d5dddb2	0.054166503
147	0xbd8c62aa	-0.06854756
148	0xbdf860c7	-0.12127834
149	0xbdc7f07a	-0.09762664
150	0x3b35e611	0.0027755538
151	0x3d2c7ac7	0.042109277
152	0x3c881520	0.016611636
153	0x3cc26936	0.02373181
154	0x3d0fdaff	0.03512096
155	0x3d734ce5	0.059399504
156	0xbda4bce9	-0.08043844
157	0xbd0f42c3	-0.03497578
158	0x3d80ab3a	0.06282659
159	0xbcf193fe	-0.029489513
160	0xbdeea862	-0.1165321
161	0xbd8cf4fb	-0.06882664
162	0x3d00f113	0.031479906
163	0x3dbfcc17	0.09365099
164	0xbd049d53	-0.0323766
165	0x3c2de92e	0.010614676
166	0x3d76a68f	0.060217436
167	0xbd00e901	-0.03147221
168	0xbd4001c7	-0.046876695
169	0x3c294fe0	0.010333985
170	0x3c9c9f6b	0.019118985
171	0x3d6b49c6	0.057443403
172	0x3dcd3053	0.10018983
173	0xbdaaa167	-0.08331566
174	0x3d42184c	0.047386453
175	0x3dafce75	0.085843004
176	0xba914c5f	-0.0011085382
177	0xbda2fae3	-0.07958009
178	0xbd0587f7	-0.03260037
179	0xbda72f48	-0.08163315
180	0xbd14e1e0	-0.036348224
181	0xbdf9690a	-0.12178238
182	0x3d150691	0.036383215
183	0x3d6cf1b3	0.05784769
184	0x3d8525ad	0.06501327
185	0xbdd0fcd2	-0.10204472
186	0xbdb6e9f0	-0.08931339
187	0x3c537a9a	0.012907648
188	0xbd5e032b	-0.05420224
189	0xbdb266ea	-0.087110355
190	0xbdb9f7fb	-0.09080502
191	0x3c9d41e3	0.019196456
192	0x3d94bcdb	0.07262584
193	0x3d26c13e	0.040711634
194	0x3d6d4d47	0.057935026
195	0xbd42bc4d	-0.04754286
196	0xbdb6671e	-0.08906387
197	0xbd30a857	-0.04312929
198	0x3c7c820e	0.015411867
199	0xbd10e07f	-0.035370346
200	0xbde1d5c4	-0.11027101
201	0x3db9cdab	0.09072431
202	0xbdc3bbc2	-0.09557296
203	0x3cfd7ad9	0.030942367
204	0xbde6885d	-0.11256478
205	0x3d3fdba5	0.04684033
206	0xbd650fce	-0.055923276
207	0xbd880ed7	-0.066434555
208	0xbcd42488	-0.025896326
209	0xbda89900	-0.082323074
210	0xbd735002	-0.059402473
211	0xbd6294d3	-0.05531771
212	0x3ddbd47a	0.10733886
213	0x3dfbde50	0.12298262
214	0xbca28f1d	-0.019843632
215	0xbc2bba7c	-0.010481473
216	0x3da6fee4	0.08154085
217	0xbc7bb639	-0.0153632695
218	0x3d5c8757	0.053840008
219	0xbd53ec3b	-0.05173896
220	0xbb257ae1	-0.0025250243
221	0x3d1898c1	0.037255052
222	0x3d1497dc	0.036277637
223	0xbdab30e9	-0.08358938
224	0xbdde3f9d	-0.10851977
225	0xbcb7bf4a	-0.02243008
226	0xbd8e7d3b	-0.069574796
227	0xbd9bd93e	-0.07609795
228	0xbd0287da	-0.03186784
229	0x3d51741f	0.051136132
230	0xbd35da6c	-0.044397756
231	0x3cc95c86	0.024580251
232	0x3cc78083	0.024353271
233	0x3dbcbc51	0.09215606
234	0x3d125e53	0.035734486
235	0x389045be	6.8794456e-05
236	0x3dbc0ba4	0.09181908
237	0xbceb044b	-0.02868857
238	0xbd1ed712	-0.038779326
239	0xbd7458b5	-0.05965491
240	0x3bc3351d	0.0059572593
241	0x3bcb73d9	0.0062088785
242	0xbc7eeaf8	-0.015558951
243	0xbdc681c8	-0.096927226
244	0xbd91952a	-0.07108529
245	0x3c0bbbeb	0.00852869
246	0x3bd1a65c	0.0063980054
247	0x3d97d3de	0.07413457
248	0x3d459e59	0.048246715
249	0xbd84bfd0	-0.06481898
250	0xbd8bf04c	-0.06832942
251	0x3d9af5dc	0.07566425
252	0x3dd2cd94	0.10293117
253	0x3cc0fe94	0.023558892
254	0x3d977b77	0.07396596
255	0x3c3aaf43	0.011394325

net.2.bias f4 [36]
0	0x3d6d0fab	0.05787627
1	0xbdd3d52f	-0.10343396
2	0xbdc7301d	-0.09725974
3	0x3cc7e7c3	0.024402505
4	0xbd9375de	-0.07200216
5	0xbbebbdac	-0.0071942415
6	0xbdbf93d3	-0.09354367
7	0xbdcb2c0d	-0.099205114
8	0x3c87c6e9	0.01657434
9	0x3de26065	0.11053542
10	0x3d9de8fa	0.077104524
11	0xbde3b0f0	-0.111177325
12	0xbdd95f11	-0.106138356
13	0xbda4493c	-0.08021781
14	0xbcf58e84	-0.029975183
15	0x3d8f610f	0.07000934
16	0xbcd90a60	-0.026494205
17	0x3cf4d3a3	0.029886073
18	0xbd53eaf0	-0.051737726
19	0x3d9c5b35	0.07634584
20	0x3da13b34	0.0787262
21	0xbc735c44	-0.014853541
22	0xbd616477	-0.05502745
23	0xbd819f94	-0.06329265
24	0xbdc6dcff	-0.097101204
25	0x3e00abb8	0.12565506
26	0x3da017fd	0.078170754
27	0xbdb9519f	-0.09048771
28	0x3d5b4b5c	0.053538665
29	0x3db40b24	0.087911874
30	0x3de0128a	0.10941036
31	0xbca07122	-0.019585196
32	0x3cbcd84b	0.023052355
33	0xbd07a37f	-0.033114906
34	0xbc46601a	-0.012107873
35	0xbdc11b3c	-0.09429023
