models/gan_class_0.pth (torch, 16261 bytes, 4 tensors)

net.0.weight f4 [64, 16]
-0.12264903 -0.23283361 0.013441464 -0.07226145 -0.16130918 -0.05257817 -0.19540681 0.19139422
0.07199181 -0.022064328 -0.2385834 0.14246325 -0.18281005 0.14419153 0.019618444 -0.09777137
0.023013134 -0.20311058 -0.17003097 -0.07296097 -0.24450478 0.035066962 -0.19108959 0.23691444
-0.2380123 -0.12329571 0.079903804 0.17354414 0.21425474 -0.14458145 -0.20774566 -0.13601696
-0.23212326 0.055779103 0.22716393 -0.016252808 -0.006310407 -0.01007865 -0.18298271 -0.18497972
-0.10421391 -0.036946427 0.17653766 0.15920573 -0.16068153 -0.2362987 -0.14341822 0.01866175
0.09895559 -0.028059972 -0.023782937 -0.10390865 0.08349914 -0.09454478 -0.15091531 0.20248836
0.20520285 0.15616412 0.12205225 0.16703324 -0.23985153 0.16675082 0.2082483 -0.005885991
0.18250999 -0.043200143 0.22007208 0.017279271 -0.04855079 -0.2035735 0.23358001 -0.23096274
0.1433141 -0.23821673 0.23320046 -0.22402562 -0.11131227 -0.13483644 0.014588627 -0.2135954
0.051870354 0.20417148 -0.054854054 0.012706488 0.13771258 0.23488833 0.22537303 0.1562502
0.19622512 0.19426204 -0.14959794 0.045193795 0.08343487 -0.22348087 -0.05712211 0.15888782
0.03336287 -0.013723655 0.101505965 0.23275259 0.23575725 -0.11101216 -0.105988435 -0.074765906
-0.0044239745 -0.19523016 -0.22190522 -0.06511393 -0.14929259 -0.077183574 -0.16907704 -0.22304054
-0.07219443 -0.24391599 0.0680709 -0.011989112 -0.24327748 -0.120503664 -0.19862397 0.114962384
-0.1452586 0.20846668 -0.20386012 -0.17222044 -0.12818764 0.033608954 0.17907912 -0.1723773
0.23037992 -0.24149492 -0.053902213 0.069024816 -0.15708868 0.12193302 0.010393859 0.033297855
-0.17089303 -0.22554493 -0.13381724 0.005184136 -0.03634167 0.04979757 -0.055821996 0.032046232
0.15903917 -0.18737464 0.16487052 -0.057093088 0.1956607 -0.07375429 0.16922131 -0.060485434
0.09597161 0.166547 -0.09946376 0.06592209 0.07589031 0.101845175 0.0840956 -0.21394606
0.18498744 -0.24710144 0.049620826 0.1950121 -0.24325079 -0.0346704 0.0020350527 0.21387881
0.14225158 0.19337268 0.058602616 0.025328137 0.12094739 0.052019734 0.091758765 -0.13681294
-0.12597798 -0.14953844 0.1349924 0.07256614 0.004694974 0.05248562 0.060337268 0.23533036
-0.062121235 0.23188539 0.20558372 -0.10217208 -0.105287395 0.24449629 0.18327856 -0.23429486
-0.19862671 0.20018545 0.009698038 0.24548325 0.09785613 0.12087679 0.015652593 0.23859052
0.20945594 0.074278675 0.19852069 -0.21348858 0.1822091 -0.20043236 0.09164757 -0.014755431
0.025926515 -0.20594458 -0.0066181477 0.24322909 0.23655961 -0.15003334 -0.20670427 0.05424323
0.010102843 0.050852325 0.1722235 0.07978214 0.18964218 -0.22791676 0.081999935 0.15195538
0.19648163 0.012168996 -0.1605881 0.2356276 0.19247057 0.00209869 0.11908437 0.039363075
0.04344471 0.24102789 -0.04174816 0.105849825 -0.18265323 0.02662033 0.1322481 -0.123055145
-0.034364328 0.099546015 -0.18887761 -0.24686731 0.20568113 0.21544713 -0.033972908 0.20583984
0.0056984173 -0.19677803 -0.21054994 0.23742916 0.14825444 -0.118792616 -0.047619164 0.064315885
00000000: 6a2f fbbd ef6b 6ebe 9639 5c3c d0fd 93bd
00000010: 3c2e 25be 355c 57bd b918 48be d9fc 433e
00000020: 7170 933d 40c0 b4bc 354f 74be e3e1 113e
00000030: 8f32 3bbe f2a6 133e dcb6 a03c 5b3c c8bd
00000040: 0a86 bc3c 38fc 4fbe 991c 2ebe 906c 95bd
00000050: 765f 7abe 60a2 0f3d fdac 43be b399 723e
00000060: 7fb9 73be 7682 fcbd 9ba4 a33d 8eb5 313e
00000070: 9865 5b3e 290d 14be 47bb 54be 0848 0bbe
00000080: b8b1 6dbe a178 643d a99d 683e 9c24 85bc
00000090: 88c7 cebb ec20 25bc d25f 3bbe 536b 3dbe
000000a0: 1a6e d5bd 2355 17bd 4ac6 343e d406 233e
000000b0: b389 24be 49f8 71be 3adc 12be 87e0 983c
000000c0: 3aa9 ca3d 07de e5bc 6fd4 c2bc 0fce d4bd
000000d0: 9901 ab3d b2a0 c1bd 8b89 1abe 1c59 4f3e
000000e0: b220 523e 7de9 1f3e 88f6 f93d c30a 2b3e
000000f0: a49b 75be bac0 2a3e 0b3f 553e 45df c0bb
00000100: e6e3 3a3e a2f2 30bd 935a 613e 428d 8d3c
00000110: 31dd 46bd 9275 50be 992f 6f3e 7f81 6cbe
00000120: eec0 123e 16ef 73be 1acc 6e3e f966 65be
00000130: b0f7 e3bd 9012 0abe 2305 6f3c c1b8 5abe
00000140: 0276 543d 5412 513e a5ae 60bd e02e 503c
00000150: 8704 0d3e 9186 703e 30c8 663e 0d00 203e
00000160: 3def 483e a1ec 463e 3430 19be 211d 393d
00000170: e7df aa3d 2bd8 64be e0f8 69bd 7db3 223e
00000180: 81a7 083d 2ed9 60bc 5ce2 cf3d b256 6e3e
00000190: 596a 713e 585a e3bd 7710 d9bd de1e 99bd
000001a0: fdf6 90bb 6aea 47be 1f3b 63be 745a 85bd
000001b0: 28e0 18be 6c12 9ebd 8822 2dbe bd64 64be
000001c0: acda 93bd 1dc5 79be c268 8b3d fb6d 44bc
000001d0: bb1d 79be a0ca f6bd 1564 4bbe 6671 eb3d
000001e0: acbe 14be 4a78 553e b5c0 50be 8e5a 30be
000001f0: 9f43 03be 8ba9 093d 8460 373e ad83 30be
00000200: b7e8 6b3e 724a 77be 91c8 5cbd e25c 8d3d
00000210: dbdb 20be 05b8 f93d 014b 2a3c 5563 083d
00000220: 95fe 2ebe 40f5 66be 6307 09be afdf a93b
00000230: 01db 14bd 89f8 4b3d 9ba5 64bd e942 033d
00000240: 2adb 223e 23df 3fbe d1d3 283e 71da 69bd
00000250: 475b 483e 7d0c 97bd 5a48 2d3e 93bf 77bd
00000260: c38c c43d 4c8b 2a3e a8b3 cbbd 2902 873d
00000270: 616c 9b3d 3494 d03d 503a ac3d ad14 5bbe
00000280: 596d 3d3e 2908 7dbe 353f 4b3d 40b1 473e
00000290: bc16 79be 8d02 0ebd 855e 053b 0c03 5b3e
000002a0: 66aa 113e 7d03 463e 4c09 703d f47c cf3c
000002b0: 44b3 f73d a512 553d 05ec bb3d b118 0cbe
000002c0: 5f00 01be 9b20 19be 733b 0a3e 8e9d 943d
000002d0: 4cd8 993b 29fb 563d 3624 773d 71fa 703e
000002e0: d672 7ebd 5d73 6d3e 8a84 523e 983f d1bd
000002f0: eba0 d7bd 3c5d 7a3e 60ad 3b3e feea 6fbe
00000300: cd64 4bbe 6afd 4c3e 85e4 1e3c f65f 7b3e
00000310: cb68 c83d 408e f73d de39 803c 1351 743e
00000320: 9e7b 563e 6b1f 983d 0249 4b3e c09c 5abe
00000330: 0695 3a3e 243e 4dbe b9b1 bb3d c3c0 71bc
00000340: d863 d43c 23e3 52be 0cdd d8bb 0c11 793e
00000350: af3c 723e 57a2 19be 49aa 53be 262e 5e3d
00000360: 6586 253c 874a 503d 5b5b 303e d264 a33d
00000370: 8f31 423e 0363 69be 95ef a73d 319a 1b3e
00000380: 7b32 493e 7860 473c 3571 24be 5d48 713e
00000390: 0117 453e 2d8a 093b 82e2 f33d 2d3b 213d
000003a0: 15f3 313d 04d0 763e 1e00 2bbd cbc7 d83d
000003b0: 7309 3bbe e112 da3c 0c6c 073e 5604 fcbd
000003c0: 9cc1 0cbd c8de cb3d 2269 41be c9ca 7cbe
000003d0: 139e 523e 2c9e 5c3e 2d27 0bbd aec7 523e
000003e0: cab9 ba3b 2e80 49be 679a 57be a120 733e
000003f0: 03d0 173e 8b49 f3bd 500c 43bd 0cb8 833d

net.0.bias f4 [64]
0.24301758 0.10458108 -0.18497136 -0.1565639 -0.07347438 0.08400529 0.19283171 -0.15860114
-0.19075055 -0.20922917 -0.119980544 0.17993373 0.06511352 0.21386252 -0.17120554 0.117933445
0.19096363 0.057303004 -0.10332123 0.095318414 -0.03404252 -0.17478222 0.15662348 0.06986218
0.23326503 0.005451572 -0.12892656 0.23622623 -0.14487657 -0.08634109 0.17562214 0.24398959
0.21280926 0.027353415 0.12169365 -0.121753424 -0.15917234 0.14049007 -0.06864227 0.016937558
-0.16709562 -0.17347978 0.049266744 0.19381224 0.16942753 -0.035466284 0.20505434 -0.08129439
-0.12014401 -0.22979295 0.04406682 0.030460842 -0.24350685 0.19775832 -0.14963757 -0.11600263
-0.08762389 -0.2215283 0.028449528 -0.029180422 -0.14886665 0.09052502 0.2423589 0.2405719
00000000: 9ad9 783e 9b2e d63d 2269 3dbe 4952 20be
00000010: bc79 96bd f70a ac3d ad75 453e 5668 22be
00000020: 1d54 43be 2c40 56be 5cb8 f5bd 8c40 383e
00000030: 3d5a 853d c7fe 5a3e 8150 2fbe 1787 f13d
00000040: f88b 433e 8eb6 6a3d 159a d3bd 4d36 c33d
00000050: 2b70 0bbd 1cfa 32be e861 203e e713 8f3d
00000060: 07dd 6e3e 1aa3 b23b 5305 04be 4ae5 713e
00000070: 865a 14be 99d3 b0bd 4ad6 333e 68d8 793e
00000080: acea 593e 4514 e03c 853a f93d dc59 f9bd
00000090: 13fe 22be a1dc 0f3e 5294 8cbd a2c0 8a3c
000000a0: 1d1b 2bbe afa4 31be edcb 493d b776 463e
000000b0: 697e 2d3e 1845 11bd c4f9 513e ac7d a6bd
000000c0: 100e f6bd d84e 6bbe 697f 343d 0489 f93c
000000d0: dc59 79be 2881 4a3e 973a 19be c992 edbd
000000e0: 2774 b3bd 51d8 62be fc0e e93c c80b efbc
000000f0: 8070 18be 2f65 b93d ee2c 783e 7b58 763e

net.2.weight f4 [36, 64]
-0.0357874 0.121955566 -0.107105106 -0.0712323 -0.08239206 -0.044715572 -0.041570492 0.120862424
0.10143964 0.07098938 0.060552828 0.05529843 -0.10052884 -0.03898208 -0.09997679 0.0025239876
-0.09620115 0.059063047 0.04068097 -0.013756293 -0.029506598 0.054297894 -0.073445626 -0.06136464
-0.09558974 -0.11558275 -0.010142052 -0.064239286 0.05764265 -0.11463957 -0.08075304 -0.016749524
-0.10052151 -0.07190212 0.019597271 0.09039429 -0.06624171 -0.05963318 -0.027072014 -0.085291505
0.05480751 0.08234034 0.06897748 -0.08698288 -0.10880602 0.12583299 -0.08229843 -0.103578106
0.08887544 0.0022970084 -0.0155054545 -0.103506595 -0.0009768293 -0.012934718 0.014764331 -0.09068431
0.08828693 -0.10360228 -0.098483354 -0.01834633 6.328161e-05 0.0036295762 -0.029731108 0.10899757
-0.04981087 -0.008294766 -0.10368161 -0.020206045 0.021440897 -0.03936424 -0.024821872 -0.0012845395
-0.026893742 0.12329712 0.11857467 -0.0013993066 -0.014281092 0.034040533 -0.026387632 -0.03128594
0.100433126 -0.11191737 0.1126891 -0.042163976 -0.057253048 0.033976484 0.061388597 -0.106087245
-0.051979527 0.04171553 -0.06808153 0.08207125 0.019401735 -0.05097697 -0.023685709 0.08209409
-0.0015392134 -0.014493553 -0.06360566 -0.07589406 -0.091585465 0.07149399 -0.0044177375 0.10255751
0.011114694 -0.028549392 -0.04312317 0.12076863 0.11827853 -0.10462627 -0.037680138 -0.008776883
-0.06774879 0.015724078 -0.119603656 -0.04172854 -0.007193783 -0.071788415 0.11782762 -0.040459547
0.07571067 0.0990874 -0.08268741 -0.07860384 0.077744715 0.0874419 0.09184801 0.06376001
-0.025629949 -0.054407455 -0.08328061 0.09630326 -0.12562397 -0.0593145 0.055030044 0.049453195
0.05333573 -0.09832185 0.10775661 0.054568585 -0.025139723 0.07365994 0.09164345 0.09171792
-0.07729949 0.0009886578 -0.068148 0.008729291 -0.09427349 0.042437673 -0.07700375 0.04754202
0.06267009 -0.041245025 -0.06168623 0.045870397 -0.002517817 0.117968135 0.057684954 0.10287928
0.008465478 -0.053267527 0.11741887 0.099686086 0.058065124 -0.054517508 -0.05404726 0.034233447
-0.006137836 -0.012394863 -0.10998117 -0.10683346 0.013841017 0.092214294 -0.0107698785 -0.06191499
0.028378258 -0.10783148 0.0631149 -0.081136055 0.082701236 -0.08857068 -0.07576882 0.010696433
0.07132231 -0.045900267 -0.049797185 -0.1169738 0.037133984 -0.10196873 0.08572478 -0.0032401406
-0.06492167 0.052625336 -0.02892226 0.05151321 0.053653613 0.020871975 -0.049495313 -0.032267243
-0.11074176 -0.027393013 0.026599312 -0.018467134 -0.020250387 -0.020656774 -0.102810316 -0.0017211282
-0.0379343 -0.031589627 0.030574081 -0.118256934 0.008447132 0.09679182 -0.0049218633 0.0016455003
-0.11287863 0.031993788 -0.0099357935 0.11627517 0.05469395 0.114138514 0.007295596 -0.11918975
-0.10532924 0.04293067 0.010151863 0.061551336 -0.044424016 -0.062765904 -0.030361222 0.094109006
0.071496494 -0.08964651 0.0407785 0.039821085 -0.03534958 0.102441 -0.043026634 0.004902382
0.002903617 -0.094927825 0.09551236 -0.028857984 -0.11560536 -0.08477629 0.029646445 0.01202109
-0.012842435 0.0067741065 -0.021036023 0.08237997 -0.107389554 0.09508322 0.038236264 -0.05057921
00000000: cf95 12bd d7c3 f93d ec59 dbbd 3de2 91bd
00000010: 2bbd a8bd ad27 37bd d245 2abd b886 f73d
00000020: 96bf cf3d e162 913d 3e06 783d 9b80 623d
00000030: 11e2 cdbd acab 1fbd a2c0 ccbd 7c69 253b
00000040: 1c05 c5bd 18ec 713d 17a1 263d 1362 61bc
00000050: d2b7 f1bc 7867 5e3d a96a 96bd 7d59 7bbd
00000060: 8ec4 c3bd a6b6 ecbd d92a 26bc e38f 83bd
00000070: b31a 6c3d 27c8 eabd da61 a5bd 4c36 89bc
00000080: 39de cdbd 6b41 93bd 758a a03c a420 b93d
00000090: bca9 87bd ec41 74bd 21c6 ddbc 50ad aebd
000000a0: d77d 603d 0da2 a83d 1144 8d3d 1524 b2bd
000000b0: b1d5 debd 5dda 003e 148c a8bd c220 d4bd
000000c0: 5404 b63d 6889 163b 970a 7ebc 44fb d3bd
000000d0: f408 80ba 24ec 53bc 18e6 713c b2b8 b9bd
000000e0: c7cf b43d 6f2d d4bd a4b1 c9bd 0b4b 96bc
000000f0: 0eb6 8438 2fde 6d3b a78e f3bc 1e3a df3d
00000100: 7c06 4cbd c5e6 07bc 0657 d4bd 2687 a5bc
00000110: d2a4 af3c 663c 21bd 3d57 cbbc fe5d a8ba
00000120: 4450 dcbc 3383 fc3d 47d7 f23d f068 b7ba
00000130: 3efb 69bc 166e 0b3d e02a d8bc b025 00bd
00000140: e2af cd3d ef34 e5bd 8bc9 e63d 22b4 2cbd
00000150: 2c82 6abd ed2a 0b3d 9c72 7b3d 4544 d9bd
00000160: 7ce8 54bd e7dd 2a3d 546e 8bbd f914 a83d
00000170: 63f0 9e3c 3acd 50bd 8808 c2bc f220 a83d
00000180: 6ebf c9ba 5e76 6dbc af43 82bd 586e 9bbd
00000190: 2991 bbbd 716b 923d abc2 90bb ac09 d23d
000001a0: 681a 363c 6ae0 e9bc eca1 30bd 8b55 f73d
000001b0: 043c f23d 4c46 d6bd 7d56 1abd eacc 0fbc
000001c0: e1bf 8abd c8cf 803c c3f2 f4bd 8ceb 2abd
000001d0: d3b9 ebbb ce05 93bd 9b4f f13d e9b8 25bd
000001e0: 320e 9b3d 56ee ca3d 0458 a9bd 0dfb a0bd
000001f0: 9f38 9f3d bd14 b33d cf1a bc3d 9c94 823d
00000200: e6f5 d1bc 5ada 5ebd 068f aabd a53a c53d
00000210: 92a3 00be c3f3 72bd 2f67 613d 6f8f 4a3d
00000220: 9176 5a3d f75c c9bd 7faf dc3d 4f83 5f3d
00000230: d2f1 cdbc 06db 963d 90af bb3d 9bd6 bb3d
00000240: 324f 9ebd da95 813a 2e91 8bbd 4d05 0f3c
00000250: 7612 c1bd 20d3 2d3d 24b4 9dbd 6cbb 423d
00000260: 2d59 803d 8bf0 28bd b3aa 7cbd 99e2 3b3d
00000270: f601 25bb 4799 f13d 0f47 6c3d 5fb2 d23d
00000280: cab2 0a3c 0d2f 5abd 4e79 f03d 3828 cc3d
00000290: b2d5 6d3d c04d 5fbd a960 5dbd 5f38 0c3d
000002a0: e61f c9bb d313 4bbc cf3d e1bd 80cb dabd
000002b0: 6fc5 623c d9da bc3d 2574 30bc 939a 7dbd
000002c0: 8579 e83c c0d6 dcbd 6242 813d a92a a6bd
000002d0: 445f a93d 8b64 b5bd af2c 9bbd 1740 2f3c
000002e0: 6e11 923d eb01 3cbd 22f8 4bbd f68f efbd
000002f0: ce19 183d fbd4 d0bd 7990 af3d 8a58 54bb
00000300: a7f5 84bd aa8d 573d 60ee ecbc 84ff 523d
00000310: e4c3 5b3d b4fb aa3c 99bb 4abd a82a 04bd
00000320: 93cc e2bd 5067 e0bc cde6 d93c 6348 97bc
00000330: 24e4 a5bc 6538 a9bc 378e d2bd 7b97 e1ba
00000340: ff60 1bbd 2064 01bd 7f76 fa3c b130 f2bd
00000350: d765 0a3c ca3a c63d 9547 a1bb d4ad d73a
00000360: e92c e7bd eb0b 033d bdc9 22bc ad21 ee3d
00000370: c306 603d 74c1 e93d e50f ef3b c119 f4bd
00000380: dbb6 d7bd 12d8 2f3d 0054 263c 411d 7c3d
00000390: f5f5 35bd 698b 80bd 19b8 f8bc 39bc c03d
000003a0: c16c 923d 9798 b7bd 5b07 273d 6f1b 233d
000003b0: b9ca 10bd 96cc d13d b23c 30bd 29a4 a03b
000003c0: 9c4a 3e3b 8569 c2bd fc9b c33d 9467 ecbc
000003d0: 81c2 ecbd 319f adbd 1add f23c 1bf4 443c
000003e0: 1469 52bc 53f9 dd3b bd53 acbc d4b6 a83d
000003f0: 0eef dbbd feba c23d a19d 1c3d 252c 4fbd

net.2.bias f4 [36]
-0.08280523 -0.015658997 0.07750013 -0.073637985 0.085649 0.0032557517 0.06134522 -0.12224781
0.024884697 -0.04031869 0.012983912 0.070616595 0.11281074 -0.029951164 -0.041103777 -0.08998057
0.009840266 -0.044689182 -0.0719839 -0.109845266 -0.04043819 0.033629514 -0.0127577055 -0.079547234
0.083970055 -0.052276276 -0.006198902 0.014847817 -0.08937433 -0.039482187 -0.0906917 -0.0279034
-0.03654838 -0.029784251 0.060571745 -0.020096313
00000000: ca95 a9bd 4c47 80bc 63b8 9e3d 83cf 96bd
00000010: be68 af3d 735e 553b 2045 7b3d 0f5d fabd
00000020: feda cb3c 3625 25bd 79ba 543c 6f9f 903d
00000030: 5109 e73d 255c f5bc 6f5c 28bd bc47 b8bd
00000040: 1139 213c 010c 37bd 4c6c 93bd 8ef6 e0bd
00000050: 84a2 25bd 1abf 093d b205 51bc a9e9 a2bd
00000060: 7ef8 ab3d a61f 56bd 2920 cbbb 4244 733c
00000070: e409 b7bd 13b8 21bd 92bc b9bd ac95 e4bc
00000080: c1b3 15bd 1afe f3bc 141a 783d 06a1 a4bc
