models/gan_class_2.pth (torch, 16261 bytes, 4 tensors)

net.0.weight f4 [64, 16]
0.20374675 -0.17006633 -0.2324061 0.004043802 0.05483587 -0.15469545 0.17461917 -0.0029790353
0.0885143 -0.10646454 0.06622809 -0.20351475 -0.2349957 0.04383097 -0.13199317 -0.021153893
-0.09662033 0.056428377 -0.0732441 0.23055658 0.14650303 0.20229611 0.22392897 0.08852519
0.027272277 -0.031105133 -0.03547577 -0.044390704 -0.23964788 -0.20002504 0.06518343 0.11601063
-0.024301248 0.20209558 -0.09789357 0.20869532 -0.21680994 0.14149146 -0.1179475 0.18283121
0.17786105 -0.24036287 -0.23821874 -0.20289223 -0.082690634 0.035156827 -0.15230873 -0.10815827
0.17753956 -0.05634743 0.024824014 -0.18599913 0.11137008 -0.18491976 0.07604198 0.042747915
0.18743022 -0.07955259 -0.08048684 0.07586595 -0.032264315 -0.114003114 0.13764279 -0.13234352
0.11966426 0.016425448 -0.05680563 -0.17405117 0.090262845 0.09631738 -0.012449299 0.118820116
0.20921634 0.14623359 -0.15786688 -0.22285971 -0.024604768 0.17960031 0.23293875 0.24673033
0.032066744 0.21311156 0.23739345 -0.15006098 -0.08990448 0.12915502 -0.20430088 -0.102911696
0.11573313 0.15083855 -0.2190344 -0.23282166 -0.037352927 0.19305596 -0.071772374 -0.20831615
-0.11776391 -0.20050298 -0.23249586 -0.23547253 0.16763858 0.017432492 -0.0881013 0.14907621
0.08955684 0.101210386 -0.0117429495 -0.20208569 0.18245742 -0.2285215 -0.043532364 -0.08239276
0.027902137 -0.04423371 -0.0222639 -0.0722258 0.036996104 -0.013089779 -0.010556826 0.0463779
0.054638818 -0.24490102 -0.14854343 -0.22265175 0.010359421 0.14598498 -0.02434919 -0.14323658
-0.08038071 0.06424637 0.090812445 0.00376297 -0.11555124 0.06130477 0.039668202 -0.043552805
-0.06958337 -0.04819613 -0.115016 0.05517609 -0.09946867 0.24610227 -0.15813161 0.07734402
0.1431967 -0.015686383 0.01218116 0.032040592 -0.07929323 -0.163523 -0.04169972 -0.17863208
0.22086085 0.10684143 -0.1869427 0.17713821 -0.09776195 -0.17112343 -0.2276579 -0.010087613
-0.05382438 -0.23700604 -0.11438616 -0.04638826 0.02058193 0.033779155 0.05087822 0.062181205
-0.028556641 0.12583224 0.12572636 0.039600123 -0.16603248 -0.14032903 0.03199534 -0.06277413
-0.077063255 0.026466625 -0.15517609 -0.10205939 0.24176891 -0.14278997 -0.0012753612 -0.037489403
-0.073095284 0.24702717 0.14902815 0.16304286 -0.1093746 -0.2000852 -0.12027222 0.08449083
0.15733792 -4.8636342e-05 -0.14001627 -0.027290337 0.057454746 0.048778854 -0.2441929 0.10047235
0.009487163 -0.21110855 -0.0777059 -0.026156345 -0.13132247 -0.1470896 0.13932063 -0.11328908
0.20885684 -0.21806495 -0.23849182 0.10579131 0.093037486 0.15405035 -0.08035756 -0.20505768
0.20800723 -0.19560795 -0.23993842 0.1930823 -0.13269886 0.06976204 -0.13533801 -0.0757891
-0.1411405 -0.10879521 -0.048180778 -0.10284868 -0.08043338 -0.026340727 0.0924665 0.18937485
-0.012255936 -0.0018531029 -0.05900243 -0.1012485 -0.10931052 -0.14933026 -0.07358134 0.03174132
0.11369007 -0.14171733 -0.06447544 -0.04805006 -0.1284882 -0.033374418 0.06811829 -0.16115242
-0.2316431 -0.1678846 0.18813762 0.09702893 0.14252594 -0.21631926 -0.24394134 -0.039493844
00000000: fda2 503e de25 2ebe ddfb 6dbe df81 843b
00000010: 949b 603d 7c68 1ebe 5ecf 323e eb3b 43bb
00000020: fc46 b53d 150a dabd 98a2 873d 2c66 50be
00000030: b6a2 70be 1a88 333d 3829 07be ee4a adbc
00000040: e1e0 c5bd 7121 673d 0101 96bd 0617 6c3e
00000050: e404 163e b626 4f3e a34d 653e b24c b53d
00000060: 1c6a df3c 31d0 febc 0a4f 11bd 07d3 35bd
00000070: 4166 75be 5dd3 4cbe e47e 853d fb96 ed3d
00000080: 6913 c7bc 25f2 4e3e 6d7c c8bd 3ab4 553e
00000090: 6d03 5ebe 23e3 103e 758e f1bd 1b38 3b3e
000000a0: 3521 363e af21 76be 9def 73be fbc2 4fbe
000000b0: b559 a9bd 9b00 103d d2f6 1bbe 1582 ddbd
000000c0: eecc 353e 90cc 66bd bb5b cb3c 8e76 3ebe
000000d0: ff15 e43d 9b5b 3dbe e6bb 9b3d 7018 2f3d
000000e0: b5ed 3f3e 78ec a2bd 49d6 a4bd 9b5f 9b3d
000000f0: 9627 04bd 777a e9bd 3bf2 0c3e 0f85 07be
00000100: 8912 f53d a98e 863c 05ad 68bd 783a 32be
00000110: badb b83d 0c42 c53d 25f8 4bbc f657 f33d
00000120: cf3c 563e 42be 153e dba7 21be 5635 64be
00000130: f08f c9bc 25e9 373e 7f87 6e3e e0a6 7c3e
00000140: 6b58 033d eb39 5a3e 4517 733e 96a9 19be
00000150: d71f b8bd 3741 043e 4034 51be 5ec3 d2bd
00000160: 7e05 ed3d 6c75 1a3e 8e4a 60be cd68 6ebe
00000170: 62ff 18bd 76b0 453e 65fd 92bd d450 55be
00000180: 342e f1bd a750 4dbe 6513 6ebe b61f 71be
00000190: 73a9 2b3e 96ce 8e3c 746e b4bd 6fa7 183e
000001a0: 9469 b73d 6447 cf3d 8065 40bc 8def 4ebe
000001b0: 1ed6 3a3e 8a01 6abe fe4e 32bd 89bd a8bd
000001c0: 0693 e43c 682e 35bd c862 b6bc 1feb 93bd
000001d0: 3a89 173d 8376 56bc 8af6 2cbc c1f6 3d3d
000001e0: f4cc 5f3d 55c7 7abe c51b 18be d2fe 63be
000001f0: 90ba 293c 167d 153e f477 c7bc 9cac 12be
00000200: a49e a4bd 9a93 833d e0fb b93d 299c 763b
00000210: 21a6 ecbd b61a 7b3d 207b 223d 6d64 32bd
00000220: ba81 8ebd 4e69 45bd 828d ebbd 5300 623d
00000230: 3bb6 cbbd 3c02 7c3e 41ed 21be 8b66 9e3d
00000240: 28a2 123e bb80 80bc 7d93 473c ff3c 033d
00000250: 7d64 a2bd 9372 27be 53cd 2abd 54eb 36be
00000260: 5929 623e aecf da3d e86d 3fbe b863 353e
00000270: 6b37 c8bd fb3a 2fbe 271f 69be 8446 25bc
00000280: f476 5cbd b6b1 72be 4b43 eabd 9e01 3ebd
00000290: 709b a83c 035c 0a3d ae65 503d b8b1 7e3d
000002a0: 9eef e9bc 2bda 003e 69be 003e bd33 223d
000002b0: 6b04 2abe 6ab2 0fbe 8c0d 033d b98f 80bd
000002c0: 57d3 9dbd 89d0 d83c 7be6 1ebe 8304 d1bd
000002d0: 4592 773e 8937 12be 052a a7ba 7d8e 19bd
000002e0: fbb2 95bd b1f4 7c3e d69a 183e b5f4 263e
000002f0: caff dfbd 22e3 4cbe 4851 f6bd 8709 ad3d
00000300: 311d 213e e0fe 4bb8 6d60 0fbe fc8f dfbc
00000310: ab55 6b3d 56cc 473d b40d 7abe 73c4 cd3d
00000320: 0c70 1b3c d72c 58be 4524 9fbd d545 d6bc
00000330: 6679 06be a89e 16be 11aa 0e3e 1b04 e8bd
00000340: 91de 553e 6b4c 5fbe 3337 74be 1da9 d83d
00000350: 708a be3d 60bf 1d3e 8192 a4bd a4fa 51be
00000360: d9ff 543e 734d 48be 6bb2 75be 5eb7 453e
00000370: 36e2 07be 67df 8e3d 0c96 0abe 5137 9bbd
00000380: 2387 10be 06d0 debd 3559 45bd 54a2 d2bd
00000390: 42ba a4bd 82c8 d7bc 145f bd3d 7beb 413e
000003a0: 1fcd 48bc d1e3 f2ba 88ac 71bd 605b cfbd
000003b0: 32de dfbd 08ea 18be d0b1 96bd 3003 023d
000003c0: 57d6 e83d 591e 11be b30b 84bd 24d0 44bd
000003d0: 6992 03be 9db3 08bd 9a81 8b3d 2405 25be
000003e0: d933 6dbe f1e9 2bbe 26a7 403e 1bb7 c63d
000003f0: 52f2 113e cc82 5dbe c2cb 79be 4cc4 21bd

net.0.bias f4 [64]
-0.15463586 -0.21838997 0.12551728 0.07575607 0.19912778 -0.16586481 -0.18770738 0.10073233
-0.18649802 -0.20573418 0.22454098 0.0069440985 0.014388533 0.020128356 0.057196934 -0.056362797
-0.12361372 0.029258218 -0.08986224 0.024216292 -0.08078024 0.014513993 -0.2171169 -0.2510343
0.17212225 0.04935597 -0.23243074 -0.15100689 0.076129936 -0.03316326 -0.11649912 -0.2013143
0.05410275 -0.034238253 -0.19156387 -0.060127288 -0.24168244 0.01622159 0.14524958 -0.03989165
-0.24748991 0.08348905 -0.2048496 -0.065268636 0.23744695 -0.10864684 0.20804337 0.11461289
0.06275558 -0.15763181 -0.21434416 -0.2505054 -0.22042826 0.040966325 0.00037449304 -0.14943609
0.10081634 -0.0850274 -0.1865728 -0.100432746 0.0627299 -0.05916544 -0.18933317 0.018595425
00000000: dd58 1ebe 9fa1 5fbe 9a87 003e 0026 9b3d
00000010: 27e8 4b3e 77d8 29be 5d36 40be c04c ce3d
00000020: 56f9 3ebe fbab 52be 12ee 653e 528b e33b
00000030: e2bd 6b3c 39e4 a43c 5547 6a3d addc 66bd
00000040: 3129 fdbd eeae ef3c b209 b8bd 3f61 c63c
00000050: 1c70 a5bd 19cc 6d3c e553 5ebe 9187 80be
00000060: d140 303e 7c29 4a3d 5302 6ebe 8da1 1abe
00000070: 03ea 9b3d 33d6 07bd 1797 eebd 5625 4ebe
00000080: d89a 5d3d 693d 0cbd 5229 44be 0848 76bd
00000090: 9a7b 77be 24e3 843c 4ebc 143e 6d65 23bd
000000a0: ff6d 7dbe 4ffc aa3d 18c4 51be 90ab 85bd
000000b0: 4b25 733e 3c82 debd 5209 553e 2aba ea3d
000000c0: ff85 803d 3c6a 21be 097d 5bbe 3e42 80be
000000d0: f2b7 61be 4ecc 273d 9b57 c439 c605 19be
000000e0: cc78 ce3d d822 aebd f10c 3fbe afaf cdbd
000000f0: 8978 803d 7657 72bd 8ee0 41be 6f55 983c

net.2.weight f4 [36, 64]
0.00017478647 0.113440566 0.06735905 -0.09607573 -0.07247316 0.07190864 0.041282307 -0.114170074
0.006313315 -0.07815313 0.08137263 -0.02037682 -0.11754879 0.026152333 0.07561136 0.113904595
-0.09265928 -0.03481764 0.010589665 -0.045804452 0.05282825 -0.02831123 0.119237825 -0.001735262
-0.06867808 0.029407252 -0.111281335 0.12458807 0.12143647 -0.11101461 0.10005237 -0.023588622
0.09620328 -0.057365794 -0.037347566 0.08115958 -0.04263262 -0.029921511 -0.114111364 -0.079806805
0.0770429 0.02357383 -0.06649613 -0.0444865 -0.08371852 0.04086109 0.09834018 0.009103819
0.08953202 0.051031355 0.07369576 -0.0027580487 0.004472284 0.0390671 0.053535905 -0.06872827
0.00013696168 -0.06456975 -0.057682958 0.06875723 -0.10642072 -0.05119624 -0.105567664 0.06601075
0.056209642 -0.043255676 -0.03275079 0.119469814 0.030646892 0.07615429 -0.026875148 0.11605037
-0.042312246 -0.04249284 -0.013647407 -0.05892618 -0.077005394 0.089812994 -0.017278725 -0.07598525
0.0063644326 0.0639004 -0.018217558 0.0077520227 0.064146616 0.06784534 0.10340094 -0.017508483
-0.11315998 0.12259183 -0.056147564 -0.104060516 0.069888435 -0.013179675 0.05018369 0.048907965
0.06388891 -0.039896697 -0.035175115 -0.08699144 -0.04122065 0.09929535 -0.008894649 -0.06298677
0.022115486 -0.04191441 -0.12165841 -0.11981367 0.115593575 0.021962002 0.021751944 0.030943846
0.11955481 -0.11459919 0.025083294 -0.07201868 0.05460107 -0.031994894 -0.055338375 0.05493944
-0.09588276 -0.013778144 0.0062887324 -0.006867971 -0.02224717 -0.10108591 -0.067226015 -0.041815687
0.113081306 -0.08408875 -0.07457979 -0.039286032 -0.032888837 -0.0038545006 0.04259447 -0.082603075
-0.09375277 -0.06406729 -0.059542403 -0.07065877 0.05905861 0.057540473 0.1133349 0.07636542
-0.09733795 -0.017628547 -0.088332 -0.10441733 0.015921578 -0.028950142 0.0774804 -0.027253035
-0.12091004 0.05294021 0.033138357 -0.12555972 -0.04526185 -0.027777983 -0.031852275 0.03636814
0.10153577 -0.092388466 0.12143112 -0.11248828 -0.005740308 -0.10491374 0.08497283 -0.07829935
0.039414953 0.079305895 0.10800781 0.089594446 0.01035449 -0.098062515 -0.115316615 -0.11731476
-0.03250209 -0.040674232 0.05950309 -0.04262219 0.08045932 -0.019756272 -0.08609754 -0.041669752
-0.020922843 -0.04768313 -0.11673476 -0.124981135 -0.07678742 -0.058286484 0.05254286 0.103247344
0.07658927 -0.091012515 0.010689241 0.05191576 -0.063324995 -0.0322395 -0.08285009 0.047715228
-0.1045711 0.06321876 -0.048605245 -0.07679643 -0.028064594 -0.08625405 0.11769461 -0.02626596
-0.10107969 0.11151434 0.081839845 0.03833311 0.074072756 -0.061422527 0.117542505 0.053126797
-0.09884983 0.0963771 0.083460085 -0.056476783 -0.08092056 -0.024527315 -0.025183992 0.046489753
0.08373115 -0.010063081 0.0010188605 0.09868888 -0.115266986 0.060761508 -0.06775668 0.05527244
-0.036878347 -0.0860928 0.10622247 0.032901652 0.01914505 0.027524782 -0.07556706 0.09194224
-0.10543837 -0.063035116 0.059832074 0.035439305 0.05617742 0.0009551168 -0.006186617 -0.079285756
-0.11747454 0.0024521125 0.08370528 -0.029783899 0.058917105 0.050789703 0.0051310793 -0.0889205
00000000: e346 3739 8753 e83d 8bf3 893d 5ac3 c4bd
00000010: cf6c 94bd d644 933d a317 293d 00d2 e9bd
00000020: eddf ce3b c00e a0bd b2a6 a63d 4aed a6bc
00000030: 6cbd f0bd 6b3d d63c 21da 9a3d d046 e93d
00000040: 26c4 bdbd f19c 0ebd 4680 2d3c 739d 3bbd
00000050: 6f62 583d f4ec e7bc f632 f43d bb71 e3ba
00000060: 18a7 8cbd 7ae7 f03c 78e7 e3bd 0828 ff3d
00000070: afb3 f83d a15b e3bd 42e8 cc3d ed3c c1bc
00000080: 3a06 c53d 65f8 6abd c3f9 18bd fe36 a63d
00000090: 8b9f 2ebd f51d f5bc 38b3 e9bd c071 a3bd
000000a0: abc8 9d3d e81d c13c 1f2f 88bd 7a37 36bd
000000b0: 9e74 abbd f55d 273d 9466 c93d 2f28 153c
000000c0: 905c b73d 4106 513d cded 963d 61c0 34bb
000000d0: 3d8c 923b d304 203d 7748 5b3d 68c1 8cbd
000000e0: 5f9d 0f39 253d 84bd f744 6cbd 97d0 8c3d
000000f0: 1bf3 d9bd 26b3 51bd dc33 d8bd a530 873d
00000100: 153c 663d dd2c 31bd b125 06bd 97ac f43d
00000110: 310f fb3c c8f6 9b3d 4529 dcbc d1ab ed3d
00000120: 9b4f 2dbd f90c 2ebd 6099 5fbc 945c 71bd
00000130: 01b5 9dbd e0ef b73d 1d8c 8dbc 289e 9bbd
00000140: bb8c d03b 37de 823d fd3c 95bc ae04 fe3b
00000150: 4d5f 833d 7ff2 8a3d dfc3 d33d f36d 8fbc
00000160: 6bc0 e7bd 6d11 fb3d fdfa 65bd ae1d d5bd
00000170: ab21 8f3d 90ef 57bc 6a8d 4d3d b853 483d
00000180: 30d8 823d b86a 23bd c813 10bd 9128 b2bd
00000190: fcd6 28bd 5c5b cb3d ddba 11bc 35ff 80bd
000001a0: 892b b53c 72ae 2bbd 0b28 f9bd df60 f5bd
000001b0: 53bc ec3d a8e9 b33c 2231 b23c f37d fd3c
000001c0: 27d9 f43d fbb2 eabd 7b7b cd3c 887e 93bd
000001d0: 5fa5 5f3d 140d 03bd 7eaa 62bd 2e08 613d
000001e0: 2e5e c4bd b9bd 61bc b611 ce3b b70c e1bb
000001f0: b23f b6bc 2106 cfbd cbad 89bd ed46 2bbd
00000200: 2c97 e73d b936 acbd 4abd 98bd 64ea 20bd
00000210: 72b6 06bd ca9b 7cbb 8a77 2e3d cd2b a9bd
00000220: 7401 c0bd b635 83bd bce2 73bd 8cb5 90bd
00000230: 71e7 713d 8faf 6b3d 211c e83d 7965 9c3d
00000240: 1e59 c7bd be69 90bc 68e7 b4bd c1d8 d5bd
00000250: f86d 823c d928 edbc 0bae 9e3d c241 dfbc
00000260: af9f f7bd d5d7 583d 16bc 073d ba92 00be
00000270: 7d64 39bd a78e e3bc 8877 02bd c2f6 143d
00000280: fcf1 cf3d 2a36 bdbd e1b0 f83d 4160 e6bd
00000290: 3219 bcbb 04dd d6bd 3c06 ae3d 695b a0bd
000002a0: 9371 213d 216b a23d 3333 dd3d 4b7d b73d
000002b0: e1a5 293c 00d5 c8bd 1e2b ecbd b942 f0bd
000002c0: e920 05bd 069a 26bd 83b9 733d 9b94 2ebd
000002d0: dbc7 a43d e8d7 a1bc e853 b0bd e7ad 2abd
000002e0: 6266 abbc 634f 43bd a212 efbd 1cf6 ffbd
000002f0: b942 9dbd cfbd 6ebd 2f37 573d 5873 d33d
00000300: d6da 9c3d c564 babd ed21 2f3c 9fa5 543d
00000310: 89b0 81bd 910d 04bd 4fad a9bd 0b71 433d
00000320: 5f29 d6bd d678 813d 4b16 47bd 7247 9dbd
00000330: b8e7 e5bc f7a5 b0bd df09 f13d b62b d7bc
00000340: de02 cfbd a161 e43d a69b a73d 2e03 1d3d
00000350: 75b3 973d 3096 7bbd 20ba f03d 7c9b 593d
00000360: c871 cabd 5b61 c53d 1fed aa3d 3354 67bd
00000370: aeb9 a5bd 82ed c8bc a94e cebc 0a6c 3e3d
00000380: 3d7b ab3d 9fdf 24bc 498b 853a 651d ca3d
00000390: 1911 ecbd 0fe1 783d 04c4 8abd 5b65 623d
000003a0: c00d 17bd 6c51 b0bd 2b8b d93d e2c3 063d
000003b0: 14d6 9c3c a77b e13c e7c2 9abd 374c bc3d
000003c0: 12f0 d7bd 8e18 81bd 7a12 753d ce28 113d
000003d0: 4b1a 663d ce60 7a3a 1bb9 cabb 9260 a2bd
000003e0: 7e96 f0bd 9fb3 203b ad6d ab3d 5dfd f3bc
000003f0: 1053 713d dd08 503d 9d22 a83b f31b b6bd

net.2.bias f4 [36]
-0.05094253 0.09823296 -0.04537858 -0.050940044 -0.01530686 -0.0941762 0.04114359 -0.06480426
0.12243278 -0.10024747 0.01401404 -0.016957924 -0.0681042 0.019809995 -0.008955294 0.11554029
0.09895418 0.105084375 -0.09269803 0.04930567 -0.12363142 -0.120196156 0.05302011 0.06241893
0.09261633 0.045365315 0.038136702 -0.023094313 0.031922955 0.10771545 0.08723908 0.061281078
-0.012458604 -0.088153265 0.074727185 -0.06673072
00000000: 1da9 50bd 5d2e c93d e4de 39bd 82a6 50bd
00000010: a0c9 7abc 74df c0bd 2e86 283d 19b8 84bd
00000020: 0abe fa3d 8c4e cdbd 259b 653c 58eb 8abc
00000030: 377a 8bbd 9248 a23c 3ab9 12bc 63a0 ec3d
00000040: 7da8 ca3d 7a36 d73d 77d8 bdbd bef4 493d
00000050: 7832 fdbd 6729 f6bd 9d2b 593d feaa 7f3d
00000060: a1ad bd3d fbd0 393d 3b35 1c3d 4930 bdbc
00000070: a5c1 023d eb99 dc3d 67aa b23d de01 7b3d
00000080: 2c1f 4cbc b389 b4bd 910a 993d 1eaa 88bd
