models/gan_class_1.pth (torch, 16261 bytes, 4 tensors)

net.0.weight f4 [64, 16]
00000000: 254e 933c acec bcbd 8c1a 26be 27fb 6fbe
00000010: aee0 82bc e545 1ebe 504b a13d 94d9 31be
00000020: e64c 213e 39b1 15bd ec13 863d 7f06 563e
00000030: d9d7 0cbe f084 213e ded0 c03d 17ac 31be
00000040: d4d5 e4bd 5fe3 3bbd b5f3 70be e54a 123e
00000050: c9e7 d1bc 4e5a 7cbe 2bf7 61bd 62fe e93d
00000060: 121f 2fbe 67f2 ef3d 45a1 11be 7ddc 7abe
00000070: 6922 03bc c774 54be 9d81 1f3c 6182 fdbd
00000080: 7bd5 35bc 415c a13c 78c1 4bbd bb8b b4bd
00000090: bcf6 87bd b51f 30be a44d f6bd 8695 0e3c
000000a0: 0b08 0c3d 1469 a33d 7573 9abc ddf6 f63d
000000b0: 5b12 0fbe fa46 2d3e e1ae d0bd 3a17 1fbd
000000c0: d1a5 34be a643 963d f998 5f3a a317 26be
000000d0: f583 2bbd ec52 39be 07c5 fbbc a23d cc3d
000000e0: 3ace e43d 69cc 003e f3dc 0fbe fc29 d03d
000000f0: c159 3b3e c7e4 06be 42e0 673d d136 1e3e
00000100: 21a9 5fbe 531f 2e3e d585 2c3e 497a 113b
00000110: 7b8b 5bbc ee3f 9e3d 3107 783e 64dd 353d
00000120: 783f 773d 71c0 5e3e 3088 7b3e 7ea3 15be
00000130: 1e1a 76be c5a9 7bbe 0358 0dbe 17c1 4ebe
00000140: 21ab f13d 7d70 efbd 6f11 37bd 3b2c 27be
00000150: 1e45 3dbe 67c0 733e 480d c9bd 612f a83d
00000160: d92f ce3d 537f 6abe c76e 433d 401b 15be
00000170: 1a7e b53c f6ee 6c3e f2e6 62bd 3716 0abe
00000180: 58a9 343d b1a4 423e 835c 5dbe 2e72 26bb
00000190: 8520 af3d 48b3 f23d 479e 703e 0344 bb3d
000001a0: ce48 75be 379e 053d 8e56 79be cbd4 103e
000001b0: 4d3a 183e 738c 2b3d 7a60 cebd 57bc 463e
000001c0: 95c7 07be 7049 243e f29a f8bd d5e7 653e
000001d0: c25c 8fbc 4572 0f3e cf0c c9bd b19a bebc
000001e0: cca2 27be ab12 493e c907 49be 23d4 0b3e
000001f0: 97a0 47bd c13c 353e db04 6abe 912b aa3c
00000200: 0b54 54be 2a09 503e 32cc b23d 9cdf 973d
00000210: ae69 32be 7c03 9f3d 31e4 323e 8c88 13bd
00000220: 6c43 e8bd ab64 563d c17c 1c3e af6c 00be
00000230: f4da 5b3c 298a 20be 05d4 b9bd f640 70be
00000240: 2b4b 69be 719e 0c3e 6f5a 123d c932 8f3b
00000250: deb6 8dbd c18e f53c 5277 5fbe 3853 7a3e
00000260: 0a89 4d3e f5ba 6ebe 3d9f 69bc 9c2e 07be
00000270: 84d2 163e 7b1c 033e 624e b5bd e223 8f3d
00000280: c474 d0bd 9210 14be a787 1f3e 2c05 0bbe
00000290: d1ea c2bd 3ed2 343c b254 aa3d fec7 a13d
000002a0: 2fbd 16be 0c2c 5ebe 3b6a 5cbd 5af0 2fbe
000002b0: 9ffd 483e 2695 ce3d 1bea 143e ee5d 63be
000002c0: 7fc0 46be a4be 14be d41e 8abd d860 8d3d
000002d0: 5b3e 44be 9a2d 263e a374 fdbd ca79 ae3d
000002e0: 2e68 b23d 2c8f ecbd 8674 83bd 88d3 cbbd
000002f0: 6dd6 793e 43df 28be 83a7 423e 4515 0f3e
00000300: 5b73 6dbe 0b35 19bd cfef 1fbe 6b14 45bd
00000310: 6851 7ebe 8bff 60be dcf4 5c3e 0f45 35bd
00000320: fe57 b9bd 1b17 3f3e 2c48 fc3d 31fa 1e39
00000330: da90 a0bd d693 0d3d 7b42 5d3e 9c2c 473e
00000340: 0f69 ff3c d364 0b3e 16cd 2e3e 7b85 673e
00000350: 89d6 a9bc 5459 383e ba24 8f3d 9a92 6ebe
00000360: ebce 22bc 7df8 4ebe 50de a63d 1b40 dabd
00000370: 53a7 333d 16ec 743d d3f3 68be 7546 793e
00000380: 8c12 653e d9e8 18be 5f1d 22be 4eec 04be
00000390: 4290 36be 6167 9f3d 33c1 f33d 89c8 03bd
000003a0: 4471 683e 7f75 3a3e 88aa ce3b b6c4 1ebe
000003b0: 7201 5fbe 929a 043d d81c b93d 7858 3a3e
000003c0: fc59 5a3e bb29 0c3e 498c 1f3d 6046 803d
000003d0: f9f9 f43d fea2 6d3d d27b 5c3e a978 73be
000003e0: a567 5dbe 9317 72bd 66d4 b93c 8a3f 4fbe
000003f0: ec53 c7bd c53a 933d fc8f 8abd 7565 603e
0.017981598 -0.09224829 -0.16221064 -0.23435651 -0.015976276 -0.1545635 0.07875693 -0.17368156
0.1575199 -0.036545966 0.065467685 0.20900916 -0.13754214 0.15773368 0.09414838 -0.17350803
-0.11173597 -0.045871135 -0.23530467 0.14286382 -0.02562322 -0.24643824 -0.05516736 0.11425473
-0.17101696 0.117161565 -0.14221676 -0.24498172 -0.0080038095 -0.20747672 0.009735492 -0.123783834
-0.011098261 0.01969731 -0.049745053 -0.08815714 -0.06638858 -0.17199595 -0.120265275 0.008702641
0.034187358 0.079790264 -0.018853882 0.12058804 -0.13971846 0.16921607 -0.101896055 -0.03884051
-0.17641379 0.07337122 0.00085295696 -0.16219954 -0.04187389 -0.18098038 -0.030733598 0.09972693
0.11172147 0.12577976 -0.14049129 0.10164258 0.18295957 -0.13173209 0.056610353 0.15450598
-0.21841861 0.17004137 0.16847928 0.0022198132 -0.013399954 0.07727037 0.24221493 0.044400588
0.060363263 0.21753098 0.2456367 -0.14613149 -0.240334 -0.2457648 -0.13803105 -0.20190845
0.118002184 -0.11691377 -0.04469436 -0.16325466 -0.18483397 0.23803864 -0.09816986 0.08212162
0.1006772 -0.22900133 0.047713067 -0.14561176 0.022154856 0.23138031 -0.055396028 -0.13485037
0.04410681 0.19008137 -0.21617322 -0.0025397646 0.085511245 0.118506014 0.23497878 0.091438316
-0.23953554 0.03262159 -0.24349424 0.14143674 0.1486599 0.04188199 -0.10076995 0.19407783
-0.13259728 0.16043639 -0.121389285 0.22451718 -0.017500285 0.14008434 -0.09816896 -0.023267122
-0.16370696 0.19636028 -0.19631876 0.13655142 -0.048737135 0.17698957 -0.22853415 0.020772727
-0.20735185 0.20315996 0.087303534 0.07415697 -0.17423126 0.077643365 0.1746986 -0.036018893
-0.11340985 0.0523421 0.15281965 -0.1254146 0.013418902 -0.15677704 -0.09073643 -0.2346228
-0.2278258 0.13732316 0.035730775 0.0043700677 -0.06919645 0.029975297 -0.21822861 0.24445808
0.20071808 -0.23313506 -0.014259157 -0.13201374 0.14728743 0.12803833 -0.08852841 0.06989266
-0.10178521 -0.14459446 0.15579091 -0.13576192 -0.09517444 0.011036454 0.083169356 0.078994736
-0.14720605 -0.2169649 -0.053812247 -0.1718153 0.19627999 0.100870416 0.14542429 -0.222038
-0.19409369 -0.14525849 -0.06744161 0.06903237 -0.19164412 0.16228333 -0.12375762 0.08519323
0.08711277 -0.11550745 -0.064187095 -0.09952456 0.24398203 -0.16491418 0.19009213 0.13972957
-0.23188536 -0.0374041 -0.15618823 -0.048115175 -0.24835742 -0.21972482 0.21577781 -0.044255313
-0.09049986 0.18661158 0.12318453 0.00015161258 -0.07840128 0.034564815 0.21607392 0.19450611
0.031178026 0.1361268 0.17070422 0.22609513 -0.020732181 0.18002826 0.06989427 -0.23298112
-0.009937028 -0.20211978 0.081478715 -0.106567584 0.043860745 0.05979546 -0.22749262 0.24343283
0.22370356 -0.14932574 -0.15831517 -0.12980768 -0.17828467 0.0778339 0.11902084 -0.032173667
0.22699457 0.18208884 0.00630695 -0.15504727 -0.21777895 0.032373972 0.09038705 0.1819781
0.21323389 0.13687794 0.038952146 0.06263423 0.11961741 0.05801677 0.21531609 -0.23776497
-0.21621569 -0.059104513 0.022684287 -0.20239082 -0.09732804 0.07188944 -0.06765744 0.21913703

net.0.bias f4 [64]
00000000: 5c2b 903d 925e b93c 6bcf adbd 54da 1ebe
00000010: 5378 563e e72a 73be 9d4f 4bbe 67c8 debd
00000020: 4d67 43bd 1231 053d dac0 323e 3dc0 113d
00000030: f4a0 63be 11e5 603d e036 6dbe dc86 63be
00000040: 3ebf 2abe 9a64 983b 4290 2e3e c019 53be
00000050: 9b6b 503e 633f f0bc 347e 1b3e 59f5 fcbd
00000060: ef1b a63d f665 bd3a e648 243e 5638 55be
00000070: 8cf5 ed3d 20d0 ee3d ba44 38bc d725 483e
00000080: b667 643e bfc1 a73d 3e66 b2bc b593 cb3c
00000090: 9586 dfbd 62a0 7bbd 72dc 1e3e 4d7d 123d
000000a0: 26c9 d9bd 705e 87bd 3064 8bbd 7638 1fbe
000000b0: faec 0d3e c89b a8bc 147b 4a3d c5c2 f2bd
000000c0: a32b 05bb 8db9 e63d 1e7f 753e 0656 253e
000000d0: 1cf7 643e bb8d 84bc 1a93 2a3e 6822 0dbe
000000e0: 898f c1bd 4636 66be 6079 a33d 2cd8 5bbe
000000f0: 75a6 5f3e 9915 a13d 53d7 2a3e 9e4c 7a3c
0.0703952 0.022628102 -0.084868275 -0.15512973 0.20944338 -0.23746835 -0.19854589 -0.108780675
-0.047705937 0.0325175 0.1745638 0.035583723 -0.22229367 0.054905955 -0.23165464 -0.22219414
-0.16674516 0.0046506645 0.17047217 -0.20615292 0.20353548 -0.0293271 0.15184861 -0.12351484
0.08110797 0.0014449942 0.16043434 -0.20822272 0.116191 0.116607904 -0.011246854 0.19545685
0.22305188 0.08191251 -0.021777268 0.024850706 -0.10914341 -0.06143225 0.1551378 0.035764027
-0.10634069 -0.066098094 -0.068062186 -0.15548882 0.1385993 -0.020582095 0.049433783 -0.118535556
-0.00203202 0.1126586 0.23974273 0.16146097 0.2235989 -0.016180864 0.16657677 -0.13782656
-0.09451205 -0.22481641 0.07982135 -0.21469182 0.21840842 0.078654476 0.16683702 0.015277056

net.2.weight f4 [36, 64]
00000000: 1c52 8e3d d458 12bd dfd6 c03d eeb8 583d
00000010: 6684 43bd d204 d4bd 3da7 2abd c54b d63c
00000020: 0714 b03d 9c68 013e 49ca b6bd b594 963d
00000030: 4a48 93bd 2ed9 42bd 24c7 763d 3ed9 993d
00000040: 860f 55bd 29ee 6d3d 1bd5 793d dff2 e4bc
00000050: 7b39 a43d fed6 0d3d 597b 86bd ea7a ae3d
00000060: 56de f53c 8a51 503d cad1 d73c fb75 a73d
00000070: e2d2 d4bd 629e d73d b7d4 363d 1430 77bd
00000080: 4ebe d83c 1b2a bf3d c96c c53d 5b70 903b
00000090: a57f e53d 954d d13d 57c2 84bc 4297 e73c
000000a0: 761f cd3d 8ce3 133d 19fe e7bd a0c0 f1bd
000000b0: 2e40 91bd 5a70 ee3d 6fad 92bd 9373 90bd
000000c0: 0675 fe3d b4d8 1bbd 8716 8ebd a874 9e3d
000000d0: 32dd d23d ec0b ecbd ced0 0b3c 2bca 6c3d
000000e0: 5006 aabd b1a5 acbd b765 93bd 1927 d2bc
000000f0: a997 ecbd 7412 323c 1e73 28bd ce26 bfbd
00000100: 1eab 763c ac0d 933d 22c3 7e3d d86e a33d
00000110: e7d2 e4bb 241b 853c f60a 953c 95e1 793d
00000120: b38d f3bd c14e 053d 5997 84bd f9b9 61bd
00000130: c6ba 8abc fe7a e63d c6c2 a8bd e430 0cbd
00000140: 7684 a1bd 7526 87bd 4ef8 cabc ef72 693d
00000150: 8709 17bd 7d1f 933d 1a04 ebbc ac5f 83bd
00000160: db28 933a c73d 06bd e524 7c3d 3c64 90bd
00000170: 9b16 f6bd 2f25 f23d 94c8 a3bd b959 833d
00000180: a001 59bb 553c ed3d 0f22 4d3d 9958 743d
00000190: b784 81bd ae5f 29bd 043d 5ebc 1ec6 8d3c
000001a0: 61f5 c8bb a859 3e3d c497 873d b33c a0bd
000001b0: c6b7 a13d 4b06 f0bb 5901 883d aedd 193c
000001c0: 42d9 af3d ebe1 923d 2922 883d d188 df3c
000001d0: f320 943d c9b9 e1bd 7f6b a5bd 56bd 28bd
000001e0: cb57 983d cc5b 913c 4d7a 0bbb fc6d b3bd
000001f0: 121c a03c c0ef 83bc 7361 963d 666f e4bd
00000200: 5c98 df3d ce56 efbd bb11 82bd 66a1 5ebd
00000210: a18b b9bc ef3d 7ebc 0368 933d 94c8 ef3d
00000220: 4b59 9b3d 74a7 c63d 165e e43d 091e c6bd
00000230: e3ec 6dbd ad40 05bd f9e2 9e3d 64e1 bcbd
00000240: 9bff b3bc 21b7 fcbc d755 cc3b 0af5 a13d
00000250: 3966 ccbb 9308 123d 57fb 3e3d 69af 8abd
00000260: 7fb8 cabc 2db8 1b3c d83f 4d3d b878 b23d
00000270: 9de4 4c3d d25a d4bd d27a 06bd c7fd 053d
00000280: fb48 05bd 9c29 7abc e8a1 97bd 4735 6ebd
00000290: d8bc f5bd ddbf 45bd 5014 babc 6a7b f1bc
000002a0: 511b b83a 3886 e5bd afe4 be3d 22e9 7ebd
000002b0: 7665 51bd ad83 edbd 6fe2 fd3c 363d 893d
000002c0: b3fb aabd 3cde de3d ce94 c93d b975 f23d
000002d0: 86c3 61bd 3b0c a5bc 73fa 9b3d 26af c03d
000002e0: e828 4d3d e41b 47bb 8a6e ed3c d3dc 4fbd
000002f0: bca7 2ebd 021c f7bd 33a9 84bd 82df 523d
00000300: a30a c83d 5af1 ebbd c885 7dbd ce87 75bd
00000310: ff24 ea3d a75f aa3d 6657 d23c ee52 603c
00000320: ffa7 c63d 32ea 30bd 8fdb aebd 03d8 90bc
00000330: bc47 d13d bb54 babd a422 fa3d 7f06 793d
00000340: 2636 f4bd a79c 8c3d 368d e5bd a7e3 f53d
00000350: 484a e5bd c353 f13b 942c 393d 88bd 9bbc
00000360: 2890 a5bd 80f0 093d ba19 83bd a46d c2bd
00000370: 1a42 eebc 00e1 c6bd ec8c acbd 2d5c 493d
00000380: 3854 033c 0f4c 41bd 0478 2fbd 2f4f c43c
00000390: 0c28 ccbb 7845 82bd 5b3b ba3c e8a9 8fbd
000003a0: 2da1 643c 05bd d2bd 8a84 01be 7c71 a53d
000003b0: c612 a9bd 1d9f a3bd efb9 483c 2f64 debc
000003c0: 9ce2 023d 7043 de3d 0836 71bd 063a 3f3d
000003d0: 74c0 a73d 8e64 f4bb 11ac bd3c c84f a5bd
000003e0: aad4 5a3c 13db c13c 68a4 81bd 4fce a43d
000003f0: 763e 6cbd b061 743d 9e56 31bd e51b efbc
0.06949255 -0.035729244 0.094159834 0.052910738 -0.047733687 -0.10352482 -0.041663397 0.026159177
0.0859757 0.12637562 -0.089253016 0.07352582 -0.071915224 -0.0475704 0.06024851 0.07512139
-0.052016757 0.058088455 0.06099425 -0.027947841 0.08018776 0.03462886 -0.065664954 0.08519538
0.030013245 0.05085901 0.026345152 0.081768 -0.10391785 0.10528256 0.044636454 -0.060348585
0.026457932 0.09334203 0.0963989 0.004407925 0.11205987 0.10219876 -0.01620595 0.028270368
0.10015766 0.036105677 -0.11327762 -0.118043184 -0.070923194 0.11642523 -0.07161986 -0.07053294
0.12424664 -0.03804846 -0.069378905 0.07737094 0.10296096 -0.115257114 0.00853367 0.05780999
-0.08301985 -0.08430041 -0.07197135 -0.025653409 -0.115523644 0.010868657 -0.04112541 -0.09333573
0.015055446 0.07180342 0.062197812 0.07980126 -0.0069831493 0.016248293 0.018193703 0.061006147
-0.11892261 0.03254581 -0.0647418 -0.055108998 -0.016934764 0.11253928 -0.08240275 -0.034226313
-0.07886593 -0.06599132 -0.024776604 0.056994375 -0.03687432 0.0718374 -0.02868848 -0.06414732
0.0011227386 -0.03277376 0.061558623 -0.07050368 -0.120160304 0.118234985 -0.079972416 0.064135976
-0.003311254 0.11583773 0.05008131 0.059654806 -0.063241415 -0.041351013 -0.013564352 0.017306384
-0.006132767 0.04647222 0.06620744 -0.078240775 0.0789638 -0.007324969 0.06640882 0.009391231
0.085863605 0.07171997 0.066471405 0.027286919 0.07232847 -0.11021764 -0.08077144 -0.04119619
0.0743862 0.017743967 -0.0021282614 -0.08761212 0.019544635 -0.016105533 0.07342806 -0.1115406
0.10917732 -0.116864786 -0.06351038 -0.05435314 -0.022649588 -0.015517696 0.07197573 0.11708179
0.07585391 0.09699908 0.11150758 -0.096736975 -0.05808724 -0.032532383 0.07758135 -0.09222677
-0.021972468 -0.030849041 0.006235819 0.079080656 -0.006237772 0.03565271 0.046626415 -0.06771738
-0.024746178 0.00950436 0.050109714 0.087144315 0.05002271 -0.10368885 -0.032831974 0.032712724
-0.032540303 -0.0152687095 -0.07403928 -0.058156278 -0.1199891 -0.04827868 -0.022714764 -0.029477794
0.0014046227 -0.11207241 0.09320962 -0.06223405 -0.05112215 -0.11597381 0.030991761 0.06701128
-0.08348789 0.108822316 0.09842835 0.1183886 -0.055118106 -0.020147434 0.07616129 0.09408407
0.05008784 -0.0030381614 0.028983373 -0.050747704 -0.042640433 -0.12065889 -0.06477585 0.051482685
0.09767654 -0.115206435 -0.061895162 -0.059943967 0.11432838 0.083190255 0.02567644 0.013691647
0.097000115 -0.043192096 -0.08537971 -0.017681127 0.1021876 -0.09098192 0.122136384 0.06079721
-0.119243905 0.068658166 -0.112085745 0.12006312 -0.11195809 0.0073647215 0.04520853 -0.019011274
-0.08084136 0.033676624 -0.06401391 -0.094935685 -0.029084254 -0.09710884 -0.08425316 0.04916017
0.008015685 -0.047191676 -0.042839065 0.023963539 -0.00623036 -0.06360906 0.022733381 -0.07014829
0.013954443 -0.10289959 -0.12648216 0.08078286 -0.08255534 -0.07989333 0.012251361 -0.02714738
0.031954393 0.108527064 -0.05888942 0.046686195 0.081910044 -0.007458276 0.023153337 -0.08071858
0.013356367 0.023664033 -0.06330186 0.08047163 -0.057676755 0.059663475 -0.043295495 -0.029188106

net.2.bias f4 [36]
00000000: 5f6d bf3d 0d61 ce3d 6e86 00be 2858 8abd
00000010: d050 1cbd d709 efbd 6c7f 16bd 5550 4dbc
00000020: ea82 b9bd dd9a 5f3d 21ba d93c 02fc 4bbd
00000030: 414e 113c 725d 94bd 34a7 7cbd 77eb a73d
00000040: f2f2 353d 0be1 93bd ac95 c63d f3a0 ef3d
00000050: 402a c6bd db94 603c e518 743d 743e cebd
00000060: 476c a63d 922a bbbd 01d9 4dbc 2124 d7bd
00000070: 1c2f d7bd b258 5a3b 0eeb bc3d 6d48 893d
00000080: 5650 c43b 791f 993d 9f3c 90bd 0bbe 863d
0.09347033 0.10077105 -0.12551281 -0.06755096 -0.038163006 -0.11671799 -0.036742613 -0.01253136
-0.09058173 0.05459105 0.026578011 -0.04980088 0.008868755 -0.07244386 -0.061682895 0.08199208
0.044421144 -0.07220658 0.096965164 0.117006205 -0.09676027 0.013707365 0.059594054 -0.10070506
0.08126121 -0.09138979 -0.012563945 -0.10504938 -0.10507032 0.0033317027 0.092245206 0.06703267
0.005991022 0.07476706 -0.070428126 0.065792166
