models/gan_UNSW_NB15.pth (torch, 38041 bytes, 4 tensors)

net.0.weight f4 [128, 32]
000000 31 a5 22 bd 24 27 16 3d cf db ef bc e5 ae 9d 3c
       -0.03970832 0.03665842 -0.029279618 0.019248435
000010 54 56 bc bc 79 15 d1 3c aa 49 ca bc cf 30 5b bd
       -0.022990383 0.025522934 -0.024693329 -0.053513344
000020 d2 b3 1e bd f4 d2 45 bd e7 e2 f6 bc c9 61 aa bc
       -0.03874571 -0.048296884 -0.030137492 -0.02079858
000030 89 98 ef 3c 31 fc 2b bc 84 9d 46 3d 7b 73 72 bc
       0.02924754 -0.010497139 0.048490062 -0.0147980405
000040 08 ac 73 bc cc f7 a8 bc 44 b6 da 3c b0 ae 2c bd
       -0.014872558 -0.020625971 0.02669824 -0.042158782
000050 1b cf 02 bd 99 1f 80 3a 94 cf a4 3d c8 e9 32 3b
       -0.031935792 0.0009775042 0.08047405 0.002729999
000060 42 94 1d bd 49 51 fd bc e4 08 c9 37 b5 19 a8 3b
       -0.038471468 -0.030922549 2.3965207e-05 0.0051300176
000070 54 cb e3 3c 65 e4 b3 bc 46 aa bd b8 94 ec 92 bc
       0.027806915 -0.021959493 -9.043938e-05 -0.017935075
000080 5d b0 36 3b 63 5e 8d 3d c5 e0 81 bd fc ab a0 be
       0.0027876117 0.069027685 -0.063416995 -0.31381214
000090 de e5 fe 3d 64 9d b5 bd 3e 56 fc 3c 96 78 8a bb
       0.124461874 -0.088679105 0.030802842 -0.0042258007
0000a0 a5 a4 2f bc e7 3b 3d be 6c 97 b8 bc 51 45 4b be
       -0.010720407 -0.18479882 -0.022533141 -0.19850661
0000b0 a0 08 e5 3c 0f f7 82 be 2a f9 fb 3d a7 5f 69 3e
       0.027958214 -0.25579116 0.12303384 0.22790395
0000c0 6c 63 a2 be a5 44 15 3e e1 c3 01 3e b5 16 b0 bd
       -0.31716478 0.14576967 0.12672378 -0.08598081
0000d0 5b 2e 31 be a6 fe 71 3e a7 6a ce 3d 51 a6 da bd
       -0.1730284 0.23632297 0.10078936 -0.106762536
0000e0 fa 32 13 be 7e 97 1a 3e e1 b5 ac 3d 95 d7 55 bc
       -0.14374915 0.15096852 0.08433128 -0.013051887
0000f0 cd fc bb 3d 50 f5 00 3b 0d df 47 3e f4 46 2d be
       0.09179077 0.0019677468 0.19518681 -0.16921598
000100 9e cc a3 bd cf 26 b3 3d af 04 7c bd 8f 21 14 3d
       -0.07998012 0.087476365 -0.061527904 0.036164816
000110 3a fc 06 bd 82 4e 52 3d bd f2 1d bd ca 0f df bd
       -0.032955386 0.051344402 -0.03856157 -0.108916834
000120 83 60 89 bd 3a e3 04 be d6 58 a7 bd 57 06 89 bd
       -0.06707861 -0.12977305 -0.08171241 -0.06690662
000130 c8 06 a5 3d c3 be a6 bc 48 e3 c3 3d fb cf 0c bd
       0.08057934 -0.020354634 0.09564835 -0.034378033
000140 07 ec 18 bd 27 0e 5f bd e3 4d 8c 3d 59 ec d9 bd
       -0.03733447 -0.054456856 0.06850793 -0.10640783
000150 dc 91 8f bd 4a 99 87 bc bb 47 24 3e 1c e0 1d 3c
       -0.07010242 -0.016552586 0.16042988 0.009635951
000160 d4 5f b4 bd af 54 9a bd b0 41 a1 3c 7b 67 06 3d
       -0.0880734 -0.07535683 0.019684643 0.03281353
000170 6e b4 85 3d 08 c7 86 bd 47 6d 02 3c 4d 92 f7 bc
       0.06528555 -0.06580931 0.007960624 -0.030221129
000180 96 a1 a3 3d 05 a5 16 bd e3 f2 7a bc 98 83 32 be
       0.079898044 -0.03677847 -0.015316698 -0.17433012
000190 19 1b 48 3d 40 9c a6 bd 96 11 a3 3d 4d 76 17 3e
       0.048853967 -0.08135271 0.079623386 0.14791222
0001a0 f8 1f 4d 3d 2a 2b d9 bc 58 b0 69 3d 25 9b 1b ba
       0.050079316 -0.02650984 0.05705294 -0.0005935899
0001b0 bf 17 7a bd 19 2c 11 be 87 f5 b2 ba 35 c2 e5 3d
       -0.061057802 -0.14176978 -0.0013653495 0.11218683
0001c0 10 71 e9 bd 9b 76 3f 3d 93 60 08 3d 53 f0 38 3d
       -0.11398518 0.04674397 0.033295225 0.045151066
0001d0 a1 19 19 bc 1a 75 8d 3d 65 61 a4 bd 83 f8 f3 bb
       -0.009344489 0.06907101 -0.08026389 -0.0074453964
0001e0 a3 60 00 3d fa 66 18 3e 51 63 b3 3c c2 62 cb bc
       0.03134216 0.14883032 0.021897944 -0.024827365
0001f0 5c de be bd 24 fb ec 3d 6e cb 08 3e 1b 4f 96 bd
       -0.093197554 0.11571339 0.13358852 -0.07339307
000200 65 cc 3e 3c 44 18 a6 3d 38 59 7d bd d9 3d 7c 3c
       0.011645411 0.08110097 -0.061852664 0.015395605
000210 a4 4c c7 bd 8b bf 60 3d 6b 98 77 3c b9 79 72 bd
       -0.09731415 0.05487017 0.015112023 -0.059198115
000220 bd 2e 3d bd 3d 73 d7 bd 83 02 8e bd 55 38 4c bd
       -0.04618715 -0.10520027 -0.06934073 -0.04985841
000230 07 e7 20 3d 75 fa ff bc e2 52 05 3d 7f 38 9f bd
       0.039282825 -0.031247357 0.032549746 -0.07774448
000240 80 6a 4c bd 62 87 8a bd 51 21 ce 3d 7d a5 f2 bd
       -0.049906254 -0.067641035 0.10064948 -0.11847971
000250 e4 7a 7c bd c8 43 83 bd 42 d2 8d 3d 75 78 9c 3d
       -0.061640635 -0.064094126 0.06924869 0.07640163
000260 8e 01 54 bd 3d 10 82 bc 1b 5b 88 3d c0 fb d6 3c
       -0.051759295 -0.015876884 0.06658002 0.02624309
000270 46 40 9c bc 6d 4d e9 3b 38 36 44 3d aa 15 a0 bd
       -0.019073617 0.0071198256 0.04790327 -0.07816632
000280 05 cd b9 bd b9 1a ec 3d a7 51 8c bd 5c 33 50 3d
       -0.090723075 0.115285344 -0.068515114 0.05083023
000290 3e 32 4c bd cd 41 84 3d 42 81 32 bd 74 ed 0d be
       -0.049852602 0.06457863 -0.0435803 -0.13860112
0002a0 62 e0 ac bd 39 46 1a be ee 1b e3 bd eb 34 b9 bd
       -0.08441235 -0.1506585 -0.110893115 -0.090432964
0002b0 4f f5 db 3d 0b 29 b7 bc 3f 6a da 3d f8 23 5d bd
       0.10740148 -0.022358438 0.10664796 -0.05398938
0002c0 ff d2 27 bd 94 c0 a9 bd d3 a9 cd 3d eb 6c 15 be
       -0.040972706 -0.082886845 0.10042157 -0.1459233
0002d0 7d f7 c6 bd dc 6c d6 bc 00 ea 45 3e 89 31 6f 3c
       -0.097151734 -0.026174955 0.19327545 0.014599212
0002e0 c5 f2 eb bd cb f2 b4 bd 85 df 33 3d 26 c3 1e 3d
       -0.11520914 -0.088353716 0.043914337 0.038760327
0002f0 cf d3 ae 3d b0 b7 a9 bd e6 67 df 3c 42 3b 09 bd
       0.08536493 -0.08286989 0.027271222 -0.03350378
000300 26 44 a1 bd 35 a5 e0 3d c0 90 a7 bd 43 65 17 3d
       -0.078743264 0.10969011 -0.08181906 0.036961805
000310 e2 0e 86 bd de 64 a4 3d e8 99 8c bd 46 71 25 be
       -0.065458074 0.080270514 -0.06865293 -0.16156492
000320 2f 52 d4 bd 30 8f 0a be 2a 7f b5 bd d6 74 66 bd
       -0.10367238 -0.13531184 -0.08862145 -0.056263767
000330 1e fa c8 3d a5 55 3b bd 19 6f 02 3e 29 ca 18 bd
       0.09813331 -0.045735974 0.12737693 -0.03730217
000340 57 42 69 bd ac eb 9f bd 97 b8 b1 3d 69 62 0d be
       -0.056948032 -0.07808623 0.08677786 -0.13807072
000350 94 11 c9 bd 01 37 33 3c 72 49 5c 3e 26 0b 06 ba
       -0.09817806 0.010938407 0.21512392 -0.00051133556
000360 53 f0 e5 bd 89 88 b4 bd 7b 16 23 3d cf f6 52 3c
       -0.11227479 -0.088151045 0.03981636 0.012876227
000370 33 40 9c 3d c2 98 82 bd a5 3e c1 3b ed da 99 bd
       0.076294325 -0.063767925 0.0058973604 -0.0751246
000380 b1 22 a2 bd 0a c9 a6 3d e2 e6 52 bd e3 a4 85 3d
       -0.07916773 0.08143814 -0.05148972 0.0652559
000390 8a 9a 43 bd 7f 7b 68 3d 83 4f 57 bd 3d d0 e3 bd
       -0.0477548 0.0567584 -0.052566063 -0.11123703
0003a0 55 ab a1 bd 2d c8 c2 bd 10 18 9f bd 35 c2 3a bd
       -0.07894007 -0.09510837 -0.077682614 -0.045595367
0003b0 48 51 a9 3d 0b 0d 95 3b 64 a3 af 3d 4e 03 61 bd
       0.08267456 0.004548674 0.08576086 -0.054934792
0003c0 90 49 88 bb e4 d5 9a bd ae f0 5b 3d 8a 85 c6 bd
       -0.00415916 -0.07560328 0.053696327 -0.09693439
0003d0 4b 20 5e bd 17 6c 10 bd a8 bb 17 3e cd 68 4f 3c
       -0.054230016 -0.035259333 0.14817679 0.012659264
0003e0 5c a3 96 bd b2 8c b1 bd 37 ee 53 3c 8c 09 ee 3c
       -0.07355377 -0.086694136 0.012935213 0.029057287
0003f0 0d a9 56 3d ff cb 93 bd 01 91 56 bc 47 4f 48 bc
       0.052407313 -0.072166435 -0.013096095 -0.012225932

net.0.bias f4 [128]
000000 26 e0 87 be e7 7e 51 bd 5f 31 26 bf 3d 83 19 bf
       -0.265382 -0.051146414 -0.64919084 -0.5996588
000010 93 19 62 bf 64 c8 3b bf b4 d2 36 bf 02 87 15 bf
       -0.88320273 -0.73352647 -0.7141526 -0.5840913
000020 67 06 76 bf c4 87 67 bf 1a aa 7b be 42 c0 df be
       -0.9610352 -0.90441537 -0.24576607 -0.4370137
000030 cc 67 f1 be ea ad 47 bf a6 5a 70 bf 5f 70 5b bf
       -0.47149503 -0.77999747 -0.9388832 -0.8571834
000040 52 ce 3e bf 78 89 31 bf e3 4c 4d bd c1 18 69 bf
       -0.7453357 -0.69350386 -0.050122153 -0.91053396
000050 86 f8 f9 be 85 dd 53 bf 3a f2 10 bf 10 0d 55 bf
       -0.4882242 -0.82759887 -0.5661961 -0.83223057
000060 47 b6 3b bf e0 35 2c bf 67 bb 06 bf 9b fd 0a bf
       -0.7332501 -0.67269707 -0.52629703 -0.5429322
000070 58 31 bd 3e 90 a4 66 bf 50 e1 82 bf 5b 6a 90 bc
       0.3695171 -0.9009485 -1.022501 -0.01762884
000080 fa 44 a0 bf 9b c3 74 bf c7 a3 27 bf 65 d9 5f bf
       -1.252105 -0.9561097 -0.6548428 -0.8744109
000090 a2 e2 75 3e 43 d9 12 bf 72 aa 71 bf d0 15 2d bf
       0.24012235 -0.57362765 -0.94400704 -0.6761141
0000a0 35 85 64 bf da b3 46 bf 4c b3 7c bf 86 7e 84 be
       -0.8926576 -0.7761818 -0.98711085 -0.2587778
0000b0 66 86 ba be 9f f3 30 bf 6b b5 a8 be 53 0f 16 be
       -0.36430663 -0.69121736 -0.3295091 -0.14654283
0000c0 63 97 8c bf 4c df 7c bf ac 19 43 bf dd 0a 5b bf
       -1.09837 -0.98778224 -0.7621105 -0.8556345
0000d0 52 8a 2c bf 4e 99 40 bd 4e 71 5a bf 58 f8 65 bf
       -0.6739856 -0.047021203 -0.8532914 -0.8983207
0000e0 9c 9f 73 bf ce cf 34 bf 6d 44 a0 be d0 97 25 bf
       -0.9516542 -0.70629585 -0.31302205 -0.6468477
0000f0 4a 67 2f bf 30 f0 c8 3d 12 c8 58 bf 6b e2 52 3e
       -0.6851698 0.09811437 -0.84680283 0.20594184
000100 75 3f 16 bf 40 c6 34 3e ac 08 48 bf 92 3a 13 bf
       -0.5869058 0.17653751 -0.7813823 -0.57511246
000110 68 73 2e bf c3 c7 05 be b0 95 61 bf a7 12 43 bf
       -0.68144846 -0.13064484 -0.8811903 -0.76200336
000120 a5 5c 4b bf c3 eb 03 3f f6 11 1d bf 4e ce cd 3e
       -0.7943824 0.5153162 -0.6135553 0.4019646
000130 f9 ff 83 bf 36 0f 19 bf fc d5 45 bf f0 47 fb be
       -1.0312492 -0.59788835 -0.7727964 -0.4907832
000140 42 5f 0a be 9a 64 8b be 61 9c 79 bf af 6a 5b bf
       -0.135129 -0.2722519 -0.9750424 -0.8570966
000150 35 02 9c be 09 87 5b bf 86 64 44 bf e0 01 41 bf
       -0.30470434 -0.8575292 -0.76715887 -0.75393486
000160 cf df 6a bf 08 78 c4 be 8d c8 13 bf 35 13 53 bf
       -0.91747755 -0.38372827 -0.5772789 -0.8245118
000170 08 eb 72 bf 1d 59 60 3e 8c 4f 17 bf bd 68 14 3c
       -0.9488988 0.21908994 -0.59105754 0.009058175
000180 13 7a e1 be 0a 95 31 bf a6 ca 59 bf 82 c8 20 bf
       -0.44038448 -0.6936804 -0.8507484 -0.6280595
000190 59 3d 85 bf 06 31 3e bf 94 23 35 bf 15 f9 3c bf
       -1.0409347 -0.74293554 -0.7075741 -0.7381757
0001a0 d0 4f 92 be ab 02 6e bf 08 bc 62 bf ee 5e 2a bf
       -0.28576517 -0.9297282 -0.8856816 -0.665511
0001b0 d0 a4 55 bf c2 a9 7c bf 4a 3e 3e bf 20 11 47 bf
       -0.8345461 -0.9869653 -0.74313796 -0.77760506
0001c0 17 d0 78 bf b2 93 af bd b8 9a ef bc c7 49 29 bf
       -0.9719252 -0.085730925 -0.02924858 -0.661282
0001d0 27 9b 29 bf 7a 77 94 bf 2d bc b7 be 20 9c a0 3d
       -0.6625237 -1.1598961 -0.35885754 0.078422785
0001e0 98 99 f8 be 48 1e b5 be 52 24 a9 be 49 d3 1b bf
       -0.48554683 -0.35374665 -0.33035523 -0.6086927
0001f0 73 1c 39 bf 61 6d d9 be 84 e7 1c bf 83 64 9c bf
       -0.72309035 -0.42466262 -0.61290765 -1.2218174

net.2.weight f4 [36, 128]
000000 3e a7 4e 3e cd 97 86 be 25 0e a5 3d 52 e8 ac bd
       0.20180985 -0.2628769 0.080593385 -0.08442749
000010 81 ee 91 3f 4e 6d bd 3e b2 6f 07 3e a0 81 49 3c
       1.1400911 0.36997455 0.13226202 0.012298971
000020 39 6f d2 bd 08 9c cd bd d7 f8 53 3f 68 9f a8 be
       -0.1027512 -0.10039526 0.82801574 -0.32934117
000030 5a 1c ba 3e 19 3e ef 3b 63 ca e5 3d ba 5c 85 3e
       0.36349756 0.007301104 0.11220243 0.26047307
000040 d8 e3 49 bf 5e bc 12 3e f3 b6 10 bf 1a 09 40 bc
       -0.78863287 0.14329669 -0.5652916 -0.01172092
000050 af 39 1a c0 2e 94 90 bb f1 0b e1 3e 65 44 21 3d
       -2.4097707 -0.0044121956 0.43954423 0.039371867
000060 01 54 79 be 8e 9c 1b be a9 dd 3d be c0 a5 33 3e
       -0.24348451 -0.1519644 -0.18541588 0.17543697
000070 90 9b b0 3e ab 1e 31 3d 55 d5 68 be e0 d8 32 be
       0.34493685 0.043242138 -0.2273763 -0.17465544
000080 5c bd 91 3d fe b7 87 3e 14 9f 3e be bd 2e b0 bc
       0.071161956 0.26507562 -0.18615371 -0.021506662
000090 c9 c4 7b be d6 c8 b2 be 46 0d 36 bd 9b f3 bf bd
       -0.24586786 -0.3491885 -0.044446252 -0.09372636
0000a0 94 90 25 3d aa 1f 46 bc c4 cd 76 3e 80 c1 cc 3e
       0.040421084 -0.01209251 0.24101931 0.3999138
0000b0 06 c9 33 3f e4 f6 14 3e e6 e7 0e 3f ba 32 95 bd
       0.7022861 0.14547306 0.558226 -0.07285066
0000c0 96 31 2c 3e d1 f6 5c 3e 89 fb da bd bc 5a 23 3e
       0.1681579 0.21578528 -0.10692508 0.15952581
0000d0 ad 7b cc bd 34 2c f3 bd 68 f1 58 be 3b 51 72 be
       -0.09984527 -0.118736655 -0.21185839 -0.236638
0000e0 d3 ec 43 3e 25 d2 f7 be ae 2c 0a 3f 20 e5 55 be
       0.1913331 -0.48402515 0.53974426 -0.20888186
0000f0 8f 9b 09 bf 96 f8 00 40 3c 2f 71 3f 62 b6 31 3e
       -0.5375299 2.0151725 0.942127 0.1735473
000100 c0 1a 7e be be c3 87 3e 1c 10 13 3c e1 90 34 bf
       -0.24814892 0.26516527 0.008976009 -0.7053357
000110 84 2c 8d be de b9 42 be fc 20 1e be c1 60 e5 bd
       -0.27573025 -0.19016215 -0.1544227 -0.11200095
000120 01 f0 ea bc 1b 49 e1 bb f0 77 5e 3d 83 7d 81 3d
       -0.028678896 -0.00687517 0.0543136 0.063227676
000130 8f 6c da be c3 dc 10 be 90 98 46 be bc b1 d8 bd
       -0.4266095 -0.14146714 -0.19394135 -0.10580775
000140 75 88 a8 3e 47 ee 9b bf 57 6f 23 40 1f de 26 bc
       0.32916608 -1.2182091 2.5536706 -0.010184794
000150 d2 4f 89 bf aa ef 11 be 12 9c ba be ab cc 18 3d
       -1.0727484 -0.14251581 -0.36447197 0.03730456
000160 e3 f2 ca 3e 30 4c 19 3e f6 c1 5a 3d 11 1e da bd
       0.39638433 0.1497047 0.05340763 -0.10650266
000170 65 1b 3c 3e e8 b0 e5 3e 14 5e cb 3d da 72 28 3e
       0.18369825 0.4486153 0.09930053 0.16450062
000180 04 6d 7d be 32 e4 d5 bb 7e 8a 1f 3e f6 f7 5b bd
       -0.24748617 -0.006527447 0.15580174 -0.05370327
000190 0b f3 16 3e e0 13 2c 3f 1f b6 78 be 04 0b 4b 3e
       0.14741151 0.67217827 -0.24288224 0.19828421
0001a0 1f 79 4a 3e ca 2c 72 3e fc 5b 81 3e a0 2f 9b bd
       0.19772767 0.23649898 0.2526549 -0.07577443
0001b0 47 d4 b1 bd 9f ea 49 3e 3f 8a fd be 85 82 0a 3d
       -0.08683067 0.19718407 -0.49519536 0.03381588
0001c0 e1 13 14 3f 55 6d 41 3e 78 c8 c7 bf 1f 87 00 be
       0.5784283 0.18889363 -1.5608053 -0.12551545
0001d0 dc 9b 92 3e 64 0c 47 3d 28 14 5b bf bd f9 87 3e
       0.28634536 0.0485958 -0.8557763 0.26557723
0001e0 bc 4f 13 be d5 d6 b9 be a6 9c ef 3e 37 5d 4d be
       -0.14385885 -0.36296716 0.467992 -0.2005509
0001f0 e2 1d 42 bd e1 24 85 bd fe 77 f9 be f2 17 da bc
       -0.04739178 -0.06501175 -0.4872436 -0.026622746
000200 2c 67 08 3e 61 27 16 3d 01 54 87 3c a7 69 13 be
       0.13320607 0.03665865 0.016519548 -0.14395772
000210 8c cd cb 3d 15 57 85 3d c5 20 e3 3c 73 3b 69 bc
       0.09951314 0.0651075 0.027725587 -0.014235365
000220 38 48 9a 3d 1d f8 8d 3d 5f 59 83 3d 33 84 53 bd
       0.07533306 0.069320895 0.064135306 -0.051639747
000230 9b 44 29 3e 52 4f 18 bc 83 80 d8 bd 09 3f 3b 39
       0.16530077 -0.009296255 -0.10571387 0.00017857192
000240 cb 2f 18 3f 8e 71 43 3e 58 0e bb b9 1f a7 3a 3e
       0.59447926 0.19086286 -0.00035678106 0.18227814
000250 34 8d 1d 3c 31 33 ea 3c 35 43 52 3e 44 92 02 3e
       0.009616185 0.028588863 0.2053345 0.12751108
000260 67 7b 85 3d 30 f8 20 bd 54 b4 c2 3d 9d c0 86 bc
       0.06517678 -0.03929919 0.09507051 -0.016449267
000270 8a 02 5e bd 18 7e bd bd f9 86 81 3d 9e 62 2c bd
       -0.05420164 -0.09252566 0.06324572 -0.042086236
000280 05 c1 e3 3d d8 fa f6 3c 73 ac 1e 3d 71 07 b4 3e
       0.111208 0.030148908 0.03873868 0.35161927
000290 84 d5 58 bd d8 05 45 bc ef 59 c5 bd 43 1b cd 3d
       -0.052938 -0.012025319 -0.09636294 0.100149654
0002a0 02 73 17 bb 0b e9 1a bd af 1d 6b bd 0c 7a 21 bd
       -0.0023109321 -0.037819903 -0.057401355 -0.039423034
0002b0 8d d8 51 bc 5c 1b 1c 3d ba d9 97 bc 40 8f 86 bc
       -0.012807977 0.03811203 -0.018536437 -0.016425729
0002c0 60 89 d5 bd 59 bc f3 bc 4b 26 a0 3d 4f e8 c5 bd
       -0.10426593 -0.029752897 0.07819804 -0.0966345
0002d0 76 86 83 bd b1 72 a5 3b 97 ac d5 bd a5 18 75 bd
       -0.06422131 0.0050490727 -0.104333095 -0.059837956
0002e0 d6 d1 87 3b 24 3a 15 3d fa a2 f1 3c 6d 8a 24 3d
       0.0041448874 0.0364324 0.029496659 0.040171076
0002f0 e9 54 43 be 21 e3 7b 39 c6 e2 86 bd 05 72 0b bd
       -0.1907536 0.00024021837 -0.06586222 -0.034044284
000300 c8 da c0 bd 5f c5 73 bd c8 63 e8 bc eb b1 f0 bc
       -0.09416729 -0.0595144 -0.028367892 -0.029381713
000310 a1 4f 0f 3e 2a e2 35 3d 4e 86 c8 bd d4 7b 85 3c
       0.1399522 0.04440514 -0.097912416 0.016294397
000320 d4 6f 2c 3e 81 44 8c bd 98 eb 21 ba c0 1f 1e bd
       0.16839534 -0.068490036 -0.0006176769 -0.038604498
000330 e8 78 61 3d 33 55 f4 3d 00 6b e4 3d 21 90 b7 bd
       0.055046946 0.11930313 0.11153221 -0.08963037
000340 c9 fa 3b 3d 12 f9 0b 3c 3e 75 36 3c df 7e dd bd
       0.045893464 0.00854327 0.011136351 -0.10815214
000350 c4 3d 2f bd a9 09 8d bd 61 64 c0 bd f9 85 ad bd
       -0.042783514 -0.06886608 -0.09394146 -0.08472819
000360 d3 fd 98 bc fa e7 27 3c 14 99 4c bd d4 29 11 3e
       -0.01867572 0.010248179 -0.049950674 0.14176112
000370 ad 7b df 3d 0a f5 0f bd 77 84 f1 bd 89 f5 4a bc
       0.10912261 -0.035145797 -0.11792844 -0.012387642
000380 87 72 cb 3b 2c f5 e4 3d 03 44 5b 3c 2c d7 07 3e
       0.006208721 0.11179575 0.0133829145 0.13265675
000390 42 5b b5 bc b2 ef bb bd 12 e7 22 3e 99 e2 4d bd
       -0.022138242 -0.09176578 0.15908459 -0.05026493
0003a0 8f 71 a5 3c f4 ec 57 bd b4 f2 14 3d 5d 73 de be
       0.02019575 -0.05271621 0.036364272 -0.4344739
0003b0 79 2e c8 bd 48 9f 1f be 49 24 6b bd 02 91 f9 bd
       -0.09774489 -0.15588105 -0.05740765 -0.12185861
0003c0 ee 84 d8 bc 75 b5 30 bd 81 82 12 bc 8b 97 20 bd
       -0.026430573 -0.0431418 -0.008942247 -0.039207023
0003d0 15 c0 bc 3d fd 4b 10 bd 7b 90 d9 bc 3a 7c 51 bd
       0.09216324 -0.035228718 -0.026558151 -0.051143862
0003e0 16 13 ee 3e ff a3 c2 3d 3d 9d 93 bd 5a 02 04 3e
       0.46498936 0.09503936 -0.07207725 0.12891522
0003f0 fb 8c 72 be 57 39 92 bc 98 99 17 ba 93 e7 21 bd
       -0.23686592 -0.017849607 -0.000578308 -0.039527487

net.2.bias f4 [36]
000000 1a 21 20 3e 23 79 bc bd ac 36 84 3e 38 eb 17 3d
       0.15637627 -0.092027925 0.2582296 0.037089556
000010 ce 40 1a 3e 39 8b f1 bc 6e bf 1f bd 49 4f 15 bd
       0.15063784 -0.029485332 -0.03900092 -0.036452565
000020 45 d0 a8 bd 6a 7e cb 3b ad bb 81 3e a1 56 8b be
       -0.08242849 0.006210138 0.25338498 -0.2721453
000030 25 8d 56 bd 71 80 b8 bd b4 84 d7 bc 34 38 af bd
       -0.0523807 -0.09008873 -0.026308395 -0.08555642
000040 7f ca 65 ba d0 66 d8 bc 41 e2 85 bc a8 66 d0 bd
       -0.0008765831 -0.026416212 -0.016343238 -0.1017583
000050 3f 98 a2 be 2b 69 74 be 9b cb 89 be 52 03 c2 be
       -0.3175678 -0.23868243 -0.2691315 -0.37893158
000060 85 6a 47 be 3e 24 16 be dc 36 5d be 8b 45 10 be
       -0.19474228 -0.14662263 -0.21602958 -0.14089029
000070 53 d7 f8 bd 95 4b f8 bc 23 67 43 3b df 71 77 3d
       -0.12150445 -0.030309478 0.0029816113 0.06041133
000080 0d 61 11 bd 77 a1 1b bd ce 9a 84 bd de 84 4f bd
       -0.035492945 -0.03799578 -0.06474839 -0.05066382
