models/gan_class_8.pth (torch, 16261 bytes, 4 tensors)

net.0.weight f4 [64, 16]
0	0xbd836c48	-0.064171374
1	0xbe0955d5	-0.13411649
2	0x3d853cb7	0.06505721
3	0x3e45cacf	0.19315647
4	0x3d03f30e	0.032214217
5	0x3d5eb23b	0.054369193
6	0x3e6f4ad1	0.23368384
7	0x3dae9793	0.08525004
8	0x3e28d573	0.16487674
9	0x3e38dbae	0.18052551
10	0xbd88bb2d	-0.06676326
11	0xbc2157e8	-0.009847619
12	0xbd44b5d3	-0.048024964
13	0xbe59c2d4	-0.21265727
14	0xbe2ce216	-0.1688312
15	0x3e0d2889	0.13784994
16	0xbd8f1960	-0.06987262
17	0x3ba8cb0d	0.0051511587
18	0xbc8cb44b	-0.017175814
19	0x3d898d63	0.067164205
20	0xbc8f8004	-0.017517097
21	0x3e0ef725	0.13961466
22	0xbe2b8839	-0.16751184
23	0xbc963c39	-0.018339263
24	0xbe7d1aae	-0.24717209
25	0x3e6ab23b	0.22919552
26	0x3e3c4d67	0.18388902
27	0x3e2cfb3d	0.16892715
28	0x3e354968	0.17703784
29	0xbe4f87eb	-0.20266692
30	0x3e1a434e	0.15064737
31	0xbe5c7947	-0.21530639
32	0x3d5bfd2c	0.05370824
33	0xbdee06db	-0.11622401
34	0x3c4420c9	0.011970707
35	0xbc038ad8	-0.008028708
36	0x3e2587a8	0.1616503
37	0x3e105e13	0.14098386
38	0x3deb8a69	0.11501009
39	0x3d09222d	0.03347986
40	0x3deead75	0.11654178
41	0x3dda0e3e	0.10647248
42	0x3d64f62c	0.05589883
43	0x3dd5b2ec	0.10434517
44	0xbdc08f87	-0.09402376
45	0xbe4687cc	-0.1938774
46	0xbd2992d2	-0.041399784
47	0x3e4a650e	0.19765112
48	0x3e56e818	0.20986974
49	0x3e05e1e9	0.13074459
50	0xbe0f50a3	-0.13995604
51	0xbc29c3fa	-0.010361666
52	0xbe28ab52	-0.16471604
53	0x3e407501	0.18794633
54	0xbe001978	-0.12509716
55	0xbdd62371	-0.10455979
56	0x3e18b4bb	0.14912693
57	0xbe26a9f3	-0.16275768
58	0xbdccb455	-0.09995333
59	0xbdf98e5c	-0.12185356
60	0x3dd3258b	0.10309895
61	0x3dc5a127	0.09649878
62	0x3e098ee7	0.13433419
63	0xbd50c654	-0.05097039
64	0x3e36eae4	0.17863041
65	0xbe76cec5	-0.24102314
66	0xbe13a6ac	-0.14419049
67	0xbe4ce8cf	-0.20010684
68	0x3e010734	0.12600404
69	0x3e09bc00	0.13450623
70	0xbe16cf21	-0.14727451
71	0xbe58f2f0	-0.21186423
72	0xbe2bfe3d	-0.16796203
73	0x3d969410	0.073524594
74	0xbe5cd9a9	-0.21567406
75	0x3d6d34c0	0.057911634
76	0xbd711b37	-0.058863845
77	0xbe0e3243	-0.13886361
78	0xbdea4e4b	-0.114407144
79	0x3dded7d7	0.10881012
80	0xbe0b311a	-0.1359295
81	0x3e30d71b	0.17269556
82	0x3d477d2f	0.04870337
83	0xbe765826	-0.24057063
84	0x3e5f12f1	0.2178457
85	0x3db08273	0.08618631
86	0xbd2b6b71	-0.04185051
87	0xbe19edc0	-0.150321
88	0xbc6621c4	-0.014046136
89	0xbd0856a9	-0.03328577
90	0x3e744ea1	0.2385812
91	0xbd3b6bbd	-0.045757044
92	0xbe65a3b6	-0.22425732
93	0x3b3c112f	0.0028696766
94	0xbe2f0f6e	-0.1709573
95	0x3e16cd79	0.14726819
96	0xbe62b8ac	-0.22140759
97	0xbe3c103b	-0.18365566
98	0x3e47ea8a	0.19523063
99	0x3e1e80cc	0.1547882
100	0x3da7b549	0.08188874
101	0x3c66d5a2	0.01408902
102	0x3c816a3c	0.015797727
103	0x3e49d9b4	0.19711953
104	0x3e241a63	0.1602569
105	0xbe197929	-0.14987625
106	0xbe3329f5	-0.17496474
107	0xbe545d61	-0.20738746
108	0xbdeb5d49	-0.11492402
109	0x3e05f19c	0.13080448
110	0x3e5fa87f	0.2184162
111	0xbe6431f7	-0.22284685
112	0xbe70c548	-0.23512757
113	0xbe5efc9c	-0.2177605
114	0x3d11a2a9	0.035555515
115	0x3c0c373d	0.008558092
116	0xbe569c30	-0.20958018
117	0xbd68c533	-0.05682869
118	0xbd1b6c93	-0.03794534
119	0xbd1e85c8	-0.038701802
120	0x3dcd0da5	0.10012368
121	0x3d43462d	0.047674347
122	0xbd975bf9	-0.07390589
123	0xbd40c914	-0.047066763
124	0xbdb2c303	-0.08728602
125	0xbe34786d	-0.17624064
126	0x3e378b98	0.17924345
127	0x3d1b9146	0.03798034
128	0x3e6d86b3	0.23195915
129	0xbddc1b32	-0.107473746
130	0xbd271ce4	-0.040799037
131	0x3e521893	0.20517187
132	0xbdcf24d6	-0.10114448
133	0xbbbf4a55	-0.0058377185
134	0x3cd03f7f	0.025420902
135	0xbd499cf8	-0.049221963
136	0x3e5d03ef	0.21583532
137	0xbdf1c727	-0.118055634
138	0x3df6ed36	0.12056963
139	0xbde4e79a	-0.11176987
140	0x3dd5e365	0.10443763
141	0xba260163	-0.0006332604
142	0xbe607e49	-0.21923174
143	0xbd2aff17	-0.04174718
144	0x3d09b543	0.03362013
145	0x3e1e485e	0.15457293
146	0xbd9a3cd4	-0.07531133
147	0xbe39dcba	-0.18150607
148	0x3ab110fa	0.0013509088
149	0xbe600f68	-0.21880877
150	0x3dba9bfc	0.09111783
151	0x3ccde6f3	0.02513454
152	0x3e1e0b60	0.15434027
153	0x3e76d583	0.24104886
154	0x3de45607	0.11149221
155	0xbe0219ca	-0.1270515
156	0x3d62040a	0.055179633
157	0xbe184471	-0.14869858
158	0x3db795b8	0.089641035
159	0xbe1fa690	-0.15590882
160	0xbe7e2b79	-0.24821271
161	0xbe79f818	-0.24411047
162	0x3e4283b8	0.18995559
163	0x3e3cc29d	0.18433614
164	0xbe788184	-0.24268156
165	0xbb692a61	-0.0035578238
166	0xbd3c9848	-0.046043664
167	0xbe0f6099	-0.14001693
168	0x3c518f9c	0.012790587
169	0x3e2ba6c5	0.16762836
170	0x3e4d35ec	0.20040101
171	0xbcea3e45	-0.028594146
172	0x3df4a45a	0.1194541
173	0xbc91ff43	-0.017821914
174	0x3c4454ad	0.011983079
175	0x3ddb3037	0.107025556
176	0xbe542712	-0.20718029
177	0x3e3a4a78	0.1819247
178	0xbe1a102e	-0.15045235
179	0x3aaaa5b3	0.0013019353
180	0x3e2a757d	0.1664638
181	0xbe563b5a	-0.20921078
182	0xbda82240	-0.08209658
183	0x3d8e1ec1	0.069394596
184	0xbe3d7299	-0.18500747
185	0x3cc0b55b	0.023523977
186	0x3dfe6031	0.12420691
187	0xbe7b1267	-0.24518739
188	0xbdfbe9f6	-0.12300484
189	0xbe735a37	-0.23764883
190	0xbdb70ae4	-0.08937624
191	0x3e2435c4	0.16036135
192	0x3e5f6d6c	0.21819085
193	0xbe198efc	-0.1499595
194	0x3cd00843	0.025394564
195	0x3dc41ff5	0.09576408
196	0x3c94c70b	0.018161317
197	0xbd86b884	-0.06578162
198	0xbe26c606	-0.16286477
199	0xbe06fd37	-0.13182531
200	0x3de3b949	0.11119325
201	0x3c155d5b	0.009116496
202	0x3e3246a8	0.17409766
203	0x3da7c6da	0.08192225
204	0x3d9d3318	0.07675761
205	0xbca4ddb5	-0.02012525
206	0x3dc555e4	0.09635523
207	0xbe1298c4	-0.14316088
208	0xbe427818	-0.18991125
209	0x3e084136	0.13306126
210	0x3d34d07a	0.04414413
211	0xbe26ffba	-0.1630849
212	0x3cc66ccc	0.0242218
213	0x3e1877f7	0.14889513
214	0x3d1fc637	0.03900739
215	0xbd6a5f0b	-0.057219546
216	0x3e2ec8e9	0.17068829
217	0x3e1e75b6	0.1547459
218	0x3dc9acb8	0.098473966
219	0x3e3596c7	0.17733298
220	0x3e1bf6ef	0.15230916
221	0xbd1ce79f	-0.03830683
222	0xbd2da74f	-0.042395886
223	0xbdd1ee96	-0.10250585
224	0xbe5ff5e0	-0.21871138
225	0x3e49959f	0.19685982
226	0x3d7b93de	0.061420314
227	0xbd612bf5	-0.05497356
228	0x3e077e84	0.13231856
229	0xbe4a086b	-0.19729774
230	0x3d9a2a47	0.07527595
231	0x3e378c4d	0.17924614
232	0xbe0df604	-0.13863379
233	0x3dbb199c	0.09135744
234	0x3e152b70	0.14567351
235	0xbce155e4	-0.027506776
236	0xbd905449	-0.07047326
237	0xbe66d4e2	-0.22542146
238	0x3e6d7103	0.23187642
239	0x3d1b6353	0.03793652
240	0x3e51f688	0.205042
241	0xbdde4676	-0.10853283
242	0x3e0fee6c	0.14055794
243	0x3e76c6a3	0.24099211
244	0x3dab4592	0.08362879
245	0xbdff48d1	-0.124650605
246	0x3e08e052	0.13366821
247	0x3da062c0	0.07831335
248	0xbe2b73f8	-0.16743457
249	0x3e52d387	0.20588504
250	0xbd85cdbe	-0.06533383
251	0x3c943549	0.018091815
252	0x3df74021	0.120727785
253	0xbe0a081e	-0.13479659
254	0xbe34fd9a	-0.17674866
255	0x3e4c8036	0.19970784

net.0.bias f4 [64]
0	0xbe0ec306	-0.13941583
1	0xbe4b20ef	-0.19836782
2	0xbdb113e2	-0.086463705
3	0xbe534172	-0.20630434
4	0x3dca7ef5	0.098874964
5	0xbd9552e4	-0.07291201
6	0xbd8f2580	-0.069895744
7	0xbe18d8a1	-0.14926387
8	0x3e726dfb	0.23674767
9	0xbe7f0bb7	-0.24906813
10	0x3d3f9ec0	0.046782255
11	0x3dbebb87	0.09313112
12	0x3e26fafb	0.16306679
13	0xbe6404a5	-0.22267397
14	0x3e1108ba	0.14163485
15	0x3cb7c949	0.022434847
16	0xbc117150	-0.008877113
17	0x3c9c3d99	0.01907234
18	0xbcdbd06a	-0.026832778
19	0x3d2352fd	0.039874066
20	0xbe453a50	-0.19260526
21	0x3ccd6c2e	0.025075998
22	0x3dbee1e5	0.0932043
23	0xbda51b6d	-0.08061872
24	0xbe196ef7	-0.14983736
25	0xbd99fc7d	-0.075188614
26	0x3e2db720	0.16964388
27	0xbd93bc4e	-0.07213651
28	0xbe2414e1	-0.1602359
29	0xbe80771f	-0.25090882
30	0x3e52463a	0.20534602
31	0xbd5f3610	-0.054494917
32	0xbe070e8d	-0.13189144
33	0xbe77904c	-0.24176139
34	0xbe6e2c2e	-0.2325904
35	0x3def4ec5	0.11684946
36	0x3e42a02f	0.19006418
37	0x3e4da369	0.20081867
38	0x3cc4d8a2	0.02402908
39	0x3c5c4601	0.013444425
40	0x3d8683ad	0.06568084
41	0x3e37cfe9	0.17950405
42	0xbe65511d	-0.22394224
43	0x3dd8c3d7	0.105842285
44	0xbe2a1fe4	-0.16613728
45	0x3df53a0a	0.11973961
46	0xbcad7c72	-0.021177504
47	0x3d22a732	0.03971023
48	0xbe0599c8	-0.13046944
49	0xbe3a374e	-0.1818516
50	0x3e2650ab	0.1624171
51	0xbd0e653b	-0.03476451
52	0x3e72effc	0.2372436
53	0xbde41651	-0.11137069
54	0xbbb2ea33	-0.0054600476
55	0x3df77a8c	0.12083921
56	0xbe00195c	-0.12509674
57	0x3d3a846d	0.045536447
58	0x3da865a9	0.08222515
59	0xbd1ee8f2	-0.038796373
60	0xbe648761	-0.22317268
61	0xbcaac1b0	-0.02084431
62	0x3e50c99c	0.20389408
63	0xbd3b6665	-0.045751948

net.2.weight f4 [36, 64]
0	0xbceb6af6	-0.028737526
1	0xbd1516de	-0.03639876
2	0x3bf3f36e	0.0074447906
3	0xbded68d1	-0.11592258
4	0x3d926e8f	0.07149994
5	0xbd9932bc	-0.0748038
6	0x3df10490	0.11768448
7	0xbca87855	-0.020565191
8	0x3d8abd04	0.06774333
9	0x3c9c629c	0.01908999
10	0x3cb6ad8f	0.022299556
11	0x3d9380fa	0.07202335
12	0x3c464bc5	0.012103026
13	0xbdfc7a9c	-0.123280734
14	0xbd98256e	-0.07429014
15	0xbdd18145	-0.10229734
16	0xbdbf32af	-0.09335839
17	0x3dd18f62	0.10232426
18	0x3d0f5035	0.0349886
19	0x3c2028fc	0.009775396
20	0x3d94e0d6	0.072694466
21	0x3df17678	0.11790174
22	0x3a084e74	0.00051996787
23	0x3d2a1bbd	0.04153036
24	0x3dd85c87	0.10564523
25	0xbcda8dd0	-0.02667895
26	0x3d8d3eb6	0.06896727
27	0xbd9c8e51	-0.07644332
28	0xbaa7b61a	-0.0012795359
29	0xbd09a3f7	-0.033603635
30	0x3d8b40ad	0.06799445
31	0x3d987e88	0.07446009
32	0x3cc6bb82	0.024259333
33	0xbd090abd	-0.033457506
34	0xbc2044c0	-0.009782016
35	0x3d333272	0.04374928
36	0x3dc8be69	0.09801943
37	0x3c017f7e	0.007903932
38	0xbdf285b4	-0.11841908
39	0xbd8b234c	-0.06793842
40	0x3daf16ac	0.08549246
41	0xbdd6baf5	-0.10484878
42	0x3c57e7b5	0.013177802
43	0x3dccdbf7	0.100028925
44	0xbb6d76b7	-0.003623409
45	0xbd92cbcb	-0.07167777
46	0xbd6a55be	-0.057210676
47	0xbd6ef1e5	-0.058336157
48	0xbd98c249	-0.07458932
49	0x3d10fad2	0.03539545
50	0xbd258f50	-0.040419877
51	0xbc9d8ff6	-0.019233685
52	0x3c266e81	0.010158182
53	0xbd947271	-0.072483905
54	0x3db33c2d	0.08751712
55	0xbd52bf32	-0.05145187
56	0xbcd59a55	-0.026074568
57	0xbc335a3d	-0.010946807
58	0x3b3f4898	0.0029187556
59	0xbdb9bdd9	-0.09069414
60	0xbc7fdf38	-0.015617184
61	0x3c7bcc2e	0.015368504
62	0xbd2ad255	-0.041704495
63	0x3cb05405	0.021524439
64	0xbbd24712	-0.0064171636
65	0xbdb52a94	-0.08846012
66	0xbdf8dddf	-0.121516936
67	0xbdd4c5c7	-0.103892855
68	0xbd5ace6a	-0.053419508
69	0x3d85e9a3	0.06538703
70	0xbd9e6f80	-0.07736111
71	0x3d9cd020	0.07656884
72	0xbda5c9b4	-0.080951124
73	0xbce0a16b	-0.02742072
74	0xbbdea546	-0.0067946045
75	0x3c1f38d0	0.009718135
76	0xbd00210f	-0.031281527
77	0xbdd527e6	-0.10408001
78	0x3d998990	0.07496941
79	0xbdd5867d	-0.10426042
80	0x3c827f0d	0.015929723
81	0xbde3fb20	-0.11131883
82	0xbdf49bf0	-0.11943805
83	0xbd819444	-0.063271075
84	0x3d79382d	0.06084459
85	0xbd51edd5	-0.051252205
86	0xbaae43b2	-0.0013295321
87	0x3d2680d2	0.040650196
88	0x3d8f6d4f	0.07003271
89	0xbbca6689	-0.006176774
90	0xbdccb76a	-0.09995921
91	0x3d88504c	0.066559404
92	0xbd791896	-0.060814463
93	0x3d919309	0.07108123
94	0x3db12375	0.08649341
95	0x3df395d2	0.1189381
96	0xbc08978e	-0.008336915
97	0xbd9d1576	-0.07670109
98	0x3dc73496	0.09726827
99	0xbc295948	-0.010336228
100	0x3bb1775a	0.005415839
101	0x3dbde5fa	0.0927238
102	0xbdadd5d9	-0.08488054
103	0xbde02ce4	-0.10946062
104	0x3db267ed	0.087112285
105	0xbda4f79a	-0.08055039
106	0xbdeeb675	-0.11655895
107	0x3cace5e8	0.021105722
108	0xbd9d7418	-0.07688159
109	0xbdeb3a14	-0.11485687
110	0xbd42245b	-0.047397953
111	0x3daa63e2	0.083198324
112	0x3d3e7f72	0.04650826
113	0xbdc5099d	-0.09620974
114	0x3d0c04e9	0.03418437
115	0xbc35a4a6	-0.0110866185
116	0x3d3ddb4b	0.046351712
117	0xbd10ce83	-0.035353195
118	0x3d01624d	0.031587888
119	0xbbee6d75	-0.007276232
120	0x3d48389e	0.04888212
121	0xbd0acf10	-0.033888876
122	0xbddf680b	-0.109085165
123	0xbdba7275	-0.09103862
124	0x3d278b49	0.040904317
125	0x3da8a0a6	0.08233766
126	0x3c519ba1	0.0127934525
127	0x3d3b6de3	0.045759093
128	0x3d69d898	0.057091326
129	0xbd8027dd	-0.06257603
130	0xbd81e3b5	-0.0634226
131	0x3dcfc4ea	0.1014498
132	0xbc4bc12f	-0.012436195
133	0x3cca6bcc	0.024709605
134	0x3dbd9c88	0.092583716
135	0xbd4d11bb	-0.050065737
136	0xbd978b42	-0.07399608
137	0xbdf5c308	-0.1200009
138	0x3df0ae37	0.11751979
139	0xbd5ae883	-0.053444397
140	0x3aa7116d	0.0012746282
141	0x3cba2af5	0.022725562
142	0xbcf31df1	-0.029677363
143	0x3dc03053	0.09384217
144	0x3c9d7773	0.019221997
145	0x3da5fdf6	0.0810508
146	0x3d6700c1	0.056397203
147	0x3da975cd	0.08274422
148	0x3c599863	0.013280961
149	0xbdd278f2	-0.10276975
150	0xbdd1f3fc	-0.102516145
151	0xbdb8aa24	-0.09016827
152	0x3cf42d61	0.029806795
153	0xbd0e909f	-0.03480589
154	0xbbb595a0	-0.0055415183
155	0xbd17cf2c	-0.03706281
156	0x3d639333	0.055560302
157	0x3d5b3f76	0.053527318
158	0x3cc845ca	0.02444734
159	0x3d55a0bf	0.052155253
160	0xbd870dad	-0.06594405
161	0x3b11efd4	0.0022268193
162	0x3ddcde1c	0.107845515
163	0x3d7d3eda	0.061827518
164	0xbce6af8e	-0.028159883
165	0xbc42b7d8	-0.011884652
166	0xbdd6971a	-0.10478039
167	0xbd8cc3d4	-0.06873289
168	0xbd896ff7	-0.06710809
169	0x3c0d8789	0.008638271
170	0xbdc33415	-0.09531418
171	0x3dbfed8f	0.093714826
172	0xbdf60ba7	-0.12013941
173	0x3bc17cf5	0.0059047886
174	0xbd9022c3	-0.0703788
175	0x3df1d5da	0.11808367
176	0xbd21c276	-0.039492093
177	0x3dd58958	0.10426587
178	0x3df42188	0.11920458
179	0xbdd6dbb0	-0.10491121
180	0x3d2bc585	0.041936416
181	0x3dfaf7ad	0.12254272
182	0xbd86b296	-0.06577031
183	0x3c6e28b7	0.014536074
184	0x3d815d42	0.06316616
185	0x3c326321	0.010887892
186	0x3de3a932	0.11116256
187	0x3de19246	0.110142276
188	0xbdc2ec26	-0.09517698
189	0xbb9facfb	-0.004872916
190	0xbd89b441	-0.06723834
191	0x3d402b65	0.046916384
192	0x3d82da15	0.06389252
193	0x3df7a08a	0.12091167
194	0xbd90466b	-0.07044681
195	0x3d88ed05	0.06685833
196	0x3c96b367	0.018396093
197	0x3db67c64	0.089104444
198	0xbca727ae	-0.020404663
199	0x3d06b3ec	0.03288643
200	0x3c69ab8f	0.014262094
201	0xbd1cd337	-0.038287368
202	0xbd183c4f	-0.03716689
203	0x3bc7478d	0.0060815276
204	0x3d95aa2e	0.0730785
205	0x3d166cb0	0.036724746
206	0xbdee3678	-0.11631483
207	0xbce4ae5f	-0.027915178
208	0xbddd4d96	-0.10805814
209	0x3d524786	0.05133774
210	0xbdfdaf0a	-0.12386902
211	0xbcd52c3d	-0.026022071
212	0x3c2aa14c	0.010414433
213	0x3d9b3762	0.07578923
214	0xbe006ce4	-0.12541538
215	0xbd225150	-0.039628327
216	0xbda7695f	-0.08174395
217	0xbda32f6e	-0.07968031
218	0xbdf999ac	-0.12187514
219	0x3c5556a2	0.013021143
220	0xbd5e6a19	-0.0543004
221	0xbd5d88a5	-0.054085393
222	0xbce0bcbd	-0.027433747
223	0xbcd24db0	-0.02567181
224	0xbdbfd1e9	-0.09366209
225	0xbda8f7a5	-0.082503594
226	0xbde995b7	-0.11405509
227	0x3dcd49e1	0.10023857
228	0xbd376f37	-0.044783797
229	0xbd8c458a	-0.06849201
230	0xbdc5fafb	-0.09667011
231	0x3b722e39	0.003695382
232	0xbd62d9f1	-0.055383626
233	0xbcbc3d28	-0.02297838
234	0xbcad68e1	-0.021168174
235	0xbd9a21ad	-0.075259544
236	0x3da5e51e	0.08100341
237	0x3db5c482	0.088753715
238	0x3cce3e7b	0.025176277
239	0xbdb2933b	-0.08719488
240	0x3d6f0495	0.05835398
241	0x3dc0f2b3	0.09421291
242	0xbd3a2ac0	-0.045450926
243	0xbdadff7a	-0.08495994
244	0xbd1dca4e	-0.03852301
245	0xbdd399b0	-0.10332048
246	0x3d557a39	0.052118514
247	0x3cd86315	0.026414433
248	0x3db77a1d	0.08958838
249	0xbd9a72cd	-0.07541428
250	0xbd157ce4	-0.036496058
251	0x3da1485b	0.07875129
252	0xbdb4da4d	-0.088307
253	0x3d8017ec	0.06254563
254	0x3d848781	0.06471158
255	0xbdeba67f	-0.11506366

net.2.bias f4 [36]
0	0x3de590c6	0.11209254
1	0x3dd45f5e	0.10369752
2	0x3d54c40b	0.051944774
3	0x3ca93bbf	0.020658372
4	0xbd8ba038	-0.06817669
5	0xbdab5599	-0.08365936
6	0xbd7283ce	-0.05920773
7	0x3d9dabdd	0.07698796
8	0x3dedbd31	0.11608351
9	0x3d09fa5d	0.03368603
10	0x3dfbef21	0.123014696
11	0x3c8512b9	0.01624428
12	0xbdb7af1c	-0.08968946
13	0x3dc4368e	0.09580718
14	0xbd3f7d70	-0.046750486
15	0x3cf34115	0.02969412
16	0x3d498c51	0.04920608
17	0x3df87ed5	0.12133566
18	0xbd28587f	-0.04110002
19	0x3de60f55	0.11233393
20	0x3d832184	0.06402877
21	0xbc1717d3	-0.009221989
22	0xbdc62bec	-0.09676346
23	0x3db721f2	0.089420214
24	0x3c559cdc	0.0130378865
25	0x3c2c5a63	0.010519597
26	0x3df5ed83	0.120081924
27	0xbd2df60a	-0.04247097
28	0x3c765f5b	0.015037383
29	0x3d83c5d9	0.06434221
30	0xbd25e606	-0.04050257
31	0xbd36c8ec	-0.044625208
32	0x3c0f5776	0.00874888
33	0x3ca89e81	0.020583393
34	0x3d884a9e	0.06654857
35	0x3dee010f	0.11621296
