models/gan_class_9.pth (torch, 16261 bytes, 4 tensors)

net.0.weight f4 [64, 16]
0.08306512 0.01974559 0.1113781 0.0475263 0.013305843 -0.19378084 0.14482085 0.08100184
0.10820077 -0.1586175 -0.09871559 0.036920402 0.023505762 0.14637558 0.17737265 -0.23979811
-0.049582284 0.18753812 0.20326233 0.07412031 0.2279295 0.02707706 -0.021574514 0.24215657
0.12397618 0.042672664 0.07433227 0.17899257 0.051465254 0.11204823 0.22219278 0.21033604
-0.09515536 -0.106417045 0.12164358 -0.15685129 -0.14793722 0.13915895 -0.10377798 0.1065524
-0.06443501 0.112068325 0.13782707 -0.23804367 -0.08409039 -0.118151955 0.24555609 0.17342173
-0.04185322 0.2137966 -0.20039827 0.049260836 0.1766803 -0.050650153 0.05754892 0.07817405
0.17539954 -0.17281885 0.21198653 0.11525825 -0.016971944 -0.018352604 0.16127968 0.20767327
-0.20389469 0.019067744 0.08782413 0.06923246 -0.012939224 -0.022506457 0.0013898009 0.16339894
0.22381094 -0.060285427 0.07611373 -0.073585294 -0.22422098 0.073844515 0.1299557 -0.12751456
0.23780671 0.15128359 -0.19078925 -0.16930716 -0.2094181 -0.026521226 0.07107225 -0.24764407
0.038331833 -0.20836386 0.08422012 -0.02701328 -0.23325567 -0.07526059 0.14830412 0.12146209
0.16511047 0.04316146 -0.21403025 0.23948972 0.067497954 -0.002265902 0.23544854 -0.13908511
0.045258917 -0.15792601 0.24634193 -0.19139169 0.16891682 0.14082102 -0.028903482 -0.021774845
-0.2386379 -0.1627069 0.14587851 0.02515967 -0.03518721 -0.057995714 0.22178577 -0.14786866
0.15032613 -0.2327532 -0.045189988 -0.049875464 0.148975 -0.026901452 -0.18316007 0.10117463
-0.090453915 -0.03377363 -0.21626776 0.1405968 -0.08441153 -0.026373709 0.19583108 0.11603209
0.007885235 -0.24539155 0.008787761 0.0068154666 0.030966 0.057182245 0.08457588 -0.13664581
-0.06937194 0.18524107 -0.12414276 0.22715662 0.06147089 0.23762937 -0.123368494 -0.11789629
-0.2414786 0.093210116 -0.06777478 -0.095316686 0.022045089 0.022638286 0.20131367 -0.10598499
0.018268742 -0.0071141566 0.18378748 -0.17350866 -0.1439069 0.053541813 -0.006655368 0.13408984
-0.13767526 0.114575215 -0.24742804 -0.14116107 -0.11791544 -0.031179028 -0.02535546 0.13231933
-0.15082155 0.10123773 -0.06615185 -0.2057634 0.07847523 0.12432266 0.060335133 0.23566625
0.15429603 0.05370495 0.1075687 0.19595277 0.12926412 -0.0069657336 0.23577681 0.014055214
-0.0376158 0.2250554 0.06195044 0.09313165 -0.1113438 0.18990794 0.14183523 0.14362665
0.09488635 -0.19377911 -0.21907413 0.02870945 -0.080741055 -0.070498325 0.038147226 -0.038366284
-0.10115724 -0.089978784 -0.14984906 -0.17251056 -0.07474657 0.0014896875 0.12976073 -0.1427743
-0.024937429 -0.14027394 0.22376247 0.05084269 0.16077167 0.038300976 -0.028320359 0.02185244
-0.10026081 0.16366556 -0.09213158 -0.06558991 0.16332309 0.20504242 0.21539892 -0.11017617
-0.20647755 0.0017482268 0.050122414 0.19830137 -0.01685874 0.12662283 -0.081059776 0.0048712506
-0.0744005 -0.13943392 -0.1484504 -0.07450662 -0.014491644 0.04684447 0.026892597 0.04171369
-0.050057463 -0.075388275 0.018307256 -0.22497042 0.20113091 0.13667642 0.20479503 0.034432594
00000000: 0c1e aa3d 81c1 a13c 341a e43d f0aa 423d
00000010: c000 5a3c 7c6e 46be eb4b 143e 4be4 a53d
00000020: 5e98 dd3d a06c 22be 662b cabd d939 173d
00000030: 288f c03c 7be3 153e 2da1 353e a38d 75be
00000040: cb16 4bbd fe09 403e 0024 503e 64cc 973d
00000050: 5a66 693e b6d0 dd3c 09bd b0bc e4f7 773e
00000060: 39e7 fd3d 88c9 2e3d 843b 983d d449 373e
00000070: 3bcd 523d 8b79 e53d 8186 633e 5562 573e
00000080: d0e0 c2bd 2ef1 d9bd 4520 f93d a09d 20be
00000090: db7c 17be af7f 0e3e 8d89 d4bd 2538 da3d
000000a0: 81f6 83bd 1484 e53d 8a22 0d3e b8c1 73be
000000b0: 9537 acbd a7f9 f1bd 0e73 7b3e 7795 313e
000000c0: 486e 2bbd 7fed 5a3e 3435 4dbe bbc5 493d
000000d0: aeeb 343e 8976 4fbd 6bb8 6b3d b719 a03d
000000e0: f09b 333e 6df7 30be ff12 593e 840c ec3d
000000f0: bf08 8bbc 3358 96bc 8026 253e 4da8 543e
00000100: c5c9 50be f533 9c3c 23dd b33d bfc9 8d3d
00000110: 0aff 53bc 765f b8bc fb29 b63a 0d52 273e
00000120: b22e 653e daed 76bd 84e1 9b3d e3b3 96bd
00000130: 2f9a 65be cb3b 973d 1b13 053e 2d93 02be
00000140: 9a83 733e 16ea 1a3e 425e 43be db5e 2dbe
00000150: b371 56be 0b43 d9bc 548e 913d 6896 7dbe
00000160: d701 1d3d 565d 55be 997b ac3d f44a ddbc
00000170: 93da 6ebe 3922 9abd 09dd 173e 1ec1 f83d
00000180: b812 293e 12ca 303d bf2a 5bbe cb3c 753e
00000190: 5e3c 8a3d 877f 14bb 6c19 713e 546c 0ebe
000001a0: 6a61 393d 5bb7 21be 0f41 7c3e 2ffc 43be
000001b0: 88f8 2c3e 6333 103e ffc6 ecbc 2961 b2bc
000001c0: 7e5d 74be a39c 26be 2d61 153e a71b ce3c
000001d0: 7720 10bd ea8c 6dbd cf1b 633e e26a 17be
000001e0: 18ef 193e db56 6ebe 2319 39bd 374a 4cbd
000001f0: e78c 183e 6f60 dcbc 508e 3bbe a534 cf3d
00000200: e73f b9bd 3856 0abd 4c75 5dbe 9cf8 0f3e
00000210: f4df acbd ad0d d8bc f187 483e 3ba2 ed3d
00000220: 1331 013c ec47 7bbe 8bfa 0f3c 4754 df3b
00000230: 69ac fd3c ee37 6a3d 1e36 ad3d e1ec 0bbe
00000240: e012 8ebd d6af 3d3e 8f3e febd bf9b 683e
00000250: e6c8 7b3d 1d55 733e 9fa8 fcbd 9c73 f1bd
00000260: 2b46 77be f2e4 be3d 81cd 8abd 6535 c3bd
00000270: e797 b43c ed73 b93c 2c25 4e3e a90e d9bd
00000280: 54a8 953c df1d e9bb c932 3c3e 41ac 31be
00000290: 555c 13be a94e 5b3d 4615 dabb d94e 093e
000002a0: befa 0cbe 69a6 ea3d c75d 7dbe 878c 10be
000002b0: a67d f1bd 296b ffbc 41b6 cfbc b87e 073e
000002c0: f770 1abe ba55 cf3d 9f7a 87bd a4b3 52be
000002d0: 9fb7 a03d e19c fe3d f921 773d 7e52 713e
000002e0: c7ff 1d3e b9f9 5b3d fb4c dc3d d8a7 483e
000002f0: d05d 043e cf40 e4bb 7a6f 713e d747 663c
00000300: 0613 1abd ec74 663e bfbf 7d3d cebb be3d
00000310: 3808 e4bd 3a77 423e 413d 113e dd12 133e
00000320: c653 c23d 086e 46be f854 60be 1530 eb3c
00000330: 915b a5bd 6d61 90bd 4440 1c3d f725 1dbd
00000340: 872b cfbd cc46 b8bd 0872 19be 9ca6 30be
00000350: bb14 99bd 9e41 c33a ffdf 043e 6d33 12be
00000360: 9449 ccbc f9a3 0fbe fd21 653e 6d40 503d
00000370: 54a1 243e 7ce1 1c3d 1900 e8bc e303 b33c
00000380: 8a55 cdbd f297 273e 7baf bcbd 0154 86bd
00000390: 2b3e 273e a4f6 513e 8991 5c3e 0ba4 e1bd
000003a0: da6e 53be c224 e53a 294d 4d3d 840f 4b3e
000003b0: 571b 8abc 6aa9 013e ab02 a6bd 039f 9f3b
000003c0: 4a5f 98bd c4c7 0ebe 6203 18be ed96 98bd
000003d0: 5c6e 6dbc fddf 3f3d dd4d dc3c f9db 2a3d
000003e0: 0e09 4dbd 2b65 9abd 19f9 953c a55e 66be
000003f0: 43f5 4d3e e7f4 0b3e cab5 513e 3109 0d3d

net.0.bias f4 [64]
0.017841306 -0.12728113 -0.15612862 -0.23255219 -0.14028896 -0.24308698 -0.24055782 0.20373549
0.21997419 0.035003763 -0.24188305 -0.21554878 -0.038625173 -0.088112466 0.2354693 -0.1550768
0.24392252 0.16970891 0.1019435 -0.16650298 -0.13149445 0.03702601 0.102550186 -0.013850967
0.12159934 -0.14462678 -0.07682073 -0.13751319 -0.03387796 -0.20908837 0.050241627 0.008643686
-0.0077768234 -0.2206911 0.008683862 0.18733369 -0.12724467 -0.09503795 0.13112833 0.20678836
-0.009069305 -0.02842597 -0.19485603 -0.124425165 0.10805538 0.07062891 0.1893432 0.11837277
0.087225124 0.20337936 0.0646811 -0.028725712 -0.18362935 -0.049756344 0.10572961 0.14895466
0.042421285 -0.09810628 0.029116418 -0.13000864 0.16710883 -0.18693326 -0.03997167 -0.08398587
00000000: ee27 923c fc55 02be 2ee0 1fbe 2922 6ebe
00000010: e9a7 0fbe cbeb 78be ca54 76be 09a0 503e
00000020: ea40 613e 1b60 0f3d 31b0 77be d2b8 5cbe
00000030: 6e35 1ebd 4f74 b4bd dd1e 713e 74cc 1ebe
00000040: d3c6 793e 2cc8 2d3e c1c7 d03d c27f 2abe
00000050: 7ba6 06be 96a8 173d d505 d23d 2bef 62bc
00000060: 1309 f93d 0b19 14be 3054 9dbd 42d0 0cbe
00000070: 9ec3 0abd 431b 56be 2aca 4d3d 3f9e 0d3c
00000080: b9d4 febb d9fc 61be c246 0e3c 67d4 3f3e
00000090: 6d4c 02be 42a3 c2bd 8146 063e 54c0 533e
000000a0: 6c97 14bc 94dd e8bc 5788 47be 9fd2 febd
000000b0: 244c dd3d e4a5 903d 2fe3 413e 6c6d f23d
000000c0: 16a3 b23d ae42 503e 8677 843d 2f52 ebbc
000000d0: 5509 3cbe 4fcd 4bbd c488 d83d 9287 183e
000000e0: f1c1 2d3d f2eb c8bd 8e85 ee3c fc20 05be
000000f0: 941e 2b3e 6f6b 3fbe 55b9 23bd c900 acbd

net.2.weight f4 [36, 64]
0.018257359 0.011068729 -0.058543894 -0.03250284 -0.08386006 0.021398641 -0.08645096 -0.016520573
0.038727585 0.013669666 -0.042375706 -0.03504391 -0.06783398 -0.027032128 -0.059456296 0.11566767
0.11861041 -0.1134527 -0.020103095 -0.10102863 -0.07437132 0.025853163 0.10527298 0.057064753
-0.013890517 -0.045236614 -0.11351351 -0.08034336 0.064100355 0.0761182 0.040993482 -0.08746187
-0.075770766 0.10698563 0.058266137 0.079322256 0.05588296 -0.008362611 0.045347326 0.10702141
-0.08468251 0.057787463 0.122155376 -0.04806914 -0.005699177 0.012038378 -0.007985884 0.026950577
-0.08996734 0.07121883 -0.047028083 0.099546105 0.032051783 0.04280888 -0.07478696 0.020054568
-0.044411298 -0.034791872 -0.05359962 0.048767492 0.09133189 -0.06888747 -0.11680316 -0.036339812
0.11598265 -0.056733333 0.11052297 -0.107637435 0.014490769 -0.059122946 -0.04030278 -0.07781552
0.052137226 0.035658717 0.06876254 0.049691424 -0.0721174 -0.027577745 -0.030057652 0.10600859
-0.09237497 -0.06716619 -0.054704342 0.1202887 -0.040255453 -0.013608845 -0.093713805 0.09764915
-0.017361436 0.12471134 0.10504699 -0.12005705 0.031745754 -0.06424901 -0.04883361 -0.03217694
-0.024546139 0.009386219 0.07572136 0.011169031 0.00894032 0.013151203 -0.07272719 -0.120768435
-0.0974625 0.105151616 0.04722956 -0.08074141 -0.008562165 -0.09655802 -0.0058481256 -0.063880235
0.04414196 -0.02811186 0.040083446 -0.11244787 -0.07131017 -0.09352286 0.11890865 0.031620055
-0.08246102 0.06896216 0.05680203 -0.070784934 -0.031734094 0.06392033 -0.062173896 -0.0026833443
0.07125507 0.029051077 0.10070706 -0.07656413 -0.12225723 -0.0037426427 0.111759365 -0.0019590098
-0.04673983 0.0012755579 0.029703988 -0.09702677 0.055589892 -0.08816891 -0.076316915 0.09556781
0.036531437 0.05901585 -0.08083353 0.110115185 0.07009308 0.032862 0.12186217 0.020847492
-0.06822869 -0.02218552 -0.009513281 -0.104822025 0.083092526 -0.05763001 0.071304336 0.05750711
0.012121883 -0.08052986 0.103986315 0.08712208 0.0827485 0.058379892 -0.030079763 -0.024525166
0.031220924 0.010460581 0.0070720264 -0.08904159 0.0020239456 0.118947044 -0.056971237 -0.010212691
0.04939155 0.013388706 -0.008731707 -0.12106977 -0.03482888 -0.055875055 -0.07092542 0.10530914
0.034641936 0.0750603 0.10567621 0.10555207 0.102411315 0.021510763 0.031575345 0.015528122
-0.069722004 0.006693064 -0.082230225 0.023082068 0.11147233 0.09487276 0.09290011 0.104236715
-0.045756906 -0.07155958 -0.00089034566 0.002437016 0.10496962 -0.10188038 -0.025202395 0.06116756
-0.065277204 -0.038161557 -0.053938825 0.009913722 -0.121474124 -0.0036272951 0.025749302 -0.036194112
-0.064071156 -0.08506078 0.08124241 -0.04911057 0.1125 0.065082535 0.08244611 -0.045522653
0.09741682 -0.10134178 0.09608031 0.03237685 0.053707227 -0.11775825 0.0987878 0.10595745
-0.110399246 0.018430116 -0.052186906 0.041831367 0.07631745 -0.107780986 -0.043036245 0.11756116
0.11509084 0.02690749 0.054040965 -0.0013779136 0.05830639 0.09020658 0.072813176 0.11276771
0.1000872 -0.047508378 -0.043238036 -0.090265796 -0.044526316 0.050769664 0.11117838 0.085136496
00000000: 7590 953c 9d59 353c b9cb 6fbd b321 05bd
00000010: d3be abbd 344c af3c 330d b1bd 2756 87bc
00000020: d1a0 1e3d bcf6 5f3c 2692 2dbd 348a 0fbd
00000030: 8bec 8abd 7b72 ddbc 7288 73bd 2ce3 ec3d
00000040: 04ea f23d e459 e8bd 3faf a4bc 19e8 cebd
00000050: fe4f 98bd 03ca d33c 5c99 d73d bbbc 693d
00000060: 0d95 63bc 074a 39bd c579 e8bd 0f8b a4bd
00000070: 0c47 833d dce3 9b3d c8e8 273d 351f b3bd
00000080: b42d 9bbd 481b db3d 79a8 6e3d b573 a23d
00000090: 88e5 643d 5503 09bc 1ebe 393d 0a2e db3d
000000a0: 066e adbd 8cb2 6c3d 992c fa3d 26e4 44bd
000000b0: 29c0 babb 9e3c 453c 3ad7 02bc 75c7 dc3c
000000c0: cc40 b8bd 2edb 913d 85a0 40bd d4de cb3d
000000d0: bb48 033d 5d58 2f3d e829 99bd 7a49 a43c
000000e0: 9fe8 35bd ec81 0ebd 468b 5bbd 6cc0 473d
000000f0: 370c bb3d e014 8dbd 7f36 efbd 0ed9 14bd
00000100: 5088 ed3d 3661 68bd de59 e23d 0471 dcbd
00000110: b16a 6d3c e72a 72bd 8714 25bd be5d 9fbd
00000120: d88d 553d e00e 123d 60d3 8c3d 3c89 4b3d
00000130: 4ab2 93bd b9ea e1bc 773b f6bc 081b d93d
00000140: 172f bdbd 6d8e 89bd a911 60bd ec59 f63d
00000150: e7e2 24bd a2f7 5ebc 06ed bfbd 47fc c73d
00000160: 9239 8ebc a968 ff3d e022 d73d 78e0 f5bd
00000170: d607 023d fc94 83bd c005 48bd f8cb 03bd
00000180: fc14 c9bc a8c8 193c cd13 9b3d 50fe 363c
00000190: 6c7a 123c 2578 573c fef1 94bd 7155 f7bd
000001a0: 6b9a c7bd bb59 d73d c873 413d c15b a5bd
000001b0: 5348 0cbc 36c0 c5bd a2a1 bfbb a4d3 82bd
000001c0: 33ce 343d d84a e6bc 8a2e 243d 124b e6bd
000001d0: 110b 92bd ea88 bfbd 6186 f33d 0884 013d
000001e0: 53e1 a8bd 083c 8d3d 3fa9 683d b1f7 90bd
000001f0: 9cfb 01bd a9e8 823d 0eaa 7ebd 0cdb 2fbb
00000200: 2eee 913d 86fc ed3c 813f ce3d a8cd 9cbd
00000210: 0062 fabd 2047 75bb 18e2 e43d bb62 00bb
00000220: 4472 3fbd 9f30 a73a c755 f33c f9b5 c6bd
00000230: 3ab2 633d e791 b4bd 0b4c 9cbd 0eb9 c33d
00000240: fda1 153d 9bba 713d 0d8c a5bd 1284 e13d
00000250: f68c 8f3d 4e9a 063d e092 f93d 5cc8 aa3c
00000260: 7cbb 8bbd 68be b5bc 98dd 1bbc eeac d6bd
00000270: 6a2c aa3d 720d 6cbd 0208 923d 938c 6b3d
00000280: dd9a 463c d7ec a4bd c7f6 d43d 106d b23d
00000290: 0c78 a93d c11f 6f3d d669 f6bc 00e9 c8bc
000002a0: 06c3 ff3c db62 2b3c 75bc e73b 705b b6bd
000002b0: 2ca4 043b 829a f33d ac5a 69bd 2153 27bc
000002c0: cb4e 4a3d 4e5c 5b3c 6f0f 0fbc 6df3 f7bd
000002d0: baa8 0ebd 3edd 64bd 5941 91bd 52ac d73d
000002e0: b4e4 0d3d 37b9 993d c56c d83d af2b d83d
000002f0: 06bd d13d 5737 b03c 2655 013d aa69 7e3c
00000300: 69ca 8ebd 7d51 db3b 5268 a8bd 9b16 bd3c
00000310: 9b4b e43d a64c c23d 6a42 be3d 0f7a d53d
00000320: 986b 3bbd d48d 92bd 1666 69ba 58b6 1f3b
00000330: 50fa d63d a9a6 d0bd 4175 cebc d68a 7a3d
00000340: 0eb0 85bd 4b4f 1cbd f5ee 5cbd 2a6d 223c
00000350: 6dc7 f8bd eab7 6dbb 33f0 d23c 4740 14bd
00000360: bd37 83bd 5934 aebd 6c62 a63d 2a28 49bd
00000370: 6666 e63d fe49 853d 82d9 a83d f675 3abd
00000380: 7882 c73d 478c cfbd c1c5 c43d 969d 043d
00000390: 1cfc 5b3d 3d2b f1bd 4251 ca3d 3800 d93d
000003a0: 0019 e2bd c1fa 963c f0c1 55bd 5e57 2b3d
000003b0: 534c 9c3d 47bc dcbd c646 30bd e8c3 f03d
000003c0: bfb4 eb3d 196d dc3c 0f5a 5d3d 1c9b b4ba
000003d0: aed2 6e3d 3abe b83d 131f 953d c2f2 e63d
000003e0: 85fa cc3d 2598 42bd 5e1a 31bd 46dd b8bd
000003f0: 3a61 36bd daf3 4f3d 7eb1 e33d 0b5c ae3d

net.2.bias f4 [36]
0.113978684 -0.022146 -0.022815095 -0.0840184 0.02426715 0.06969251 -0.002087782 0.09905581
-0.10884707 0.09643769 -0.111769475 0.021128649 -0.12054772 0.053142782 -0.0067820894 0.056906182
-0.04615474 -0.09202732 0.06195499 0.10405899 0.021804785 -0.04123279 0.06728536 -0.06301894
-0.07511935 -0.010506937 0.044642244 0.03873361 0.0008505676 0.102207534 0.04118597 -0.03385749
0.0069278325 -0.003786409 -0.0012776178 -0.022482406
00000000: a86d e93d 876b b5bc b9e6 babc d711 acbd
00000010: e7cb c63c f2ba 8e3d 2bd3 08bb c6dd ca3d
00000020: 36eb debd 2081 c53d 65e7 e4bd fd15 ad3c
00000030: b9e1 f6bd 3fac 593d 4a3c debb 7516 693d
00000040: c10c 3dbd d278 bcbd 84c4 7d3d e11c d53d
00000050: f39f b23c b7e3 28bd e8cc 893d 1310 81bd
00000060: 2cd8 99bd 4a25 2cbc c9da 363d 22a7 1e3d
00000070: a0f8 5e3a 2f52 d13d 9fb2 283d 27ae 0abd
00000080: df02 e33b 6725 78bb bd75 a7ba 062d b8bc
