models/gan_class_3.pth (torch, 16261 bytes, 4 tensors)

net.0.weight f4 [64, 16]
-0.2206399 0.11942995 -0.008398599 -0.139923 0.07689947 -0.11133633 0.100607745 0.22844875
0.14835732 -0.23964822 0.123487115 -0.13580133 -0.008894419 -0.017094176 0.2166347 -0.034778364
-0.03598236 -0.08481972 -0.064973526 0.0038064164 0.00885121 0.123674594 -0.121984094 0.13491371
-0.20630443 0.041470174 0.19396792 -0.015534525 -0.12397366 -0.033379704 0.12514672 0.13649775
0.07181933 0.23082499 -0.031006295 0.07097785 -0.21531022 -0.12713481 0.02225514 0.030237244
0.20474198 0.05206622 -0.0361391 -0.08879791 0.049896862 0.21134329 -0.21310407 0.13808018
0.23416702 -0.02523721 -0.09489206 -0.20429458 0.19338931 -0.09600292 0.12932265 -0.023542942
0.082616806 0.21148202 -0.10383652 0.20463458 -0.17778604 -0.15960804 -0.12087395 -0.21917574
0.023316793 -0.04363918 0.09863089 -0.0620681 -0.031165028 -0.054630727 0.11535594 -0.06696659
-0.05225286 0.22355044 0.22516026 -0.08704328 0.19088489 0.1543999 0.032438163 -0.10996013
-0.09080149 0.00099962 -0.1721011 -0.12166947 -0.12275736 -0.022757748 -0.15713945 -0.21392192
-0.22156394 0.21859194 -0.07386852 0.21165767 -0.17912363 0.011964493 0.21851975 0.0885529
-0.067217045 -0.13149656 -0.138607 0.16647638 0.11179907 0.18113777 -0.2336301 0.011952964
-0.19385874 0.04982766 0.09826626 0.020794243 0.012379146 0.21220422 -0.24125987 0.24872169
-0.170942 0.055186667 0.1275241 0.06075255 -0.21731979 -0.03040369 -0.10159449 -0.11062228
-0.1386954 0.10723612 -0.22108181 -0.16187526 -0.023440925 0.07013152 0.22295265 0.102167405
-0.016335128 -0.15013517 0.16339613 -0.049474373 0.109985895 0.019521715 -0.19941302 0.24682836
0.22185512 0.027266957 0.039749097 0.010965719 0.08823233 0.023623468 0.23294924 0.18548848
0.14487413 -0.12279707 -0.06753793 0.022838611 -0.20061365 0.14124396 0.06267424 -0.13199377
-0.11267902 -0.22713293 -0.120701425 0.2239434 -0.025654655 0.14207482 -0.03299804 -0.024118936
-0.024098944 0.14825962 0.23428383 -0.15276417 -0.10196704 -0.11584012 0.15295942 0.2412157
-0.06565903 0.014624628 -0.05145514 -0.0044644903 -0.23606116 -0.20164794 0.06599385 0.24351448
-0.041931156 -0.23026018 0.062621415 -0.020179147 0.2478205 0.07780726 -0.1828071 0.11351418
-0.15777776 0.10881198 -0.2422387 0.057984542 0.24185668 0.06129822 -0.2422287 0.06347962
0.1832317 0.07318813 0.1480904 0.10240237 0.17690256 -0.20145437 0.22272931 0.13438208
0.020067703 -0.10212257 -0.17416014 -0.06051616 -0.05512024 -0.24351147 -0.16094984 0.15169807
0.091922514 -0.19282222 -0.003766556 0.22849411 -0.039207127 0.051765896 -0.19369999 -0.21211962
-0.141587 0.20671088 0.13358517 0.21116316 -0.23137474 0.06694474 -0.15085672 -0.1056605
-0.040640313 0.18927452 0.18993162 -0.14368059 -0.08737883 -0.07935974 0.18267334 0.04193221
-0.19504191 0.11624385 0.23812807 -0.2199464 0.1756198 -0.17344435 0.21935777 0.14425422
0.07481564 0.18658105 0.025344014 0.12932514 -0.16770835 -0.075139 -0.16310059 0.0034576673
0.16136645 -0.22390866 -0.18713832 -0.229128 -0.20204379 -0.19632602 -0.108978845 -0.1587311
00000000: 6def 61be b197 f43d 479a 09bc fa47 0fbe
00000010: 787d 9d3d 4d04 e4bd 6f0b ce3d 78ee 693e
00000020: fbea 173e 5866 75be d0e6 fc3d 810f 0bbe
00000030: e6b9 11bc 1609 8cbc 7dd5 5d3e c273 0ebd
00000040: 3d62 13bd f6b5 adbd d710 85bd 1275 793b
00000050: aa04 113c 1b49 fd3d ccd2 f9bd d226 0a3e
00000060: 7841 53be a1dc 293d 879f 463e 8584 7ebc
00000070: e7e5 fdbd 28b9 08bd 7626 003e 11c6 0b3e
00000080: 0316 933d 635d 6c3e ea00 febc d65c 913d
00000090: 487a 5cbe a12f 02be 6950 b63c 19b4 f73c
000000a0: e2a7 513e 6443 553d 9806 14bd aedb b5bd
000000b0: a760 4c3d 606a 583e f437 5abe e464 0d3e
000000c0: 7bc9 6f3e 44be cebc c556 c2bd 9932 51be
000000d0: d907 463e 2e9d c4bd 286d 043e 21dd c0bc
000000e0: 0033 a93d be8e 583e 3ea8 d4bd ba8b 513e
000000f0: 8b0d 36be 4a70 23be c38c f7bd 9b6f 60be
00000100: dc02 bf3c ffbe 32bd fefe c93d 1f3b 7ebd
00000110: cd4d ffbc 78c4 5fbd bc3f ec3d c825 89bd
00000120: 1807 56bd 68ea 643e 6990 663e bf43 b2bd
00000130: 5477 433e 021b 1e3e e1dd 043d c732 e1bd
00000140: 22f6 b9bd ae05 833a 453b 30be d82d f9bd
00000150: 3668 fbbd 756e babc 2ae9 20be 590e 5bbe
00000160: a8e1 62be 91d6 5f3e 6148 97bd cabc 583e
00000170: 2f6c 37be b906 443c a4c3 5f3e 395b b53d
00000180: 17a9 89bd 09a7 06be feee 0dbe c978 2a3e
00000190: e9f6 e43d 2e7c 393e bb3c 6fbe 5dd6 433c
000001a0: e882 46be 1718 4c3d d23f c93d b058 aa3c
000001b0: e7d1 4a3c 104c 593e d40c 77be e6b0 7e3e
000001c0: 6b0b 2fbe 6a0b 623d ad95 023e aad7 783d
000001d0: 1489 5ebe 2911 f9bc c610 d0bd ef8d e2bd
000001e0: 2b06 0ebe 9c9e db3d 4563 62be a1c2 25be
000001f0: 2f07 c0bc 1da1 8f3d b34d 643e 253d d13d
00000200: 3fd1 85bc 09bd 19be 5151 273e a4a5 4abd
00000210: 4940 e13d 01ec 9f3c ed32 4cbe 93c0 7c3e
00000220: fd2d 633e f45e df3c f3cf 223d 8fa9 333c
00000230: 27b3 b43d 0186 c13c 3f8a 6e3e b1f0 3d3e
00000240: e259 143e 087d fbbd 5451 8abd 0a18 bb3c
00000250: aa6d 4dbe 42a2 103e 5a5b 803d 6029 07be
00000260: 42c4 e6bd 8995 68be 4f32 f7bd 6b51 653e
00000270: b629 d2bc 107c 113e f428 07bd 1395 c5bc
00000280: 266b c5bc 5fd1 173e 1ae8 6f3e 366e 1cbe
00000290: 18d4 d0bd 963d edbd 65a1 1c3e 4001 773e
000002a0: 3e78 86bd 239c 6f3c a0c2 52bd dc4a 92bb
000002b0: 04ba 71be cc7c 4ebe c927 873d dc5b 793e
000002c0: 01c0 2bbd 53c9 6bbe a83f 803d bd4e a5bc
000002d0: a8c4 7d3e 6a59 9f3d c931 3bbe 1f7a e83d
000002e0: 7e90 21be d1d8 de3d 6c0d 78be 3381 6d3d
000002f0: 47a9 773e d813 7b3d cd0a 78be 9a01 823d
00000300: 17a1 3b3e a9e3 953d 03a5 173e 55b8 d13d
00000310: f225 353e 0e4a 4ebe 2713 643e 759b 093e
00000320: 0665 a43c a325 d1bd 0957 32be cbdf 77bd
00000330: c3c5 61bd 125b 79be 09d0 24be bd56 1b3e
00000340: df41 bc3d 3073 45be 53d8 76bb 5cfa 693e
00000350: a797 20bd 7a08 543d 4a59 46be e335 59be
00000360: 2ffc 10be 04ac 533e 8dca 083e 283b 583e
00000370: 80ed 6cbe 531a 893d 2f7a 1abe 8864 d8bd
00000380: 7576 26bd 2ed1 413e 6f7d 423e 0121 13be
00000390: acf3 b2bd 5c87 a2bd b80e 3b3e 1cc1 2b3d
000003a0: 11b9 47be 4111 ee3d d8d7 733e a139 61be
000003b0: add5 333e 659b 31be 539f 603e 61b7 133e
000003c0: f138 993d 1a0f 3f3e 409e cf3c cf6d 043e
000003d0: bdbb 2bbe 7ae2 99bd d703 27be 089a 623b
000003e0: 3f3d 253e 5048 65be 30a1 3fbe 88a0 6abe
000003f0: 91e4 4ebe b009 49be 4d30 dfbd 688a 22be

net.0.bias f4 [64]
0.22259139 0.1689199 0.22535056 -0.030659942 0.09274541 0.05715699 0.024551306 0.24304411
-0.17731288 -0.24665242 0.12626258 0.18233238 -0.1952611 -0.02727994 -0.20347849 0.08756542
0.10770472 0.124760255 -0.03198356 0.11758955 0.1857427 0.04652444 0.20846634 -0.21619856
-0.21503207 0.11179095 0.021150332 0.18399997 -0.15475011 0.15232453 -0.22510275 0.18857037
-0.21409826 -0.19701746 0.08090678 -0.079905376 0.0046628495 0.15943809 -0.21152192 -0.17008029
-0.111652374 0.014738392 0.02959042 -0.1562625 -0.030257162 0.22469619 -0.18384802 0.22671133
-0.15522107 -0.015829971 -0.15541017 0.07861506 -0.166843 -0.19232835 -0.041589174 0.113371015
0.015959557 -0.116595894 -0.15319994 0.15023221 0.18515466 -0.24723342 -0.12595594 0.08973052
00000000: ffee 633e 57f9 2c3e 4cc2 663e 8f2a fbbc
00000010: 4ef1 bd3d 731d 6a3d d21f c93c 8ee0 783e
00000020: 8291 35be 7492 7cbe fa4a 013e 57b5 3a3e
00000030: 87f2 47be 2e7a dfbc aa5c 50be 8055 b33d
00000040: 4b94 dc3d 4e82 ff3d 3201 03bd cad2 f03d
00000050: 5633 3e3e 6990 3e3d 3378 553e 2863 5dbe
00000060: 5e31 5cbe a7f2 e43d 7643 ad3c 7d6a 3c3e
00000070: d076 1ebe f6fa 1b3e 5681 66be 9718 413e
00000080: 933c 5bbe f2be 49be 74b2 a53d 6ea5 a3bd
00000090: d1ca 983b bd43 233e 3499 58be 8729 2ebe
000000a0: 00aa e4bd 4c79 713c 9c67 f23c 4703 20be
000000b0: dedd f7bc c216 663e a842 3cbe 0427 683e
000000c0: 46f2 1ebe dbad 81bc d823 1fbe ef00 a13d
000000d0: e4d8 2abe b9f1 44be 6959 2abd 102f e83d
000000e0: 9ebd 823c d4c9 eebd 72e0 1cbe 79d6 193e
000000f0: 2f99 3d3e c22a 7dbe 98fa 00be a3c4 b73d

net.2.weight f4 [36, 64]
-0.116571285 0.053249825 0.04854483 0.109524265 -0.11123945 0.11067041 -0.1100528 0.0010822128
0.12337491 0.046998054 -0.02683839 -0.11527414 0.106427975 -0.03596411 0.043291267 -0.07668697
-0.028779868 -0.07758425 0.06199973 -0.11758942 0.027555285 0.070933655 0.018653307 -0.09724154
-0.08552499 -0.04200711 0.03815645 0.04906098 0.027103396 -0.08782533 0.0051273946 0.12655875
0.09606607 0.105469584 -0.051596835 0.034299236 0.07256763 0.0061292476 -0.011099402 0.08594484
0.0006954941 -0.08079136 0.025357187 -0.0050013145 -0.058585115 0.099782184 0.10988181 -0.051154293
-0.0035633026 -0.06584244 0.03258803 0.03892531 0.021952273 -0.039608672 0.01918127 -0.056306686
0.093496 -0.034534033 -0.10316605 0.056196384 -0.03459556 0.04575609 -0.102777414 0.00018896064
0.045695394 0.033405602 0.022647979 0.0854575 0.1195338 0.0024352393 0.026183875 -0.11247762
-0.01502468 0.033633277 -0.09510659 0.09612949 0.038178723 0.068764254 0.1263415 0.10790135
-0.02112361 0.04748845 -0.061637532 -0.080728516 -0.0345923 0.057397753 0.11056974 0.03888976
0.0062857023 -0.008615926 -0.04152121 -0.09224614 -0.0019916538 0.11550556 -0.05096679 0.049223233
-0.05167139 0.028642872 -0.03982785 -0.056006975 -0.06633698 0.11669978 -0.06754496 0.05748237
-0.058704108 -0.1074062 -0.107159846 0.01677021 -0.0011816286 0.07422809 -0.04669605 -0.07682243
0.110443 -0.04029229 0.051760513 0.062372424 0.11715769 0.10957753 0.026789075 0.026867125
0.07413649 0.031543273 0.095712595 1.609909e-05 -0.040113557 0.09941089 0.12107762 -0.040228635
0.037208766 0.116373084 -0.12158325 -0.048820805 -0.051032104 -0.041173503 -0.011861844 -0.01928442
0.03986091 -0.035233416 0.09090748 0.083746575 -0.018549522 0.0012736599 -0.022056831 -0.022965308
-0.06451719 -0.075088374 0.12260174 0.009695481 0.08026658 0.12280806 -0.10001992 -0.113441885
-0.033355646 0.0192114 0.03150611 0.0070650075 -0.056416944 0.12292073 -0.020487307 -0.0960089
0.052003343 0.034749594 0.08824204 -0.068968035 0.11399807 -0.03222834 -0.05635527 0.044603955
0.061424103 0.11184741 -0.0018092188 -0.008296617 0.026807627 0.00036040446 0.11984239 -0.053162273
-0.07167588 -0.10608369 -0.12544201 -0.001288122 -0.05756584 0.0013757615 0.003104506 -0.08724613
0.06848704 0.037395798 -0.032097053 0.0027038516 -0.041367956 0.059197094 -0.12252578 0.08995697
0.12144434 -0.007004596 0.0034810351 0.106004216 -0.045620326 0.05511685 0.07682466 0.025543105
0.002477861 -0.08274945 -0.053432673 0.004602153 0.10358498 0.028000306 0.05682552 -0.09011353
-0.058106665 -0.10253782 0.08680128 -0.054424766 0.10280668 -0.037196554 -0.024168286 -0.07056169
0.02376422 0.12184054 -0.099950634 0.09710839 0.12340233 0.03419953 -0.022533605 0.0090012485
-0.09961413 0.023637429 0.12458099 0.08772001 0.01861149 0.08219902 -0.01816788 0.0962354
-0.0728889 -0.11228027 0.053058177 -0.07659435 -0.10326871 -0.024862293 0.11801961 0.049605064
0.07552207 -0.07294399 0.0818246 0.013351914 -0.04160244 -0.078155465 0.06763651 0.1248171
0.05945257 -0.09957548 -0.107467525 0.068533204 0.05068871 0.050388835 0.058215827 0.041516628
00000000: edbc eebd 7d1c 5a3d f2d6 463d 424e e03d
00000010: 82d1 e3bd 2ba7 e23d 5d63 e1bd 09d9 8d3a
00000020: fcab fc3d 0881 403d 2fdc dbbc d914 ecbd
00000030: e9f6 d93d 1a4f 13bd 2f52 313d 0f0e 9dbd
00000040: c2c3 ebbc 7ee4 9ebd 6ef3 7d3d b9d2 f0bd
00000050: 9fbb e13c aa45 913d d2ce 983c 9326 c7bd
00000060: ba27 afbd a60f 2cbd f049 1c3d 2bf4 483d
00000070: f107 de3c c4dd b3bd b403 a83b 9e98 013e
00000080: 4abe c43d 7000 d83d 3457 53bd 5b7d 0c3d
00000090: 569e 943d dbd7 c83b 44da 35bc d903 b03d
000000a0: d251 363a f175 a5bd e0b9 cf3c 11e2 a3bb
000000b0: f2f6 6fbd 9a5a cc3d b709 e13d 2a87 51bd
000000c0: 4c86 69bb 67d8 86bd 077b 053d 2570 1f3d
000000d0: 41d5 b33c b43c 22bd 0a22 9d3c d7a1 66bd
000000e0: d57a bf3d 8f73 0dbd b948 d3bd 2e2e 663d
000000f0: 13b4 0dbd bd6a 3b3d f77c d2bd bc23 4639
00000100: 182b 3b3d 50d4 083d 4188 b93c 5704 af3d
00000110: 23ce f43d 8998 1f3b 917f d63c ab5a e6bd
00000120: 132a 76bc 0cc3 093d 3ec7 c2bd 8adf c43d
00000130: 4b61 1c3d 46d4 8c3d ab5f 013e 62fb dc3d
00000140: 6c0b adbc 4083 423d a377 7cbd fe54 a5bd
00000150: a8b0 0dbd e819 6b3d 6372 e23d de4a 1f3d
00000160: 4bf8 cd3b d029 0dbc 2512 2abd 8beb bcbd
00000170: 6886 02bb 2e8e ec3d 8ec2 50bd 4d9e 493d
00000180: 61a5 53bd 75a4 ea3c 8722 23bd 9267 65bd
00000190: afdb 87bd 4b00 ef3d 0355 8abd a272 6b3d
000001a0: b873 70bd c8f7 dbbd 9f76 dbbd ae61 893c
000001b0: e0e0 9aba e604 983d 5b44 3fbd 1455 9dbd
000001c0: f12f e23d 8709 25bd d502 543d 3a7a 7f3d
000001d0: 5ff0 ef3d 2f6a e03d c374 db3c 7218 dc3c
000001e0: dfd4 973d 8533 013d f704 c43d 880c 8737
000001f0: 1d4e 24bd f097 cb3d 8bf7 f73d c8c6 24bd
00000200: 3868 183d 0355 ee3d a400 f9bd 53f8 47bd
00000210: 0a07 51bd 8ca5 28bd 2e58 42bc 5cfa 9dbc
00000220: 3245 233d ea50 10bd b32d ba3d 5383 ab3d
00000230: 2bf5 97bc eff0 a63a 87b0 b4bc be21 bcbc
00000240: 9721 84bd efc7 99bd 9f16 fb3d cbd9 1e3c
00000250: ce62 a43d cb82 fb3d 3ed7 ccbd 3854 e8bd
00000260: ee9f 08bd 3a61 9d3c 8d0c 013d 9481 e73b
00000270: 7415 67bd ddbd fb3d ffd4 a7bc 50a0 c4bd
00000280: 7501 553d 9755 0e3d 3eb8 b43d 1d3f 8dbd
00000290: d277 e93d dd01 04bd c9d4 66bd a3b2 363d
000002a0: d797 7b3d 4110 e53d 4f23 edba 89ee 07bc
000002b0: ab9b db3c abf4 bc39 ed6f f53d afc0 59bd
000002c0: ceca 92bd 6842 d9bd df73 00be 34d6 a8ba
000002d0: 29ca 6bbd e552 b43a f874 4b3b 19ae b2bd
000002e0: ef42 8c3d 562c 193d 3378 03bd 1a33 313b
000002f0: 7271 29bd a778 723d ccee fabd 5c3b b83d
00000300: cfb7 f83d cf86 e5bb 1422 643b bd18 d93d
00000310: 61dc 3abd 35c2 613d 3f56 9d3d c63f d13c
00000320: 9c63 223b 8b78 a9bd 38dc 5abd a8cd 963b
00000330: 5d24 d43d e660 e53c e0c1 683d 718d b8bd
00000340: 4101 6ebd 59ff d1bd dfc4 b13d 81ec 5ebd
00000350: 4f8c d23d 6a5b 18bd 92fc c5bc a682 90bd
00000360: 2ead c23c 8887 f93d ebb2 ccbd c3e0 c63d
00000370: 5cba fc3d ce14 0c3d 6598 b8bc f979 133c
00000380: 7e02 ccbd 48a3 c13c 5124 ff3d 8ca6 b33d
00000390: 2077 983c f657 a83d ced4 94bc 1117 c53d
000003a0: c746 95bd 33f3 e5bd 8853 593d 80dd 9cbd
000003b0: 8c7e d3bd 02ac cbbc 44b4 f13d ae2e 4b3d
000003c0: 51ab 9a3d a963 95bd a893 a73d fcc1 5a3c
000003d0: 5267 2abd f90f a0bd 0385 8a3d 1ca0 ff3d
000003e0: 8a84 733d 3bee cbbd ef17 dcbd 235b 8c3d
000003f0: f79e 4f3d 8664 4e3d b873 6e3d 570d 2a3d

net.2.bias f4 [36]
-0.010087144 -0.08449913 0.0654212 0.075684495 0.065041386 0.10673505 -0.05103906 0.0378575
-0.09691306 0.016667781 -0.05126025 0.07550964 -0.102894664 -0.10140726 -0.09727667 -0.08618579
-0.012938658 0.08469553 -0.095242314 0.07649327 0.003329507 0.0802726 -0.033434693 -0.052697793
0.06680512 -0.120288834 0.035950653 -0.07614834 0.08844461 0.03322197 0.07126161 -0.09014819
-0.05988083 -0.0028243426 0.11907662 -0.051771104
00000000: 8c44 25bc e10d adbd 8dfb 853d 7900 9b3d
00000010: 6b34 853d e897 da3d 550e 51bd 7710 1b3d
00000020: 5b7a c6bd df8a 883c 45f6 51bd cca4 9a3d
00000030: 70ba d2bd 9cae cfbd fe38 c7bd 2d82 b0bd
00000040: aafc 53bc da74 ad3d 670e c3bd 81a8 9c3d
00000050: dc33 5a3b f665 a43d d1f2 08bd a4d9 57bd
00000060: 1fd1 883d fe59 f6bd fe40 133d a9f3 9bbd
00000070: 7322 b53d c313 083d 9bf1 913d 9d9f b8bd
00000080: 9a45 75bd 9b18 39bb 71de f33d f00d 54bd
