models/gan_class_4.pth (torch, 16261 bytes, 4 tensors)

net.0.weight f4 [64, 16]
0.05555672 0.12281103 0.2024285 -0.21229818 0.016818693 -0.16786948 -0.115867555 -0.14912471
0.19706999 -0.14732875 -0.13490194 0.2084458 -0.13605003 0.16013162 0.011646899 0.10303502
-0.14151052 0.23667467 0.113420114 -0.028456777 0.20819886 -0.088687025 0.08326757 0.2345013
0.038041715 -0.026980763 0.18809824 -0.20648688 0.1276799 0.060323596 0.035138622 -0.08968184
0.047172755 -0.14039765 -0.14735681 0.023259211 0.21623272 -0.16455425 -0.19306172 -0.08410036
0.11943537 -0.042717803 0.03426806 -0.018116722 -0.23760688 -0.04741491 0.20809726 -0.20298791
-0.049680486 0.037506014 0.016057415 -0.1319182 -0.20968434 0.2328548 0.19571215 -0.01295809
0.032920554 0.020272328 0.023442842 0.11838269 -0.21715203 -0.2248514 -0.07747361 -0.0689651
-0.033079162 0.107133 -0.12476793 -0.22628765 0.20135549 -0.1264926 0.1847251 0.17270342
0.21907945 0.038246345 0.1947896 -0.15174775 -0.19480093 0.16876397 0.03668681 0.10075975
-0.2185585 0.029782828 0.07933632 -0.23236094 -0.10469731 -0.1758056 0.17539819 -0.15349932
0.010032776 -0.10072596 -0.03572281 -0.102183096 -0.08819704 0.16122018 0.22034653 0.08146857
0.17950131 -0.11559678 -0.015986107 0.08220429 -0.159718 0.05065207 -0.057545863 -0.19409451
-0.048487816 0.006858604 -0.006515011 -0.09107564 -0.08624947 -0.004070075 0.18991706 -0.048747126
-0.23667158 0.16659217 -0.12825082 0.027848858 0.017430948 -0.24312384 0.10203431 0.014080463
0.24393468 -0.15617299 -0.22400467 0.0043848706 -0.07859919 0.1863457 -0.113049805 0.098364495
-0.17294258 0.24298923 0.096169226 0.1130613 0.14104517 0.010022718 -0.07092581 0.10257996
-0.22495583 -0.1619522 0.018887922 -0.1732022 0.114930056 -0.11379426 0.13677827 -0.14304025
0.125583 -0.14971614 0.23386443 -0.14207348 0.11989498 0.06317244 0.09540354 -0.17235951
-0.101694144 -0.17391403 -0.072079234 -0.14126073 0.16136248 0.002231424 -0.18574405 -0.15128966
-0.24386607 0.17245734 -0.14183179 -0.034466 0.07859321 -0.24108985 0.047666334 0.17342067
-0.044533614 0.008424481 0.05833753 -0.08922187 -0.11397781 -0.13986129 -0.0058439528 -0.14383812
0.16220649 0.22522874 -0.22313145 -0.036229976 -0.020386744 0.13674286 0.22410677 -0.16900115
0.09264127 0.17179136 -0.032170415 0.16416632 0.15882304 0.13290586 -0.012238362 0.15411311
-0.13779488 -0.02424967 0.10522431 0.021032456 0.24384212 0.028752979 -0.22191474 -0.01892494
0.008727766 -0.10414671 -0.026266035 0.077833995 -0.17013177 -0.01971887 -0.11376168 0.16465534
0.107679345 0.0048676254 0.21665214 -0.14407583 0.17444311 -0.18197846 -0.058257658 -0.2304396
0.05447667 -0.015662065 -0.072099775 -6.8302674e-05 -0.12503594 -0.20357955 0.000569085 0.22737667
0.08745485 0.14508066 0.24047424 -0.0019741664 -0.07517632 -0.192018 0.16661467 -0.22322965
0.07061962 -0.033144176 -0.07110155 -0.14528593 -0.18557307 0.17987338 0.106771566 -0.1308421
-0.0034392527 0.17780226 -0.24238896 0.041366264 -0.021285448 0.010602787 0.21181732 -0.03727
0.13762139 -0.032502264 0.016057845 -0.20210773 0.21363352 -0.19927286 0.047357418 -0.022382284
00000000: 718f 633d 5984 fb3d 6b49 4f3e b264 59be
00000010: 5bc7 893c fae5 2bbe f84b edbd 26b4 18be
00000020: b7cc 493e 59dd 16be bc23 0abe d172 553e
00000030: b350 0bbe 8bf9 233e a3d2 3e3c 0604 d33d
00000040: 22e8 10be d85a 723e ce48 e83d 301e e9bc
00000050: 1532 553e 8ba1 b5bd 3088 aa3d 1c21 703e
00000060: a1d1 1b3d c306 ddbc d39c 403e 4c71 53be
00000070: 85be 023e e015 773d 84ed 0f3d 1dab b7bd
00000080: 3838 413d 67c4 0fbe b4e4 16be 1a8a be3c
00000090: 1c6c 5d3e e980 28be f9b1 45be cf3c acbd
000000a0: 889a f43d ddf8 2ebd aa5c 0c3d 8569 94bc
000000b0: 384f 73be 2336 42bd 7317 553e 10dc 4fbe
000000c0: c47d 4bbd e89f 193d d78a 833c 9115 07be
000000d0: 7eb7 56be 7d71 6e3e c468 483e 2b4e 54bc
000000e0: b4d7 063d 2712 a63c 340b c03c a072 f23d
000000f0: 1a5d 5ebe 723f 66be 7caa 9ebd 933d 8dbd
00000100: 047e 07bd 8c68 db3d 5486 ffbd f3b7 67be
00000110: 2230 4e3e 4787 01be 9428 3d3e 2ad9 303e
00000120: 5d56 603e 33a8 1c3d ed76 473e c363 1bbe
00000130: e579 47be 76d0 2c3e e944 163d 215b ce3d
00000140: cdcd 5fbe 1efb f33c 157b a23d 07f0 6dbe
00000150: 8b6b d6bd 6206 34be 959b 333e ed2e 1dbe
00000160: 8360 243c 6a49 cebd 1552 12bd 5f45 d1bd
00000170: a6a0 b4bd e716 253e 85a2 613e fed8 a63d
00000180: 31cf 373e 01be ecbd 4cf5 82bc b95a a83d
00000190: 1e8d 23be 8c78 4f3d 36b5 6bbd b6c0 46be
000001a0: 299b 46bd 24be e03b e07b d5bb dd85 babd
000001b0: 90a3 b0bd 445e 85bb 9e79 423e 11ab 47bd
000001c0: 095a 72be 2397 2a3e 2f54 03be 4a23 e43c
000001d0: 59cb 8e3c 75f5 78be 5df7 d03d beb1 663c
000001e0: 03ca 793e d0eb 1fbe 7b61 65be f6ae 8f3b
000001f0: 9df8 a0bd 68d1 3e3e a886 e7bd 5373 c93d
00000200: dc17 31be 2bd2 783e 5ff4 c43d af8c e73d
00000210: 256e 103e 5436 243c 8d41 91bd 7115 d23d
00000220: d25a 66be ccd6 25be d8ba 9a3c eb5b 31be
00000230: 7360 eb3d f70c e9bd 9a0f 0c3e 2579 12be
00000240: d498 003e 304f 19be 287a 6f3e b67b 11be
00000250: 808b f53d 8d60 813d ee62 c33d 037f 30be
00000260: 0545 d0bd 8516 32be 479e 93bd a7a6 10be
00000270: 353c 253e 153d 123b b033 3ebe adeb 1abe
00000280: 07b8 79be a898 303e 5a3c 11be 382c 0dbd
00000290: 7af5 a03d 42e0 76be c63d 433d 3095 313e
000002a0: e168 36bd d606 0a3c 55f3 6e3d f5b9 b6bd
000002b0: 336d e9bd cc37 0fbe a17e bfbb 4d4a 13be
000002c0: 7519 263e 5da2 663e 927c 64be e265 14bd
000002d0: 1a02 a7bc 5206 0c3e 3f7c 653e a30e 2dbe
000002e0: b5ba bd3d 13ea 2f3e 20c5 03bd 371b 283e
000002f0: 82a2 223e 7918 083e 6983 48bc d4cf 1d3e
00000300: 1a1a 0dbe 3ea7 c6bc d87f d73d 424c ac3c
00000310: c0b1 793e 5e8b eb3c 9e3d 63be 7a08 9bbc
00000320: e7fe 0e3c df4a d5bd de2b d7bc 6e67 9f3d
00000330: 0637 2ebe 7889 a1bc e2fb e8bd 699b 283e
00000340: fd86 dc3d 9a80 9f3b 0fda 5d3e 9d88 13be
00000350: 37a1 323e 9058 3abe 959f 6ebd 5cf8 6bbe
00000360: ee22 5f3d bb4d 80bc 0ca9 93bd b83d 8fb8
00000370: 6c09 00be 2877 50be a62e 153a 6ed5 683e
00000380: 871b b33d 0690 143e e13e 763e 0461 01bb
00000390: 0bf6 99bd 5ea0 44be 099d 2a3e 5096 64be
000003a0: 05a1 903d 30c2 07bd b09d 91bd d6c5 14be
000003b0: de06 3ebe ba30 383e 0dab da3d 79fb 05be
000003c0: 1665 61bb cc11 363e d034 78be ac6f 293d
000003d0: d25e aebc 50b7 2d3c a4e6 583e 6da8 18bd
000003e0: 9fec 0c3e 1821 05bd be8b 833c 54f5 4ebe
000003f0: bfc2 5a3e 2f0e 4cbe daf9 413d 0d5b b7bc

net.0.bias f4 [64]
0.032349437 0.24091318 0.16504548 -0.21148689 -0.036208898 0.010940829 -0.013750841 -0.14436117
-0.24887018 -0.17745961 0.023449443 0.074176826 -0.129199 0.16530412 0.19693305 -0.19804384
0.1853892 0.14202805 0.20168887 0.066005826 0.17089824 -0.14690909 0.02146427 0.13657747
0.14069541 0.22435689 0.07610137 -0.23210227 0.17167433 -0.18994862 -0.012875114 -0.02138133
0.09466665 0.11636738 -0.0898617 -0.21915007 0.2440967 -0.15689208 -0.07257425 -0.04843574
0.0039617973 0.035867505 0.05590892 -0.18237333 0.12741056 -0.17277259 -0.030691333 0.18597563
0.20162706 0.13195975 -0.18211575 0.13172767 -0.22406887 -0.19578618 0.14495777 0.2419281
0.091401786 -0.1623318 -0.21103163 0.1203052 -0.011368371 -0.12152926 -0.102541864 0.08510919
00000000: d880 043d f2b1 763e af01 293e 0590 58be
00000010: c84f 14bd 2a41 333c 354b 61bc 6ad3 13be
00000020: d3d7 7ebe f9b7 35be 0c19 c03c 05ea 973d
00000030: be4c 04be 7c45 293e d1a8 493e 01cc 4abe
00000040: abd6 3d3e cd6f 113e 8787 4e3e 102e 873d
00000050: f3ff 2e3e 566f 16be d6d5 af3c f7da 0b3e
00000060: 7512 103e d0bd 653e 09db 9b3d 38ac 6dbe
00000070: 65cb 2f3e e481 42be 24f2 52bc e627 afbc
00000080: 97e0 c13d 0552 ee3d 6909 b8bd e068 60be
00000090: 7cf4 793e 51a8 20be cfa1 94bd 8e64 46bd
000000a0: f7d1 813b cee9 123d c000 653d 13c0 3abe
000000b0: ea77 023e 4ceb 30be 646c fbbc 6570 3e3e
000000c0: 5377 4e3e 7520 073e 8d7c 3abe 9ee3 063e
000000d0: 4f72 65be 2c7c 48be cf6f 143e 00bc 773e
000000e0: dc30 bb3d 4f3a 26be ad18 58be 9362 f63d
000000f0: 6742 3abc 55e4 f8bd 7801 d2bd ba4d ae3d

net.2.weight f4 [36, 64]
-0.024746563 -0.0371538 0.005289136 -0.091712505 -0.11304078 -0.04700854 -0.010159115 -0.012665868
-0.004176926 0.099996276 0.032369085 0.08919888 -0.020949272 -0.0677176 0.11414765 -0.019697845
-0.067692794 -0.11934483 0.103998944 0.07763514 -0.01819231 0.060315322 0.012648229 -0.018722937
-0.090982385 -0.06422479 0.08497538 0.102185935 0.07773726 0.108765244 -0.10116679 -0.105175726
0.017747764 -0.024310753 -0.08177575 -0.1120404 -0.04704356 0.025935357 0.1211221 0.07952018
-0.10754424 -0.032845106 -0.022152347 -0.06856377 -0.05383994 -0.009511161 0.06844728 -0.0027008145
-0.10750767 -0.02398872 0.08476727 -0.12123174 -0.114253655 -0.10048954 -0.007149491 -0.03274616
-0.11617849 0.07687976 -0.009411698 -0.113825604 0.11893895 -0.07368986 -0.055348292 0.02246112
-0.04414265 0.09525408 -0.10451128 -0.009433497 -0.061678544 -0.0085784905 -0.010370654 -0.055190455
0.121179186 0.03633776 0.01639039 -0.0010976293 0.082380526 0.022092437 0.042359114 -0.06125542
-0.024475489 -0.020634834 0.081473835 -0.020449482 -0.11025784 -0.033375524 -0.07951114 0.08289555
0.1072012 -0.06901578 -0.042009752 -0.11658206 0.05230615 0.07541224 -0.0038988825 0.0762506
0.0017539872 0.11334884 -0.0448217 0.00784339 -0.113304436 0.11860571 0.11616635 0.07489192
0.07802475 0.0016836369 -0.043503087 -0.037043117 0.03777349 -0.065964915 -0.018846538 0.05603892
-0.016691014 0.122689985 -0.10470444 -0.039435167 0.041753545 0.08720132 0.08366071 -0.096065186
-0.0071746004 0.09198027 0.111220166 0.0013704753 -0.107527465 -0.0845584 0.079919554 0.11630928
-0.06373474 -0.10945794 -0.0047673737 0.006644983 -0.10843853 0.02427354 0.041548077 -0.04150469
-0.0073303278 0.07165564 -0.031191356 -0.032602064 0.11636167 0.101356655 -0.030513002 0.12333582
0.08751028 -0.06746701 -0.079219796 0.07044316 -0.03925188 0.013510726 0.09816032 -0.10782012
-0.08779227 0.023167271 0.10893504 0.09760657 0.045467705 -0.0015146143 0.008635799 -0.020575013
-0.04431433 0.014349434 -0.09479772 0.015002287 -0.09808768 0.003932102 -0.015613303 -0.005605048
-0.0044958936 -0.10752856 -0.0071914596 0.015136256 -0.076143704 0.09955111 -0.008714319 0.064039424
0.05062745 0.115385026 -0.009051394 0.015171539 -0.04531067 -0.04108332 0.041432284 0.03657257
0.05719289 -0.040920265 0.07275417 -0.10384958 -0.10929357 -0.12137578 0.11673025 -0.022502186
0.018637788 -0.057032175 -0.013972696 0.004306024 0.116496004 -0.109606124 -0.08736556 0.00647261
-0.008949022 -0.12157925 -0.055056963 -0.11171899 0.060482472 0.05147164 -0.014990849 -0.09965878
-0.070242696 -0.008013462 0.04334018 0.006614821 0.012746444 0.117148966 0.08697607 0.11889025
-0.01450151 -0.04954354 0.10663877 0.041177023 -0.03488547 -0.12487818 -0.0471414 0.041715883
0.050339986 -0.064578116 -0.017245883 0.0075951125 0.103340335 -0.023407575 0.09299189 -0.12109054
0.06757701 0.06184127 0.034703944 0.038649503 0.08101573 -0.008105344 0.04695459 -0.023261283
0.11053318 0.055191945 0.123403646 0.03250661 0.009695676 -0.046181384 0.025137039 0.050948057
-0.029714124 -0.11027674 -0.01786817 0.046777543 -0.12653406 -0.07052891 -0.09007622 -0.026534887
00000000: 4eb9 cabc 952e 18bd 7d50 ad3b c4d3 bbbd
00000010: ed81 e7bd 078c 40bd 6b72 26bc 8084 4fbc
00000020: 98de 88bb d9ca cc3d 7295 043d e7ad b63d
00000030: cf9d abbc 86af 8abd 3ec6 e93d 605d a1bc
00000040: 85a2 8abd 106b f4bd 66fd d43d 2cff 9e3d
00000050: 0a08 95bc 330d 773d 843a 4f3c d860 99bc
00000060: f954 babd 4988 83bd 9207 ae3d dc46 d13d
00000070: b634 9f3d 50c0 de3d 8930 cfbd 5f66 d7bd
00000080: c263 913c 5827 c7bc 0b7a a7bd 7075 e5bd
00000090: bfb0 40bd 6376 d43c dd0e f83d 7adb a23d
000000a0: 2840 dcbd 9788 06bd d778 b5bc 296b 8cbd
000000b0: 4587 5cbd b3d4 1bbc 162e 8c3d 2600 31bb
000000c0: fb2c dcbd fe83 c4bc 769a ad3d 5948 f8bd
000000d0: d2fd e9bd 76cd cdbd 4746 eabb d620 06bd
000000e0: fdee edbd 2373 9d3d 8633 1abc 661d e9bd
000000f0: 4496 f33d b6ea 96bd e4b4 62bd 6200 b83c
00000100: ecce 34bd 9214 c33d 030a d6bd f48e 1abc
00000110: a4a2 7cbd cc8c 0cbc ade9 29bc 630f 62bd
00000120: cb2c f83d e7d6 143d 2445 863c 54de 8fba
00000130: 1fb7 a83d 33fb b43c c080 2d3d f7e6 7abd
00000140: d280 c8bc 620a a9bc c1db a63d ac85 a7bc
00000150: ddce e1bd c6b4 08bd bdd6 a2bd 24c5 a93d
00000160: 4e8c db3d 2558 8dbd 6b12 2cbd 93c2 eebd
00000170: f93e 563d bc71 9a3d 6584 7fbb 4629 9c3d
00000180: 0be6 e53a 7023 e83d f596 37bd 9081 003c
00000190: 280c e8bd 8de7 f23d a0e8 ed3d ef60 993d
000001a0: 71cb 9f3d 7bad dc3a 4b30 32bd 86ba 17bd
000001b0: 60b8 1a3d 9d18 87bd 0e64 9abc 1189 653d
000001c0: 98bb 88bc e344 fb3d 486f d6bd c586 21bd
000001d0: c405 2b3d 9b96 b23d 4e56 ab3d d3bd c4bd
000001e0: e918 ebbb 2760 bc3d 66c7 e33d 85a1 b33a
000001f0: 5c37 dcbd f42c adbd ddac a33d 8f33 ee3d
00000200: 5c87 82bd 7c2b e0bd a137 9cbb 28be d93b
00000210: 0515 debd 4ed9 c63c 512e 2a3d d200 2abd
00000220: 3f33 f0bb 31c0 923d 0485 ffbc be89 05bd
00000230: 074f ee3d 1494 cf3d 67f6 f9bc 7e97 fc3d
00000240: 9738 b33d 252c 8abd fd3d a2bd 8144 903d
00000250: 94c6 20bd 185c 5d3c 4708 c93d ccd0 dcbd
00000260: 6fcc b3bd 4ac9 bd3c 5619 df3d f4e5 c73d
00000270: 583c 3a3d 0686 c6ba 2b7d 0d3c ee8c a8bc
00000280: f182 35bd e319 6b3c 4f25 c2bd 27cc 753c
00000290: 32e2 c8bd ddd8 803b f0ce 7fbc 8daa b7bb
000002a0: 4a52 93bb ef37 dcbd 56a6 ebbb 0ffe 773c
000002b0: 3bf1 9bbd 74e1 cb3d 81c6 0ebc 1a27 833d
000002c0: bb5e 4f3d fc4e ec3d 4c4c 14bc 0c92 783c
000002d0: ae97 39bd fc46 28bd e6b4 293d 1fcd 153d
000002e0: 1843 6a3d 029c 27bd 2300 953d 17af d4bd
000002f0: 4fd5 dfbd dd93 f8bd 4510 ef3d 8156 b8bc
00000300: 46ae 983c 929a 69bd bced 64bc 8c19 8d3b
00000310: 7595 ee3d 2d79 e0bd b7ec b2bd 3018 d43b
00000320: eb9e 12bc 8bfe f8bd 6983 61bd edcc e4bd
00000330: 78bc 773d edd3 523d 2e9c 75bc e719 ccbd
00000340: 67db 8fbd e54a 03bc 7985 313d 24c1 d83b
00000350: 76d6 503c cceb ef3d 8320 b23d bb7c f33d
00000360: be97 6dbc 2bee 4abd 6d65 da3d 3da9 283d
00000370: 11e4 0ebd 22c0 ffbd 5717 41bd 46de 2a3d
00000380: 4d31 4e3d 8841 84bd 3d47 8dbc 6ce0 f83b
00000390: 19a4 d33d 3ec1 bfbc 8872 be3d 51fe f7bd
000003a0: d165 8a3d 464d 7d3d b925 0e3d f14e 1e3d
000003b0: 93eb a53d 47cc 04bc 7553 403d 728e bebc
000003c0: 385f e23d f310 623d 0dbb fc3d a725 053d
000003d0: 9dda 1e3c b128 3dbd 31ec cd3c e9ae 503d
000003e0: 096b f3bc c5d8 e1bd 4560 92bc cf99 3f3d
000003f0: 2592 01be 7671 90bd e279 b8bd b15f d9bc

net.2.bias f4 [36]
0.04680178 0.10453516 -0.09717746 0.044082873 -0.07325299 -0.092300594 -0.030712025 0.11996787
0.09463812 0.03892365 -0.043060917 -0.09744024 -0.08942185 0.056929313 0.10308577 -0.06323399
0.12320413 -0.12171125 -0.08797075 0.06452785 0.05667177 0.017956521 -0.009762215 -0.10596338
0.036802012 -0.060388897 -0.093226194 -0.044820916 0.11954135 0.05112618 -0.052746255 0.016216895
-0.056216825 -0.030117882 0.100988805 0.0642725
00000000: 39b3 3f3d 8816 d63d fa04 c7bd 3e90 343d
00000010: aa05 96bd 1808 bdbd c997 fbbc b7b1 f53d
00000020: a1d1 c13d 686e 1f3d a560 30bd c08e c7bd
00000030: ce22 b7bd b62e 693d a21e d33d d280 81bd
00000040: 7252 fc3d bf43 f9bd 022a b4bd 2d27 843d
00000050: a820 683d 8e19 933c b3f1 1fbc 5403 d9bd
00000060: b5bd 163d 595a 77bd 60ed bebd 2396 37bd
00000070: 18d2 f43d af69 513d 750c 58bd 4bd9 843c
00000080: 9d43 66bd c7b9 f6bc 38d3 ce3d 4da1 833d
